{"format": "graph-model", "generatedBy": "2.10.1", "convertedBy": "TensorFlow.js Converter v3.18.0", "signature": {"inputs": {"in_image": {"name": "in_image:0", "dtype": "DT_FLOAT", "tensorShape": {"dim": [{"size": "-1"}, {"size": "71"}, {"size": "71"}, {"size": "3"}]}}}, "outputs": {"dense_2": {"name": "Identity:0", "dtype": "DT_FLOAT", "tensorShape": {"dim": [{"size": "-1"}, {"size": "1"}]}}}}, "modelTopology": {"node": [{"name": "StatefulPartitionedCall/vae_img2f0/xception/block13_sepconv1/separable_conv2d/ReadVariableOp", "op": "Const", "attr": {"dtype": {"type": "DT_FLOAT"}, "value": {"tensor": {"dtype": "DT_FLOAT", "tensorShape": {"dim": [{"size": "3"}, {"size": "3"}, {"size": "728"}, {"size": "1"}]}}}}}, {"name": "StatefulPartitionedCall/vae_img2f0/xception/block13_sepconv2/separable_conv2d/ReadVariableOp", "op": "Const", "attr": {"value": {"tensor": {"dtype": "DT_FLOAT", "tensorShape": {"dim": [{"size": "3"}, {"size": "3"}, {"size": "728"}, {"size": "1"}]}}}, "dtype": {"type": "DT_FLOAT"}}}, {"name": "StatefulPartitionedCall/vae_img2f0/xception/block12_sepconv1/separable_conv2d/ReadVariableOp", "op": "Const", "attr": {"value": {"tensor": {"dtype": "DT_FLOAT", "tensorShape": {"dim": [{"size": "3"}, {"size": "3"}, {"size": "728"}, {"size": "1"}]}}}, "dtype": {"type": "DT_FLOAT"}}}, {"name": "StatefulPartitionedCall/vae_img2f0/xception/block12_sepconv2/separable_conv2d/ReadVariableOp", "op": "Const", "attr": {"dtype": {"type": "DT_FLOAT"}, "value": {"tensor": {"dtype": "DT_FLOAT", "tensorShape": {"dim": [{"size": "3"}, {"size": "3"}, {"size": "728"}, {"size": "1"}]}}}}}, {"name": "StatefulPartitionedCall/vae_img2f0/xception/block12_sepconv3/separable_conv2d/ReadVariableOp", "op": "Const", "attr": {"dtype": {"type": "DT_FLOAT"}, "value": {"tensor": {"dtype": "DT_FLOAT", "tensorShape": {"dim": [{"size": "3"}, {"size": "3"}, {"size": "728"}, {"size": "1"}]}}}}}, {"name": "StatefulPartitionedCall/vae_img2f0/xception/block11_sepconv1/separable_conv2d/ReadVariableOp", "op": "Const", "attr": {"value": {"tensor": {"dtype": "DT_FLOAT", "tensorShape": {"dim": [{"size": "3"}, {"size": "3"}, {"size": "728"}, {"size": "1"}]}}}, "dtype": {"type": "DT_FLOAT"}}}, {"name": "StatefulPartitionedCall/vae_img2f0/xception/block11_sepconv2/separable_conv2d/ReadVariableOp", "op": "Const", "attr": {"dtype": {"type": "DT_FLOAT"}, "value": {"tensor": {"dtype": "DT_FLOAT", "tensorShape": {"dim": [{"size": "3"}, {"size": "3"}, {"size": "728"}, {"size": "1"}]}}}}}, {"name": "StatefulPartitionedCall/vae_img2f0/xception/block11_sepconv3/separable_conv2d/ReadVariableOp", "op": "Const", "attr": {"dtype": {"type": "DT_FLOAT"}, "value": {"tensor": {"dtype": "DT_FLOAT", "tensorShape": {"dim": [{"size": "3"}, {"size": "3"}, {"size": "728"}, {"size": "1"}]}}}}}, {"name": "StatefulPartitionedCall/vae_img2f0/xception/block10_sepconv1/separable_conv2d/ReadVariableOp", "op": "Const", "attr": {"value": {"tensor": {"dtype": "DT_FLOAT", "tensorShape": {"dim": [{"size": "3"}, {"size": "3"}, {"size": "728"}, {"size": "1"}]}}}, "dtype": {"type": "DT_FLOAT"}}}, {"name": "StatefulPartitionedCall/vae_img2f0/xception/block10_sepconv2/separable_conv2d/ReadVariableOp", "op": "Const", "attr": {"value": {"tensor": {"dtype": "DT_FLOAT", "tensorShape": {"dim": [{"size": "3"}, {"size": "3"}, {"size": "728"}, {"size": "1"}]}}}, "dtype": {"type": "DT_FLOAT"}}}, {"name": "StatefulPartitionedCall/vae_img2f0/xception/block10_sepconv3/separable_conv2d/ReadVariableOp", "op": "Const", "attr": {"value": {"tensor": {"dtype": "DT_FLOAT", "tensorShape": {"dim": [{"size": "3"}, {"size": "3"}, {"size": "728"}, {"size": "1"}]}}}, "dtype": {"type": "DT_FLOAT"}}}, {"name": "StatefulPartitionedCall/vae_img2f0/xception/block9_sepconv1/separable_conv2d/ReadVariableOp", "op": "Const", "attr": {"value": {"tensor": {"dtype": "DT_FLOAT", "tensorShape": {"dim": [{"size": "3"}, {"size": "3"}, {"size": "728"}, {"size": "1"}]}}}, "dtype": {"type": "DT_FLOAT"}}}, {"name": "StatefulPartitionedCall/vae_img2f0/xception/block9_sepconv2/separable_conv2d/ReadVariableOp", "op": "Const", "attr": {"dtype": {"type": "DT_FLOAT"}, "value": {"tensor": {"dtype": "DT_FLOAT", "tensorShape": {"dim": [{"size": "3"}, {"size": "3"}, {"size": "728"}, {"size": "1"}]}}}}}, {"name": "StatefulPartitionedCall/vae_img2f0/xception/block9_sepconv3/separable_conv2d/ReadVariableOp", "op": "Const", "attr": {"value": {"tensor": {"dtype": "DT_FLOAT", "tensorShape": {"dim": [{"size": "3"}, {"size": "3"}, {"size": "728"}, {"size": "1"}]}}}, "dtype": {"type": "DT_FLOAT"}}}, {"name": "StatefulPartitionedCall/vae_img2f0/xception/block8_sepconv1/separable_conv2d/ReadVariableOp", "op": "Const", "attr": {"value": {"tensor": {"dtype": "DT_FLOAT", "tensorShape": {"dim": [{"size": "3"}, {"size": "3"}, {"size": "728"}, {"size": "1"}]}}}, "dtype": {"type": "DT_FLOAT"}}}, {"name": "StatefulPartitionedCall/vae_img2f0/xception/block8_sepconv2/separable_conv2d/ReadVariableOp", "op": "Const", "attr": {"dtype": {"type": "DT_FLOAT"}, "value": {"tensor": {"dtype": "DT_FLOAT", "tensorShape": {"dim": [{"size": "3"}, {"size": "3"}, {"size": "728"}, {"size": "1"}]}}}}}, {"name": "StatefulPartitionedCall/vae_img2f0/xception/block8_sepconv3/separable_conv2d/ReadVariableOp", "op": "Const", "attr": {"dtype": {"type": "DT_FLOAT"}, "value": {"tensor": {"dtype": "DT_FLOAT", "tensorShape": {"dim": [{"size": "3"}, {"size": "3"}, {"size": "728"}, {"size": "1"}]}}}}}, {"name": "StatefulPartitionedCall/vae_img2f0/xception/block7_sepconv1/separable_conv2d/ReadVariableOp", "op": "Const", "attr": {"value": {"tensor": {"dtype": "DT_FLOAT", "tensorShape": {"dim": [{"size": "3"}, {"size": "3"}, {"size": "728"}, {"size": "1"}]}}}, "dtype": {"type": "DT_FLOAT"}}}, {"name": "StatefulPartitionedCall/vae_img2f0/xception/block7_sepconv2/separable_conv2d/ReadVariableOp", "op": "Const", "attr": {"value": {"tensor": {"dtype": "DT_FLOAT", "tensorShape": {"dim": [{"size": "3"}, {"size": "3"}, {"size": "728"}, {"size": "1"}]}}}, "dtype": {"type": "DT_FLOAT"}}}, {"name": "StatefulPartitionedCall/vae_img2f0/xception/block7_sepconv3/separable_conv2d/ReadVariableOp", "op": "Const", "attr": {"dtype": {"type": "DT_FLOAT"}, "value": {"tensor": {"dtype": "DT_FLOAT", "tensorShape": {"dim": [{"size": "3"}, {"size": "3"}, {"size": "728"}, {"size": "1"}]}}}}}, {"name": "StatefulPartitionedCall/vae_img2f0/xception/block6_sepconv1/separable_conv2d/ReadVariableOp", "op": "Const", "attr": {"dtype": {"type": "DT_FLOAT"}, "value": {"tensor": {"dtype": "DT_FLOAT", "tensorShape": {"dim": [{"size": "3"}, {"size": "3"}, {"size": "728"}, {"size": "1"}]}}}}}, {"name": "StatefulPartitionedCall/vae_img2f0/xception/block6_sepconv2/separable_conv2d/ReadVariableOp", "op": "Const", "attr": {"value": {"tensor": {"dtype": "DT_FLOAT", "tensorShape": {"dim": [{"size": "3"}, {"size": "3"}, {"size": "728"}, {"size": "1"}]}}}, "dtype": {"type": "DT_FLOAT"}}}, {"name": "StatefulPartitionedCall/vae_img2f0/xception/block6_sepconv3/separable_conv2d/ReadVariableOp", "op": "Const", "attr": {"value": {"tensor": {"dtype": "DT_FLOAT", "tensorShape": {"dim": [{"size": "3"}, {"size": "3"}, {"size": "728"}, {"size": "1"}]}}}, "dtype": {"type": "DT_FLOAT"}}}, {"name": "StatefulPartitionedCall/vae_img2f0/xception/block5_sepconv1/separable_conv2d/ReadVariableOp", "op": "Const", "attr": {"dtype": {"type": "DT_FLOAT"}, "value": {"tensor": {"dtype": "DT_FLOAT", "tensorShape": {"dim": [{"size": "3"}, {"size": "3"}, {"size": "728"}, {"size": "1"}]}}}}}, {"name": "StatefulPartitionedCall/vae_img2f0/xception/block5_sepconv2/separable_conv2d/ReadVariableOp", "op": "Const", "attr": {"value": {"tensor": {"dtype": "DT_FLOAT", "tensorShape": {"dim": [{"size": "3"}, {"size": "3"}, {"size": "728"}, {"size": "1"}]}}}, "dtype": {"type": "DT_FLOAT"}}}, {"name": "StatefulPartitionedCall/vae_img2f0/xception/block5_sepconv3/separable_conv2d/ReadVariableOp", "op": "Const", "attr": {"value": {"tensor": {"dtype": "DT_FLOAT", "tensorShape": {"dim": [{"size": "3"}, {"size": "3"}, {"size": "728"}, {"size": "1"}]}}}, "dtype": {"type": "DT_FLOAT"}}}, {"name": "StatefulPartitionedCall/vae_img2f0/xception/block4_sepconv1/separable_conv2d/ReadVariableOp", "op": "Const", "attr": {"dtype": {"type": "DT_FLOAT"}, "value": {"tensor": {"dtype": "DT_FLOAT", "tensorShape": {"dim": [{"size": "3"}, {"size": "3"}, {"size": "256"}, {"size": "1"}]}}}}}, {"name": "StatefulPartitionedCall/vae_img2f0/xception/block4_sepconv2/separable_conv2d/ReadVariableOp", "op": "Const", "attr": {"value": {"tensor": {"dtype": "DT_FLOAT", "tensorShape": {"dim": [{"size": "3"}, {"size": "3"}, {"size": "728"}, {"size": "1"}]}}}, "dtype": {"type": "DT_FLOAT"}}}, {"name": "StatefulPartitionedCall/vae_img2f0/xception/block3_sepconv1/separable_conv2d/ReadVariableOp", "op": "Const", "attr": {"value": {"tensor": {"dtype": "DT_FLOAT", "tensorShape": {"dim": [{"size": "3"}, {"size": "3"}, {"size": "128"}, {"size": "1"}]}}}, "dtype": {"type": "DT_FLOAT"}}}, {"name": "StatefulPartitionedCall/vae_img2f0/xception/block3_sepconv2/separable_conv2d/ReadVariableOp", "op": "Const", "attr": {"value": {"tensor": {"dtype": "DT_FLOAT", "tensorShape": {"dim": [{"size": "3"}, {"size": "3"}, {"size": "256"}, {"size": "1"}]}}}, "dtype": {"type": "DT_FLOAT"}}}, {"name": "StatefulPartitionedCall/vae_img2f0/xception/block2_sepconv1/separable_conv2d/ReadVariableOp", "op": "Const", "attr": {"value": {"tensor": {"dtype": "DT_FLOAT", "tensorShape": {"dim": [{"size": "3"}, {"size": "3"}, {"size": "64"}, {"size": "1"}]}}}, "dtype": {"type": "DT_FLOAT"}}}, {"name": "StatefulPartitionedCall/vae_img2f0/xception/block2_sepconv2/separable_conv2d/ReadVariableOp", "op": "Const", "attr": {"value": {"tensor": {"dtype": "DT_FLOAT", "tensorShape": {"dim": [{"size": "3"}, {"size": "3"}, {"size": "128"}, {"size": "1"}]}}}, "dtype": {"type": "DT_FLOAT"}}}, {"name": "StatefulPartitionedCall/vae_img2f0/xception/block14_sepconv1/separable_conv2d/ReadVariableOp", "op": "Const", "attr": {"value": {"tensor": {"dtype": "DT_FLOAT", "tensorShape": {"dim": [{"size": "3"}, {"size": "3"}, {"size": "1024"}, {"size": "1"}]}}}, "dtype": {"type": "DT_FLOAT"}}}, {"name": "StatefulPartitionedCall/vae_img2f0/xception/block14_sepconv2/separable_conv2d/ReadVariableOp", "op": "Const", "attr": {"value": {"tensor": {"dtype": "DT_FLOAT", "tensorShape": {"dim": [{"size": "3"}, {"size": "3"}, {"size": "1536"}, {"size": "1"}]}}}, "dtype": {"type": "DT_FLOAT"}}}, {"name": "StatefulPartitionedCall/vae_img2f0/flatten_2/Const", "op": "Const", "attr": {"dtype": {"type": "DT_INT32"}, "value": {"tensor": {"dtype": "DT_INT32", "tensorShape": {"dim": [{"size": "2"}]}}}}}, {"name": "StatefulPartitionedCall/vae_img2f0/dense_1/MatMul/ReadVariableOp", "op": "Const", "attr": {"dtype": {"type": "DT_FLOAT"}, "value": {"tensor": {"dtype": "DT_FLOAT", "tensorShape": {"dim": [{"size": "18432"}, {"size": "128"}]}}}}}, {"name": "StatefulPartitionedCall/vae_img2f0/dense_1/BiasAdd/ReadVariableOp", "op": "Const", "attr": {"dtype": {"type": "DT_FLOAT"}, "value": {"tensor": {"dtype": "DT_FLOAT", "tensorShape": {"dim": [{"size": "128"}]}}}}}, {"name": "StatefulPartitionedCall/vae_img2f0/dense_2/MatMul/ReadVariableOp", "op": "Const", "attr": {"dtype": {"type": "DT_FLOAT"}, "value": {"tensor": {"dtype": "DT_FLOAT", "tensorShape": {"dim": [{"size": "128"}, {"size": "1"}]}}}}}, {"name": "StatefulPartitionedCall/vae_img2f0/dense_2/BiasAdd/ReadVariableOp", "op": "Const", "attr": {"dtype": {"type": "DT_FLOAT"}, "value": {"tensor": {"dtype": "DT_FLOAT", "tensorShape": {"dim": [{"size": "1"}]}}}}}, {"name": "in_image", "op": "Placeholder", "attr": {"shape": {"shape": {"dim": [{"size": "-1"}, {"size": "71"}, {"size": "71"}, {"size": "3"}]}}, "dtype": {"type": "DT_FLOAT"}}}, {"name": "StatefulPartitionedCall/vae_img2f0/xception/block1_conv1/Conv2D_weights", "op": "Const", "attr": {"dtype": {"type": "DT_FLOAT"}, "value": {"tensor": {"dtype": "DT_FLOAT", "tensorShape": {"dim": [{"size": "3"}, {"size": "3"}, {"size": "3"}, {"size": "32"}]}}}}}, {"name": "StatefulPartitionedCall/vae_img2f0/xception/block11_sepconv2/separable_conv2d_weights", "op": "Const", "attr": {"dtype": {"type": "DT_FLOAT"}, "value": {"tensor": {"dtype": "DT_FLOAT", "tensorShape": {"dim": [{"size": "1"}, {"size": "1"}, {"size": "728"}, {"size": "728"}]}}}}}, {"name": "StatefulPartitionedCall/vae_img2f0/xception/block1_conv1/Conv2D_bn_offset", "op": "Const", "attr": {"value": {"tensor": {"dtype": "DT_FLOAT", "tensorShape": {"dim": [{"size": "32"}]}}}, "dtype": {"type": "DT_FLOAT"}}}, {"name": "StatefulPartitionedCall/vae_img2f0/xception/block1_conv2/Conv2D_weights", "op": "Const", "attr": {"dtype": {"type": "DT_FLOAT"}, "value": {"tensor": {"dtype": "DT_FLOAT", "tensorShape": {"dim": [{"size": "3"}, {"size": "3"}, {"size": "32"}, {"size": "64"}]}}}}}, {"name": "StatefulPartitionedCall/vae_img2f0/xception/block11_sepconv2/separable_conv2d_bn_offset", "op": "Const", "attr": {"dtype": {"type": "DT_FLOAT"}, "value": {"tensor": {"dtype": "DT_FLOAT", "tensorShape": {"dim": [{"size": "728"}]}}}}}, {"name": "StatefulPartitionedCall/vae_img2f0/xception/block1_conv2/Conv2D_bn_offset", "op": "Const", "attr": {"dtype": {"type": "DT_FLOAT"}, "value": {"tensor": {"dtype": "DT_FLOAT", "tensorShape": {"dim": [{"size": "64"}]}}}}}, {"name": "StatefulPartitionedCall/vae_img2f0/xception/block14_sepconv1/separable_conv2d_weights", "op": "Const", "attr": {"dtype": {"type": "DT_FLOAT"}, "value": {"tensor": {"dtype": "DT_FLOAT", "tensorShape": {"dim": [{"size": "1"}, {"size": "1"}, {"size": "1024"}, {"size": "1536"}]}}}}}, {"name": "StatefulPartitionedCall/vae_img2f0/xception/conv2d_4/Conv2D_weights", "op": "Const", "attr": {"value": {"tensor": {"dtype": "DT_FLOAT", "tensorShape": {"dim": [{"size": "1"}, {"size": "1"}, {"size": "64"}, {"size": "128"}]}}}, "dtype": {"type": "DT_FLOAT"}}}, {"name": "StatefulPartitionedCall/vae_img2f0/xception/conv2d_4/Conv2D_bn_offset", "op": "Const", "attr": {"dtype": {"type": "DT_FLOAT"}, "value": {"tensor": {"dtype": "DT_FLOAT", "tensorShape": {"dim": [{"size": "128"}]}}}}}, {"name": "StatefulPartitionedCall/vae_img2f0/xception/block2_sepconv1/separable_conv2d_weights", "op": "Const", "attr": {"value": {"tensor": {"dtype": "DT_FLOAT", "tensorShape": {"dim": [{"size": "1"}, {"size": "1"}, {"size": "64"}, {"size": "128"}]}}}, "dtype": {"type": "DT_FLOAT"}}}, {"name": "StatefulPartitionedCall/vae_img2f0/xception/block2_sepconv1/separable_conv2d_bn_offset", "op": "Const", "attr": {"value": {"tensor": {"dtype": "DT_FLOAT", "tensorShape": {"dim": [{"size": "128"}]}}}, "dtype": {"type": "DT_FLOAT"}}}, {"name": "StatefulPartitionedCall/vae_img2f0/xception/block11_sepconv3/separable_conv2d_weights", "op": "Const", "attr": {"value": {"tensor": {"dtype": "DT_FLOAT", "tensorShape": {"dim": [{"size": "1"}, {"size": "1"}, {"size": "728"}, {"size": "728"}]}}}, "dtype": {"type": "DT_FLOAT"}}}, {"name": "StatefulPartitionedCall/vae_img2f0/xception/block2_sepconv2/separable_conv2d_weights", "op": "Const", "attr": {"value": {"tensor": {"dtype": "DT_FLOAT", "tensorShape": {"dim": [{"size": "1"}, {"size": "1"}, {"size": "128"}, {"size": "128"}]}}}, "dtype": {"type": "DT_FLOAT"}}}, {"name": "StatefulPartitionedCall/vae_img2f0/xception/block2_sepconv2/separable_conv2d_bn_offset", "op": "Const", "attr": {"value": {"tensor": {"dtype": "DT_FLOAT", "tensorShape": {"dim": [{"size": "128"}]}}}, "dtype": {"type": "DT_FLOAT"}}}, {"name": "StatefulPartitionedCall/vae_img2f0/xception/conv2d_5/Conv2D_weights", "op": "Const", "attr": {"value": {"tensor": {"dtype": "DT_FLOAT", "tensorShape": {"dim": [{"size": "1"}, {"size": "1"}, {"size": "128"}, {"size": "256"}]}}}, "dtype": {"type": "DT_FLOAT"}}}, {"name": "StatefulPartitionedCall/vae_img2f0/xception/block11_sepconv3/separable_conv2d_bn_offset", "op": "Const", "attr": {"value": {"tensor": {"dtype": "DT_FLOAT", "tensorShape": {"dim": [{"size": "728"}]}}}, "dtype": {"type": "DT_FLOAT"}}}, {"name": "StatefulPartitionedCall/vae_img2f0/xception/conv2d_5/Conv2D_bn_offset", "op": "Const", "attr": {"dtype": {"type": "DT_FLOAT"}, "value": {"tensor": {"dtype": "DT_FLOAT", "tensorShape": {"dim": [{"size": "256"}]}}}}}, {"name": "StatefulPartitionedCall/vae_img2f0/xception/block3_sepconv1/separable_conv2d_weights", "op": "Const", "attr": {"value": {"tensor": {"dtype": "DT_FLOAT", "tensorShape": {"dim": [{"size": "1"}, {"size": "1"}, {"size": "128"}, {"size": "256"}]}}}, "dtype": {"type": "DT_FLOAT"}}}, {"name": "StatefulPartitionedCall/vae_img2f0/xception/block3_sepconv1/separable_conv2d_bn_offset", "op": "Const", "attr": {"value": {"tensor": {"dtype": "DT_FLOAT", "tensorShape": {"dim": [{"size": "256"}]}}}, "dtype": {"type": "DT_FLOAT"}}}, {"name": "StatefulPartitionedCall/vae_img2f0/xception/block3_sepconv2/separable_conv2d_weights", "op": "Const", "attr": {"value": {"tensor": {"dtype": "DT_FLOAT", "tensorShape": {"dim": [{"size": "1"}, {"size": "1"}, {"size": "256"}, {"size": "256"}]}}}, "dtype": {"type": "DT_FLOAT"}}}, {"name": "StatefulPartitionedCall/vae_img2f0/xception/block3_sepconv2/separable_conv2d_bn_offset", "op": "Const", "attr": {"value": {"tensor": {"dtype": "DT_FLOAT", "tensorShape": {"dim": [{"size": "256"}]}}}, "dtype": {"type": "DT_FLOAT"}}}, {"name": "StatefulPartitionedCall/vae_img2f0/xception/conv2d_6/Conv2D_weights", "op": "Const", "attr": {"dtype": {"type": "DT_FLOAT"}, "value": {"tensor": {"dtype": "DT_FLOAT", "tensorShape": {"dim": [{"size": "1"}, {"size": "1"}, {"size": "256"}, {"size": "728"}]}}}}}, {"name": "StatefulPartitionedCall/vae_img2f0/xception/conv2d_6/Conv2D_bn_offset", "op": "Const", "attr": {"value": {"tensor": {"dtype": "DT_FLOAT", "tensorShape": {"dim": [{"size": "728"}]}}}, "dtype": {"type": "DT_FLOAT"}}}, {"name": "StatefulPartitionedCall/vae_img2f0/xception/block4_sepconv1/separable_conv2d_weights", "op": "Const", "attr": {"value": {"tensor": {"dtype": "DT_FLOAT", "tensorShape": {"dim": [{"size": "1"}, {"size": "1"}, {"size": "256"}, {"size": "728"}]}}}, "dtype": {"type": "DT_FLOAT"}}}, {"name": "StatefulPartitionedCall/vae_img2f0/xception/block12_sepconv1/separable_conv2d_weights", "op": "Const", "attr": {"value": {"tensor": {"dtype": "DT_FLOAT", "tensorShape": {"dim": [{"size": "1"}, {"size": "1"}, {"size": "728"}, {"size": "728"}]}}}, "dtype": {"type": "DT_FLOAT"}}}, {"name": "StatefulPartitionedCall/vae_img2f0/xception/block4_sepconv1/separable_conv2d_bn_offset", "op": "Const", "attr": {"dtype": {"type": "DT_FLOAT"}, "value": {"tensor": {"dtype": "DT_FLOAT", "tensorShape": {"dim": [{"size": "728"}]}}}}}, {"name": "StatefulPartitionedCall/vae_img2f0/xception/block14_sepconv1/separable_conv2d_bn_offset", "op": "Const", "attr": {"dtype": {"type": "DT_FLOAT"}, "value": {"tensor": {"dtype": "DT_FLOAT", "tensorShape": {"dim": [{"size": "1536"}]}}}}}, {"name": "StatefulPartitionedCall/vae_img2f0/xception/block4_sepconv2/separable_conv2d_weights", "op": "Const", "attr": {"value": {"tensor": {"dtype": "DT_FLOAT", "tensorShape": {"dim": [{"size": "1"}, {"size": "1"}, {"size": "728"}, {"size": "728"}]}}}, "dtype": {"type": "DT_FLOAT"}}}, {"name": "StatefulPartitionedCall/vae_img2f0/xception/block12_sepconv1/separable_conv2d_bn_offset", "op": "Const", "attr": {"dtype": {"type": "DT_FLOAT"}, "value": {"tensor": {"dtype": "DT_FLOAT", "tensorShape": {"dim": [{"size": "728"}]}}}}}, {"name": "StatefulPartitionedCall/vae_img2f0/xception/block4_sepconv2/separable_conv2d_bn_offset", "op": "Const", "attr": {"dtype": {"type": "DT_FLOAT"}, "value": {"tensor": {"dtype": "DT_FLOAT", "tensorShape": {"dim": [{"size": "728"}]}}}}}, {"name": "StatefulPartitionedCall/vae_img2f0/xception/block5_sepconv1/separable_conv2d_weights", "op": "Const", "attr": {"dtype": {"type": "DT_FLOAT"}, "value": {"tensor": {"dtype": "DT_FLOAT", "tensorShape": {"dim": [{"size": "1"}, {"size": "1"}, {"size": "728"}, {"size": "728"}]}}}}}, {"name": "StatefulPartitionedCall/vae_img2f0/xception/block5_sepconv1/separable_conv2d_bn_offset", "op": "Const", "attr": {"value": {"tensor": {"dtype": "DT_FLOAT", "tensorShape": {"dim": [{"size": "728"}]}}}, "dtype": {"type": "DT_FLOAT"}}}, {"name": "StatefulPartitionedCall/vae_img2f0/xception/block5_sepconv2/separable_conv2d_weights", "op": "Const", "attr": {"value": {"tensor": {"dtype": "DT_FLOAT", "tensorShape": {"dim": [{"size": "1"}, {"size": "1"}, {"size": "728"}, {"size": "728"}]}}}, "dtype": {"type": "DT_FLOAT"}}}, {"name": "StatefulPartitionedCall/vae_img2f0/xception/block5_sepconv2/separable_conv2d_bn_offset", "op": "Const", "attr": {"value": {"tensor": {"dtype": "DT_FLOAT", "tensorShape": {"dim": [{"size": "728"}]}}}, "dtype": {"type": "DT_FLOAT"}}}, {"name": "StatefulPartitionedCall/vae_img2f0/xception/block12_sepconv2/separable_conv2d_weights", "op": "Const", "attr": {"value": {"tensor": {"dtype": "DT_FLOAT", "tensorShape": {"dim": [{"size": "1"}, {"size": "1"}, {"size": "728"}, {"size": "728"}]}}}, "dtype": {"type": "DT_FLOAT"}}}, {"name": "StatefulPartitionedCall/vae_img2f0/xception/block5_sepconv3/separable_conv2d_weights", "op": "Const", "attr": {"dtype": {"type": "DT_FLOAT"}, "value": {"tensor": {"dtype": "DT_FLOAT", "tensorShape": {"dim": [{"size": "1"}, {"size": "1"}, {"size": "728"}, {"size": "728"}]}}}}}, {"name": "StatefulPartitionedCall/vae_img2f0/xception/block5_sepconv3/separable_conv2d_bn_offset", "op": "Const", "attr": {"value": {"tensor": {"dtype": "DT_FLOAT", "tensorShape": {"dim": [{"size": "728"}]}}}, "dtype": {"type": "DT_FLOAT"}}}, {"name": "StatefulPartitionedCall/vae_img2f0/xception/block6_sepconv1/separable_conv2d_weights", "op": "Const", "attr": {"dtype": {"type": "DT_FLOAT"}, "value": {"tensor": {"dtype": "DT_FLOAT", "tensorShape": {"dim": [{"size": "1"}, {"size": "1"}, {"size": "728"}, {"size": "728"}]}}}}}, {"name": "StatefulPartitionedCall/vae_img2f0/xception/block12_sepconv2/separable_conv2d_bn_offset", "op": "Const", "attr": {"value": {"tensor": {"dtype": "DT_FLOAT", "tensorShape": {"dim": [{"size": "728"}]}}}, "dtype": {"type": "DT_FLOAT"}}}, {"name": "StatefulPartitionedCall/vae_img2f0/xception/block6_sepconv1/separable_conv2d_bn_offset", "op": "Const", "attr": {"value": {"tensor": {"dtype": "DT_FLOAT", "tensorShape": {"dim": [{"size": "728"}]}}}, "dtype": {"type": "DT_FLOAT"}}}, {"name": "StatefulPartitionedCall/vae_img2f0/xception/block6_sepconv2/separable_conv2d_weights", "op": "Const", "attr": {"value": {"tensor": {"dtype": "DT_FLOAT", "tensorShape": {"dim": [{"size": "1"}, {"size": "1"}, {"size": "728"}, {"size": "728"}]}}}, "dtype": {"type": "DT_FLOAT"}}}, {"name": "StatefulPartitionedCall/vae_img2f0/xception/block6_sepconv2/separable_conv2d_bn_offset", "op": "Const", "attr": {"dtype": {"type": "DT_FLOAT"}, "value": {"tensor": {"dtype": "DT_FLOAT", "tensorShape": {"dim": [{"size": "728"}]}}}}}, {"name": "StatefulPartitionedCall/vae_img2f0/xception/block6_sepconv3/separable_conv2d_weights", "op": "Const", "attr": {"value": {"tensor": {"dtype": "DT_FLOAT", "tensorShape": {"dim": [{"size": "1"}, {"size": "1"}, {"size": "728"}, {"size": "728"}]}}}, "dtype": {"type": "DT_FLOAT"}}}, {"name": "StatefulPartitionedCall/vae_img2f0/xception/block12_sepconv3/separable_conv2d_weights", "op": "Const", "attr": {"value": {"tensor": {"dtype": "DT_FLOAT", "tensorShape": {"dim": [{"size": "1"}, {"size": "1"}, {"size": "728"}, {"size": "728"}]}}}, "dtype": {"type": "DT_FLOAT"}}}, {"name": "StatefulPartitionedCall/vae_img2f0/xception/block6_sepconv3/separable_conv2d_bn_offset", "op": "Const", "attr": {"value": {"tensor": {"dtype": "DT_FLOAT", "tensorShape": {"dim": [{"size": "728"}]}}}, "dtype": {"type": "DT_FLOAT"}}}, {"name": "StatefulPartitionedCall/vae_img2f0/xception/block7_sepconv1/separable_conv2d_weights", "op": "Const", "attr": {"value": {"tensor": {"dtype": "DT_FLOAT", "tensorShape": {"dim": [{"size": "1"}, {"size": "1"}, {"size": "728"}, {"size": "728"}]}}}, "dtype": {"type": "DT_FLOAT"}}}, {"name": "StatefulPartitionedCall/vae_img2f0/xception/block14_sepconv2/separable_conv2d_weights", "op": "Const", "attr": {"dtype": {"type": "DT_FLOAT"}, "value": {"tensor": {"dtype": "DT_FLOAT", "tensorShape": {"dim": [{"size": "1"}, {"size": "1"}, {"size": "1536"}, {"size": "2048"}]}}}}}, {"name": "StatefulPartitionedCall/vae_img2f0/xception/block7_sepconv1/separable_conv2d_bn_offset", "op": "Const", "attr": {"value": {"tensor": {"dtype": "DT_FLOAT", "tensorShape": {"dim": [{"size": "728"}]}}}, "dtype": {"type": "DT_FLOAT"}}}, {"name": "StatefulPartitionedCall/vae_img2f0/xception/block12_sepconv3/separable_conv2d_bn_offset", "op": "Const", "attr": {"value": {"tensor": {"dtype": "DT_FLOAT", "tensorShape": {"dim": [{"size": "728"}]}}}, "dtype": {"type": "DT_FLOAT"}}}, {"name": "StatefulPartitionedCall/vae_img2f0/xception/block7_sepconv2/separable_conv2d_weights", "op": "Const", "attr": {"value": {"tensor": {"dtype": "DT_FLOAT", "tensorShape": {"dim": [{"size": "1"}, {"size": "1"}, {"size": "728"}, {"size": "728"}]}}}, "dtype": {"type": "DT_FLOAT"}}}, {"name": "StatefulPartitionedCall/vae_img2f0/xception/block7_sepconv2/separable_conv2d_bn_offset", "op": "Const", "attr": {"value": {"tensor": {"dtype": "DT_FLOAT", "tensorShape": {"dim": [{"size": "728"}]}}}, "dtype": {"type": "DT_FLOAT"}}}, {"name": "StatefulPartitionedCall/vae_img2f0/xception/block7_sepconv3/separable_conv2d_weights", "op": "Const", "attr": {"dtype": {"type": "DT_FLOAT"}, "value": {"tensor": {"dtype": "DT_FLOAT", "tensorShape": {"dim": [{"size": "1"}, {"size": "1"}, {"size": "728"}, {"size": "728"}]}}}}}, {"name": "StatefulPartitionedCall/vae_img2f0/xception/block7_sepconv3/separable_conv2d_bn_offset", "op": "Const", "attr": {"dtype": {"type": "DT_FLOAT"}, "value": {"tensor": {"dtype": "DT_FLOAT", "tensorShape": {"dim": [{"size": "728"}]}}}}}, {"name": "StatefulPartitionedCall/vae_img2f0/xception/block8_sepconv1/separable_conv2d_weights", "op": "Const", "attr": {"dtype": {"type": "DT_FLOAT"}, "value": {"tensor": {"dtype": "DT_FLOAT", "tensorShape": {"dim": [{"size": "1"}, {"size": "1"}, {"size": "728"}, {"size": "728"}]}}}}}, {"name": "StatefulPartitionedCall/vae_img2f0/xception/block8_sepconv1/separable_conv2d_bn_offset", "op": "Const", "attr": {"dtype": {"type": "DT_FLOAT"}, "value": {"tensor": {"dtype": "DT_FLOAT", "tensorShape": {"dim": [{"size": "728"}]}}}}}, {"name": "StatefulPartitionedCall/vae_img2f0/xception/conv2d_7/Conv2D_weights", "op": "Const", "attr": {"dtype": {"type": "DT_FLOAT"}, "value": {"tensor": {"dtype": "DT_FLOAT", "tensorShape": {"dim": [{"size": "1"}, {"size": "1"}, {"size": "728"}, {"size": "1024"}]}}}}}, {"name": "StatefulPartitionedCall/vae_img2f0/xception/block8_sepconv2/separable_conv2d_weights", "op": "Const", "attr": {"value": {"tensor": {"dtype": "DT_FLOAT", "tensorShape": {"dim": [{"size": "1"}, {"size": "1"}, {"size": "728"}, {"size": "728"}]}}}, "dtype": {"type": "DT_FLOAT"}}}, {"name": "StatefulPartitionedCall/vae_img2f0/xception/block8_sepconv2/separable_conv2d_bn_offset", "op": "Const", "attr": {"dtype": {"type": "DT_FLOAT"}, "value": {"tensor": {"dtype": "DT_FLOAT", "tensorShape": {"dim": [{"size": "728"}]}}}}}, {"name": "StatefulPartitionedCall/vae_img2f0/xception/conv2d_7/Conv2D_bn_offset", "op": "Const", "attr": {"dtype": {"type": "DT_FLOAT"}, "value": {"tensor": {"dtype": "DT_FLOAT", "tensorShape": {"dim": [{"size": "1024"}]}}}}}, {"name": "StatefulPartitionedCall/vae_img2f0/xception/block8_sepconv3/separable_conv2d_weights", "op": "Const", "attr": {"dtype": {"type": "DT_FLOAT"}, "value": {"tensor": {"dtype": "DT_FLOAT", "tensorShape": {"dim": [{"size": "1"}, {"size": "1"}, {"size": "728"}, {"size": "728"}]}}}}}, {"name": "StatefulPartitionedCall/vae_img2f0/xception/block8_sepconv3/separable_conv2d_bn_offset", "op": "Const", "attr": {"dtype": {"type": "DT_FLOAT"}, "value": {"tensor": {"dtype": "DT_FLOAT", "tensorShape": {"dim": [{"size": "728"}]}}}}}, {"name": "StatefulPartitionedCall/vae_img2f0/xception/block9_sepconv1/separable_conv2d_weights", "op": "Const", "attr": {"dtype": {"type": "DT_FLOAT"}, "value": {"tensor": {"dtype": "DT_FLOAT", "tensorShape": {"dim": [{"size": "1"}, {"size": "1"}, {"size": "728"}, {"size": "728"}]}}}}}, {"name": "StatefulPartitionedCall/vae_img2f0/xception/block13_sepconv1/separable_conv2d_weights", "op": "Const", "attr": {"dtype": {"type": "DT_FLOAT"}, "value": {"tensor": {"dtype": "DT_FLOAT", "tensorShape": {"dim": [{"size": "1"}, {"size": "1"}, {"size": "728"}, {"size": "728"}]}}}}}, {"name": "StatefulPartitionedCall/vae_img2f0/xception/block9_sepconv1/separable_conv2d_bn_offset", "op": "Const", "attr": {"value": {"tensor": {"dtype": "DT_FLOAT", "tensorShape": {"dim": [{"size": "728"}]}}}, "dtype": {"type": "DT_FLOAT"}}}, {"name": "StatefulPartitionedCall/vae_img2f0/xception/block14_sepconv2/separable_conv2d_bn_offset", "op": "Const", "attr": {"dtype": {"type": "DT_FLOAT"}, "value": {"tensor": {"dtype": "DT_FLOAT", "tensorShape": {"dim": [{"size": "2048"}]}}}}}, {"name": "StatefulPartitionedCall/vae_img2f0/xception/block9_sepconv2/separable_conv2d_weights", "op": "Const", "attr": {"dtype": {"type": "DT_FLOAT"}, "value": {"tensor": {"dtype": "DT_FLOAT", "tensorShape": {"dim": [{"size": "1"}, {"size": "1"}, {"size": "728"}, {"size": "728"}]}}}}}, {"name": "StatefulPartitionedCall/vae_img2f0/xception/block13_sepconv1/separable_conv2d_bn_offset", "op": "Const", "attr": {"dtype": {"type": "DT_FLOAT"}, "value": {"tensor": {"dtype": "DT_FLOAT", "tensorShape": {"dim": [{"size": "728"}]}}}}}, {"name": "StatefulPartitionedCall/vae_img2f0/xception/block9_sepconv2/separable_conv2d_bn_offset", "op": "Const", "attr": {"dtype": {"type": "DT_FLOAT"}, "value": {"tensor": {"dtype": "DT_FLOAT", "tensorShape": {"dim": [{"size": "728"}]}}}}}, {"name": "StatefulPartitionedCall/vae_img2f0/xception/block9_sepconv3/separable_conv2d_weights", "op": "Const", "attr": {"value": {"tensor": {"dtype": "DT_FLOAT", "tensorShape": {"dim": [{"size": "1"}, {"size": "1"}, {"size": "728"}, {"size": "728"}]}}}, "dtype": {"type": "DT_FLOAT"}}}, {"name": "StatefulPartitionedCall/vae_img2f0/xception/block9_sepconv3/separable_conv2d_bn_offset", "op": "Const", "attr": {"value": {"tensor": {"dtype": "DT_FLOAT", "tensorShape": {"dim": [{"size": "728"}]}}}, "dtype": {"type": "DT_FLOAT"}}}, {"name": "StatefulPartitionedCall/vae_img2f0/xception/block10_sepconv1/separable_conv2d_weights", "op": "Const", "attr": {"dtype": {"type": "DT_FLOAT"}, "value": {"tensor": {"dtype": "DT_FLOAT", "tensorShape": {"dim": [{"size": "1"}, {"size": "1"}, {"size": "728"}, {"size": "728"}]}}}}}, {"name": "StatefulPartitionedCall/vae_img2f0/xception/block10_sepconv1/separable_conv2d_bn_offset", "op": "Const", "attr": {"dtype": {"type": "DT_FLOAT"}, "value": {"tensor": {"dtype": "DT_FLOAT", "tensorShape": {"dim": [{"size": "728"}]}}}}}, {"name": "StatefulPartitionedCall/vae_img2f0/xception/block13_sepconv2/separable_conv2d_weights", "op": "Const", "attr": {"dtype": {"type": "DT_FLOAT"}, "value": {"tensor": {"dtype": "DT_FLOAT", "tensorShape": {"dim": [{"size": "1"}, {"size": "1"}, {"size": "728"}, {"size": "1024"}]}}}}}, {"name": "StatefulPartitionedCall/vae_img2f0/xception/block10_sepconv2/separable_conv2d_weights", "op": "Const", "attr": {"dtype": {"type": "DT_FLOAT"}, "value": {"tensor": {"dtype": "DT_FLOAT", "tensorShape": {"dim": [{"size": "1"}, {"size": "1"}, {"size": "728"}, {"size": "728"}]}}}}}, {"name": "StatefulPartitionedCall/vae_img2f0/xception/block10_sepconv2/separable_conv2d_bn_offset", "op": "Const", "attr": {"value": {"tensor": {"dtype": "DT_FLOAT", "tensorShape": {"dim": [{"size": "728"}]}}}, "dtype": {"type": "DT_FLOAT"}}}, {"name": "StatefulPartitionedCall/vae_img2f0/xception/block13_sepconv2/separable_conv2d_bn_offset", "op": "Const", "attr": {"value": {"tensor": {"dtype": "DT_FLOAT", "tensorShape": {"dim": [{"size": "1024"}]}}}, "dtype": {"type": "DT_FLOAT"}}}, {"name": "StatefulPartitionedCall/vae_img2f0/xception/block10_sepconv3/separable_conv2d_weights", "op": "Const", "attr": {"value": {"tensor": {"dtype": "DT_FLOAT", "tensorShape": {"dim": [{"size": "1"}, {"size": "1"}, {"size": "728"}, {"size": "728"}]}}}, "dtype": {"type": "DT_FLOAT"}}}, {"name": "StatefulPartitionedCall/vae_img2f0/xception/block10_sepconv3/separable_conv2d_bn_offset", "op": "Const", "attr": {"value": {"tensor": {"dtype": "DT_FLOAT", "tensorShape": {"dim": [{"size": "728"}]}}}, "dtype": {"type": "DT_FLOAT"}}}, {"name": "StatefulPartitionedCall/vae_img2f0/xception/block11_sepconv1/separable_conv2d_weights", "op": "Const", "attr": {"dtype": {"type": "DT_FLOAT"}, "value": {"tensor": {"dtype": "DT_FLOAT", "tensorShape": {"dim": [{"size": "1"}, {"size": "1"}, {"size": "728"}, {"size": "728"}]}}}}}, {"name": "StatefulPartitionedCall/vae_img2f0/xception/block11_sepconv1/separable_conv2d_bn_offset", "op": "Const", "attr": {"value": {"tensor": {"dtype": "DT_FLOAT", "tensorShape": {"dim": [{"size": "728"}]}}}, "dtype": {"type": "DT_FLOAT"}}}, {"name": "StatefulPartitionedCall/vae_img2f0/xception/block1_conv1_act/Relu", "op": "_FusedConv2D", "input": ["in_image", "StatefulPartitionedCall/vae_img2f0/xception/block1_conv1/Conv2D_weights", "StatefulPartitionedCall/vae_img2f0/xception/block1_conv1/Conv2D_bn_offset"], "device": "/device:CPU:0", "attr": {"num_args": {"i": "1"}, "use_cudnn_on_gpu": {"b": true}, "T": {"type": "DT_FLOAT"}, "fused_ops": {"list": {"s": ["Qmlhc0FkZA==", "UmVsdQ=="]}}, "strides": {"list": {"i": ["1", "2", "2", "1"]}}, "explicit_paddings": {"list": {}}, "data_format": {"s": "TkhXQw=="}, "padding": {"s": "VkFMSUQ="}, "epsilon": {"f": 0.0}, "dilations": {"list": {"i": ["1", "1", "1", "1"]}}}}, {"name": "StatefulPartitionedCall/vae_img2f0/xception/block1_conv2_act/Relu", "op": "_FusedConv2D", "input": ["StatefulPartitionedCall/vae_img2f0/xception/block1_conv1_act/Relu", "StatefulPartitionedCall/vae_img2f0/xception/block1_conv2/Conv2D_weights", "StatefulPartitionedCall/vae_img2f0/xception/block1_conv2/Conv2D_bn_offset"], "device": "/device:CPU:0", "attr": {"strides": {"list": {"i": ["1", "1", "1", "1"]}}, "T": {"type": "DT_FLOAT"}, "num_args": {"i": "1"}, "use_cudnn_on_gpu": {"b": true}, "explicit_paddings": {"list": {}}, "padding": {"s": "VkFMSUQ="}, "data_format": {"s": "TkhXQw=="}, "fused_ops": {"list": {"s": ["Qmlhc0FkZA==", "UmVsdQ=="]}}, "epsilon": {"f": 0.0}, "dilations": {"list": {"i": ["1", "1", "1", "1"]}}}}, {"name": "StatefulPartitionedCall/vae_img2f0/xception/block2_sepconv1/separable_conv2d/depthwise", "op": "DepthwiseConv2dNative", "input": ["StatefulPartitionedCall/vae_img2f0/xception/block1_conv2_act/Relu", "StatefulPartitionedCall/vae_img2f0/xception/block2_sepconv1/separable_conv2d/ReadVariableOp"], "attr": {"strides": {"list": {"i": ["1", "1", "1", "1"]}}, "T": {"type": "DT_FLOAT"}, "explicit_paddings": {"list": {}}, "padding": {"s": "U0FNRQ=="}, "data_format": {"s": "TkhXQw=="}, "dilations": {"list": {"i": ["1", "1", "1", "1"]}}}}, {"name": "StatefulPartitionedCall/vae_img2f0/xception/batch_normalization_10/FusedBatchNormV3", "op": "_FusedConv2D", "input": ["StatefulPartitionedCall/vae_img2f0/xception/block1_conv2_act/Relu", "StatefulPartitionedCall/vae_img2f0/xception/conv2d_4/Conv2D_weights", "StatefulPartitionedCall/vae_img2f0/xception/conv2d_4/Conv2D_bn_offset"], "device": "/device:CPU:0", "attr": {"strides": {"list": {"i": ["1", "2", "2", "1"]}}, "num_args": {"i": "1"}, "T": {"type": "DT_FLOAT"}, "use_cudnn_on_gpu": {"b": true}, "data_format": {"s": "TkhXQw=="}, "fused_ops": {"list": {"s": ["Qmlhc0FkZA=="]}}, "epsilon": {"f": 0.0}, "padding": {"s": "U0FNRQ=="}, "dilations": {"list": {"i": ["1", "1", "1", "1"]}}, "explicit_paddings": {"list": {}}}}, {"name": "StatefulPartitionedCall/vae_img2f0/xception/block2_sepconv2_act/Relu", "op": "_FusedConv2D", "input": ["StatefulPartitionedCall/vae_img2f0/xception/block2_sepconv1/separable_conv2d/depthwise", "StatefulPartitionedCall/vae_img2f0/xception/block2_sepconv1/separable_conv2d_weights", "StatefulPartitionedCall/vae_img2f0/xception/block2_sepconv1/separable_conv2d_bn_offset"], "device": "/device:CPU:0", "attr": {"strides": {"list": {"i": ["1", "1", "1", "1"]}}, "fused_ops": {"list": {"s": ["Qmlhc0FkZA==", "UmVsdQ=="]}}, "num_args": {"i": "1"}, "padding": {"s": "VkFMSUQ="}, "use_cudnn_on_gpu": {"b": true}, "data_format": {"s": "TkhXQw=="}, "epsilon": {"f": 0.0}, "dilations": {"list": {"i": ["1", "1", "1", "1"]}}, "T": {"type": "DT_FLOAT"}, "explicit_paddings": {"list": {}}}}, {"name": "StatefulPartitionedCall/vae_img2f0/xception/block2_sepconv2/separable_conv2d/depthwise", "op": "DepthwiseConv2dNative", "input": ["StatefulPartitionedCall/vae_img2f0/xception/block2_sepconv2_act/Relu", "StatefulPartitionedCall/vae_img2f0/xception/block2_sepconv2/separable_conv2d/ReadVariableOp"], "attr": {"strides": {"list": {"i": ["1", "1", "1", "1"]}}, "T": {"type": "DT_FLOAT"}, "data_format": {"s": "TkhXQw=="}, "padding": {"s": "U0FNRQ=="}, "dilations": {"list": {"i": ["1", "1", "1", "1"]}}, "explicit_paddings": {"list": {}}}}, {"name": "StatefulPartitionedCall/vae_img2f0/xception/block2_sepconv2_bn/FusedBatchNormV3", "op": "_FusedConv2D", "input": ["StatefulPartitionedCall/vae_img2f0/xception/block2_sepconv2/separable_conv2d/depthwise", "StatefulPartitionedCall/vae_img2f0/xception/block2_sepconv2/separable_conv2d_weights", "StatefulPartitionedCall/vae_img2f0/xception/block2_sepconv2/separable_conv2d_bn_offset"], "device": "/device:CPU:0", "attr": {"data_format": {"s": "TkhXQw=="}, "epsilon": {"f": 0.0}, "dilations": {"list": {"i": ["1", "1", "1", "1"]}}, "explicit_paddings": {"list": {}}, "T": {"type": "DT_FLOAT"}, "padding": {"s": "VkFMSUQ="}, "strides": {"list": {"i": ["1", "1", "1", "1"]}}, "fused_ops": {"list": {"s": ["Qmlhc0FkZA=="]}}, "num_args": {"i": "1"}, "use_cudnn_on_gpu": {"b": true}}}, {"name": "StatefulPartitionedCall/vae_img2f0/xception/block2_pool/MaxPool", "op": "MaxPool", "input": ["StatefulPartitionedCall/vae_img2f0/xception/block2_sepconv2_bn/FusedBatchNormV3"], "attr": {"data_format": {"s": "TkhXQw=="}, "explicit_paddings": {"list": {}}, "ksize": {"list": {"i": ["1", "3", "3", "1"]}}, "T": {"type": "DT_FLOAT"}, "padding": {"s": "U0FNRQ=="}, "strides": {"list": {"i": ["1", "2", "2", "1"]}}}}, {"name": "StatefulPartitionedCall/vae_img2f0/xception/add_20/add", "op": "AddV2", "input": ["StatefulPartitionedCall/vae_img2f0/xception/block2_pool/MaxPool", "StatefulPartitionedCall/vae_img2f0/xception/batch_normalization_10/FusedBatchNormV3"], "attr": {"T": {"type": "DT_FLOAT"}}}, {"name": "StatefulPartitionedCall/vae_img2f0/xception/block3_sepconv1_act/Relu", "op": "Relu", "input": ["StatefulPartitionedCall/vae_img2f0/xception/add_20/add"], "attr": {"T": {"type": "DT_FLOAT"}}}, {"name": "StatefulPartitionedCall/vae_img2f0/xception/batch_normalization_11/FusedBatchNormV3", "op": "_FusedConv2D", "input": ["StatefulPartitionedCall/vae_img2f0/xception/add_20/add", "StatefulPartitionedCall/vae_img2f0/xception/conv2d_5/Conv2D_weights", "StatefulPartitionedCall/vae_img2f0/xception/conv2d_5/Conv2D_bn_offset"], "device": "/device:CPU:0", "attr": {"data_format": {"s": "TkhXQw=="}, "epsilon": {"f": 0.0}, "dilations": {"list": {"i": ["1", "1", "1", "1"]}}, "explicit_paddings": {"list": {}}, "T": {"type": "DT_FLOAT"}, "padding": {"s": "U0FNRQ=="}, "strides": {"list": {"i": ["1", "2", "2", "1"]}}, "fused_ops": {"list": {"s": ["Qmlhc0FkZA=="]}}, "num_args": {"i": "1"}, "use_cudnn_on_gpu": {"b": true}}}, {"name": "StatefulPartitionedCall/vae_img2f0/xception/block3_sepconv1/separable_conv2d/depthwise", "op": "DepthwiseConv2dNative", "input": ["StatefulPartitionedCall/vae_img2f0/xception/block3_sepconv1_act/Relu", "StatefulPartitionedCall/vae_img2f0/xception/block3_sepconv1/separable_conv2d/ReadVariableOp"], "attr": {"strides": {"list": {"i": ["1", "1", "1", "1"]}}, "T": {"type": "DT_FLOAT"}, "explicit_paddings": {"list": {}}, "padding": {"s": "U0FNRQ=="}, "data_format": {"s": "TkhXQw=="}, "dilations": {"list": {"i": ["1", "1", "1", "1"]}}}}, {"name": "StatefulPartitionedCall/vae_img2f0/xception/block3_sepconv2_act/Relu", "op": "_FusedConv2D", "input": ["StatefulPartitionedCall/vae_img2f0/xception/block3_sepconv1/separable_conv2d/depthwise", "StatefulPartitionedCall/vae_img2f0/xception/block3_sepconv1/separable_conv2d_weights", "StatefulPartitionedCall/vae_img2f0/xception/block3_sepconv1/separable_conv2d_bn_offset"], "device": "/device:CPU:0", "attr": {"strides": {"list": {"i": ["1", "1", "1", "1"]}}, "fused_ops": {"list": {"s": ["Qmlhc0FkZA==", "UmVsdQ=="]}}, "num_args": {"i": "1"}, "padding": {"s": "VkFMSUQ="}, "use_cudnn_on_gpu": {"b": true}, "data_format": {"s": "TkhXQw=="}, "epsilon": {"f": 0.0}, "dilations": {"list": {"i": ["1", "1", "1", "1"]}}, "T": {"type": "DT_FLOAT"}, "explicit_paddings": {"list": {}}}}, {"name": "StatefulPartitionedCall/vae_img2f0/xception/block3_sepconv2/separable_conv2d/depthwise", "op": "DepthwiseConv2dNative", "input": ["StatefulPartitionedCall/vae_img2f0/xception/block3_sepconv2_act/Relu", "StatefulPartitionedCall/vae_img2f0/xception/block3_sepconv2/separable_conv2d/ReadVariableOp"], "attr": {"strides": {"list": {"i": ["1", "1", "1", "1"]}}, "padding": {"s": "U0FNRQ=="}, "data_format": {"s": "TkhXQw=="}, "dilations": {"list": {"i": ["1", "1", "1", "1"]}}, "T": {"type": "DT_FLOAT"}, "explicit_paddings": {"list": {}}}}, {"name": "StatefulPartitionedCall/vae_img2f0/xception/block3_sepconv2_bn/FusedBatchNormV3", "op": "_FusedConv2D", "input": ["StatefulPartitionedCall/vae_img2f0/xception/block3_sepconv2/separable_conv2d/depthwise", "StatefulPartitionedCall/vae_img2f0/xception/block3_sepconv2/separable_conv2d_weights", "StatefulPartitionedCall/vae_img2f0/xception/block3_sepconv2/separable_conv2d_bn_offset"], "device": "/device:CPU:0", "attr": {"strides": {"list": {"i": ["1", "1", "1", "1"]}}, "num_args": {"i": "1"}, "T": {"type": "DT_FLOAT"}, "use_cudnn_on_gpu": {"b": true}, "data_format": {"s": "TkhXQw=="}, "fused_ops": {"list": {"s": ["Qmlhc0FkZA=="]}}, "epsilon": {"f": 0.0}, "padding": {"s": "VkFMSUQ="}, "dilations": {"list": {"i": ["1", "1", "1", "1"]}}, "explicit_paddings": {"list": {}}}}, {"name": "StatefulPartitionedCall/vae_img2f0/xception/block3_pool/MaxPool", "op": "MaxPool", "input": ["StatefulPartitionedCall/vae_img2f0/xception/block3_sepconv2_bn/FusedBatchNormV3"], "attr": {"strides": {"list": {"i": ["1", "2", "2", "1"]}}, "T": {"type": "DT_FLOAT"}, "explicit_paddings": {"list": {}}, "padding": {"s": "U0FNRQ=="}, "data_format": {"s": "TkhXQw=="}, "ksize": {"list": {"i": ["1", "3", "3", "1"]}}}}, {"name": "StatefulPartitionedCall/vae_img2f0/xception/add_21/add", "op": "AddV2", "input": ["StatefulPartitionedCall/vae_img2f0/xception/block3_pool/MaxPool", "StatefulPartitionedCall/vae_img2f0/xception/batch_normalization_11/FusedBatchNormV3"], "attr": {"T": {"type": "DT_FLOAT"}}}, {"name": "StatefulPartitionedCall/vae_img2f0/xception/block4_sepconv1_act/Relu", "op": "Relu", "input": ["StatefulPartitionedCall/vae_img2f0/xception/add_21/add"], "attr": {"T": {"type": "DT_FLOAT"}}}, {"name": "StatefulPartitionedCall/vae_img2f0/xception/batch_normalization_12/FusedBatchNormV3", "op": "_FusedConv2D", "input": ["StatefulPartitionedCall/vae_img2f0/xception/add_21/add", "StatefulPartitionedCall/vae_img2f0/xception/conv2d_6/Conv2D_weights", "StatefulPartitionedCall/vae_img2f0/xception/conv2d_6/Conv2D_bn_offset"], "device": "/device:CPU:0", "attr": {"strides": {"list": {"i": ["1", "2", "2", "1"]}}, "num_args": {"i": "1"}, "T": {"type": "DT_FLOAT"}, "use_cudnn_on_gpu": {"b": true}, "data_format": {"s": "TkhXQw=="}, "fused_ops": {"list": {"s": ["Qmlhc0FkZA=="]}}, "epsilon": {"f": 0.0}, "padding": {"s": "U0FNRQ=="}, "dilations": {"list": {"i": ["1", "1", "1", "1"]}}, "explicit_paddings": {"list": {}}}}, {"name": "StatefulPartitionedCall/vae_img2f0/xception/block4_sepconv1/separable_conv2d/depthwise", "op": "DepthwiseConv2dNative", "input": ["StatefulPartitionedCall/vae_img2f0/xception/block4_sepconv1_act/Relu", "StatefulPartitionedCall/vae_img2f0/xception/block4_sepconv1/separable_conv2d/ReadVariableOp"], "attr": {"data_format": {"s": "TkhXQw=="}, "dilations": {"list": {"i": ["1", "1", "1", "1"]}}, "explicit_paddings": {"list": {}}, "T": {"type": "DT_FLOAT"}, "padding": {"s": "U0FNRQ=="}, "strides": {"list": {"i": ["1", "1", "1", "1"]}}}}, {"name": "StatefulPartitionedCall/vae_img2f0/xception/block4_sepconv2_act/Relu", "op": "_FusedConv2D", "input": ["StatefulPartitionedCall/vae_img2f0/xception/block4_sepconv1/separable_conv2d/depthwise", "StatefulPartitionedCall/vae_img2f0/xception/block4_sepconv1/separable_conv2d_weights", "StatefulPartitionedCall/vae_img2f0/xception/block4_sepconv1/separable_conv2d_bn_offset"], "device": "/device:CPU:0", "attr": {"strides": {"list": {"i": ["1", "1", "1", "1"]}}, "fused_ops": {"list": {"s": ["Qmlhc0FkZA==", "UmVsdQ=="]}}, "num_args": {"i": "1"}, "padding": {"s": "VkFMSUQ="}, "use_cudnn_on_gpu": {"b": true}, "data_format": {"s": "TkhXQw=="}, "epsilon": {"f": 0.0}, "dilations": {"list": {"i": ["1", "1", "1", "1"]}}, "T": {"type": "DT_FLOAT"}, "explicit_paddings": {"list": {}}}}, {"name": "StatefulPartitionedCall/vae_img2f0/xception/block4_sepconv2/separable_conv2d/depthwise", "op": "DepthwiseConv2dNative", "input": ["StatefulPartitionedCall/vae_img2f0/xception/block4_sepconv2_act/Relu", "StatefulPartitionedCall/vae_img2f0/xception/block4_sepconv2/separable_conv2d/ReadVariableOp"], "attr": {"strides": {"list": {"i": ["1", "1", "1", "1"]}}, "padding": {"s": "U0FNRQ=="}, "data_format": {"s": "TkhXQw=="}, "dilations": {"list": {"i": ["1", "1", "1", "1"]}}, "T": {"type": "DT_FLOAT"}, "explicit_paddings": {"list": {}}}}, {"name": "StatefulPartitionedCall/vae_img2f0/xception/block4_sepconv2_bn/FusedBatchNormV3", "op": "_FusedConv2D", "input": ["StatefulPartitionedCall/vae_img2f0/xception/block4_sepconv2/separable_conv2d/depthwise", "StatefulPartitionedCall/vae_img2f0/xception/block4_sepconv2/separable_conv2d_weights", "StatefulPartitionedCall/vae_img2f0/xception/block4_sepconv2/separable_conv2d_bn_offset"], "device": "/device:CPU:0", "attr": {"strides": {"list": {"i": ["1", "1", "1", "1"]}}, "num_args": {"i": "1"}, "T": {"type": "DT_FLOAT"}, "use_cudnn_on_gpu": {"b": true}, "data_format": {"s": "TkhXQw=="}, "fused_ops": {"list": {"s": ["Qmlhc0FkZA=="]}}, "epsilon": {"f": 0.0}, "padding": {"s": "VkFMSUQ="}, "dilations": {"list": {"i": ["1", "1", "1", "1"]}}, "explicit_paddings": {"list": {}}}}, {"name": "StatefulPartitionedCall/vae_img2f0/xception/block4_pool/MaxPool", "op": "MaxPool", "input": ["StatefulPartitionedCall/vae_img2f0/xception/block4_sepconv2_bn/FusedBatchNormV3"], "attr": {"strides": {"list": {"i": ["1", "2", "2", "1"]}}, "padding": {"s": "U0FNRQ=="}, "data_format": {"s": "TkhXQw=="}, "ksize": {"list": {"i": ["1", "3", "3", "1"]}}, "T": {"type": "DT_FLOAT"}, "explicit_paddings": {"list": {}}}}, {"name": "StatefulPartitionedCall/vae_img2f0/xception/add_22/add", "op": "AddV2", "input": ["StatefulPartitionedCall/vae_img2f0/xception/block4_pool/MaxPool", "StatefulPartitionedCall/vae_img2f0/xception/batch_normalization_12/FusedBatchNormV3"], "attr": {"T": {"type": "DT_FLOAT"}}}, {"name": "StatefulPartitionedCall/vae_img2f0/xception/block5_sepconv1_act/Relu", "op": "Relu", "input": ["StatefulPartitionedCall/vae_img2f0/xception/add_22/add"], "attr": {"T": {"type": "DT_FLOAT"}}}, {"name": "StatefulPartitionedCall/vae_img2f0/xception/block5_sepconv1/separable_conv2d/depthwise", "op": "DepthwiseConv2dNative", "input": ["StatefulPartitionedCall/vae_img2f0/xception/block5_sepconv1_act/Relu", "StatefulPartitionedCall/vae_img2f0/xception/block5_sepconv1/separable_conv2d/ReadVariableOp"], "attr": {"data_format": {"s": "TkhXQw=="}, "dilations": {"list": {"i": ["1", "1", "1", "1"]}}, "explicit_paddings": {"list": {}}, "T": {"type": "DT_FLOAT"}, "padding": {"s": "U0FNRQ=="}, "strides": {"list": {"i": ["1", "1", "1", "1"]}}}}, {"name": "StatefulPartitionedCall/vae_img2f0/xception/block5_sepconv2_act/Relu", "op": "_FusedConv2D", "input": ["StatefulPartitionedCall/vae_img2f0/xception/block5_sepconv1/separable_conv2d/depthwise", "StatefulPartitionedCall/vae_img2f0/xception/block5_sepconv1/separable_conv2d_weights", "StatefulPartitionedCall/vae_img2f0/xception/block5_sepconv1/separable_conv2d_bn_offset"], "device": "/device:CPU:0", "attr": {"data_format": {"s": "TkhXQw=="}, "fused_ops": {"list": {"s": ["Qmlhc0FkZA==", "UmVsdQ=="]}}, "epsilon": {"f": 0.0}, "explicit_paddings": {"list": {}}, "padding": {"s": "VkFMSUQ="}, "dilations": {"list": {"i": ["1", "1", "1", "1"]}}, "strides": {"list": {"i": ["1", "1", "1", "1"]}}, "num_args": {"i": "1"}, "T": {"type": "DT_FLOAT"}, "use_cudnn_on_gpu": {"b": true}}}, {"name": "StatefulPartitionedCall/vae_img2f0/xception/block5_sepconv2/separable_conv2d/depthwise", "op": "DepthwiseConv2dNative", "input": ["StatefulPartitionedCall/vae_img2f0/xception/block5_sepconv2_act/Relu", "StatefulPartitionedCall/vae_img2f0/xception/block5_sepconv2/separable_conv2d/ReadVariableOp"], "attr": {"strides": {"list": {"i": ["1", "1", "1", "1"]}}, "T": {"type": "DT_FLOAT"}, "explicit_paddings": {"list": {}}, "padding": {"s": "U0FNRQ=="}, "data_format": {"s": "TkhXQw=="}, "dilations": {"list": {"i": ["1", "1", "1", "1"]}}}}, {"name": "StatefulPartitionedCall/vae_img2f0/xception/block5_sepconv3_act/Relu", "op": "_FusedConv2D", "input": ["StatefulPartitionedCall/vae_img2f0/xception/block5_sepconv2/separable_conv2d/depthwise", "StatefulPartitionedCall/vae_img2f0/xception/block5_sepconv2/separable_conv2d_weights", "StatefulPartitionedCall/vae_img2f0/xception/block5_sepconv2/separable_conv2d_bn_offset"], "device": "/device:CPU:0", "attr": {"padding": {"s": "VkFMSUQ="}, "data_format": {"s": "TkhXQw=="}, "fused_ops": {"list": {"s": ["Qmlhc0FkZA==", "UmVsdQ=="]}}, "epsilon": {"f": 0.0}, "dilations": {"list": {"i": ["1", "1", "1", "1"]}}, "explicit_paddings": {"list": {}}, "strides": {"list": {"i": ["1", "1", "1", "1"]}}, "T": {"type": "DT_FLOAT"}, "num_args": {"i": "1"}, "use_cudnn_on_gpu": {"b": true}}}, {"name": "StatefulPartitionedCall/vae_img2f0/xception/block5_sepconv3/separable_conv2d/depthwise", "op": "DepthwiseConv2dNative", "input": ["StatefulPartitionedCall/vae_img2f0/xception/block5_sepconv3_act/Relu", "StatefulPartitionedCall/vae_img2f0/xception/block5_sepconv3/separable_conv2d/ReadVariableOp"], "attr": {"data_format": {"s": "TkhXQw=="}, "dilations": {"list": {"i": ["1", "1", "1", "1"]}}, "explicit_paddings": {"list": {}}, "T": {"type": "DT_FLOAT"}, "padding": {"s": "U0FNRQ=="}, "strides": {"list": {"i": ["1", "1", "1", "1"]}}}}, {"name": "StatefulPartitionedCall/vae_img2f0/xception/block5_sepconv3_bn/FusedBatchNormV3", "op": "_FusedConv2D", "input": ["StatefulPartitionedCall/vae_img2f0/xception/block5_sepconv3/separable_conv2d/depthwise", "StatefulPartitionedCall/vae_img2f0/xception/block5_sepconv3/separable_conv2d_weights", "StatefulPartitionedCall/vae_img2f0/xception/block5_sepconv3/separable_conv2d_bn_offset"], "device": "/device:CPU:0", "attr": {"strides": {"list": {"i": ["1", "1", "1", "1"]}}, "fused_ops": {"list": {"s": ["Qmlhc0FkZA=="]}}, "num_args": {"i": "1"}, "padding": {"s": "VkFMSUQ="}, "use_cudnn_on_gpu": {"b": true}, "data_format": {"s": "TkhXQw=="}, "epsilon": {"f": 0.0}, "dilations": {"list": {"i": ["1", "1", "1", "1"]}}, "T": {"type": "DT_FLOAT"}, "explicit_paddings": {"list": {}}}}, {"name": "StatefulPartitionedCall/vae_img2f0/xception/add_23/add", "op": "AddV2", "input": ["StatefulPartitionedCall/vae_img2f0/xception/block5_sepconv3_bn/FusedBatchNormV3", "StatefulPartitionedCall/vae_img2f0/xception/add_22/add"], "attr": {"T": {"type": "DT_FLOAT"}}}, {"name": "StatefulPartitionedCall/vae_img2f0/xception/block6_sepconv1_act/Relu", "op": "Relu", "input": ["StatefulPartitionedCall/vae_img2f0/xception/add_23/add"], "attr": {"T": {"type": "DT_FLOAT"}}}, {"name": "StatefulPartitionedCall/vae_img2f0/xception/block6_sepconv1/separable_conv2d/depthwise", "op": "DepthwiseConv2dNative", "input": ["StatefulPartitionedCall/vae_img2f0/xception/block6_sepconv1_act/Relu", "StatefulPartitionedCall/vae_img2f0/xception/block6_sepconv1/separable_conv2d/ReadVariableOp"], "attr": {"strides": {"list": {"i": ["1", "1", "1", "1"]}}, "T": {"type": "DT_FLOAT"}, "data_format": {"s": "TkhXQw=="}, "padding": {"s": "U0FNRQ=="}, "dilations": {"list": {"i": ["1", "1", "1", "1"]}}, "explicit_paddings": {"list": {}}}}, {"name": "StatefulPartitionedCall/vae_img2f0/xception/block6_sepconv2_act/Relu", "op": "_FusedConv2D", "input": ["StatefulPartitionedCall/vae_img2f0/xception/block6_sepconv1/separable_conv2d/depthwise", "StatefulPartitionedCall/vae_img2f0/xception/block6_sepconv1/separable_conv2d_weights", "StatefulPartitionedCall/vae_img2f0/xception/block6_sepconv1/separable_conv2d_bn_offset"], "device": "/device:CPU:0", "attr": {"strides": {"list": {"i": ["1", "1", "1", "1"]}}, "fused_ops": {"list": {"s": ["Qmlhc0FkZA==", "UmVsdQ=="]}}, "num_args": {"i": "1"}, "padding": {"s": "VkFMSUQ="}, "use_cudnn_on_gpu": {"b": true}, "data_format": {"s": "TkhXQw=="}, "epsilon": {"f": 0.0}, "dilations": {"list": {"i": ["1", "1", "1", "1"]}}, "T": {"type": "DT_FLOAT"}, "explicit_paddings": {"list": {}}}}, {"name": "StatefulPartitionedCall/vae_img2f0/xception/block6_sepconv2/separable_conv2d/depthwise", "op": "DepthwiseConv2dNative", "input": ["StatefulPartitionedCall/vae_img2f0/xception/block6_sepconv2_act/Relu", "StatefulPartitionedCall/vae_img2f0/xception/block6_sepconv2/separable_conv2d/ReadVariableOp"], "attr": {"data_format": {"s": "TkhXQw=="}, "dilations": {"list": {"i": ["1", "1", "1", "1"]}}, "explicit_paddings": {"list": {}}, "T": {"type": "DT_FLOAT"}, "padding": {"s": "U0FNRQ=="}, "strides": {"list": {"i": ["1", "1", "1", "1"]}}}}, {"name": "StatefulPartitionedCall/vae_img2f0/xception/block6_sepconv3_act/Relu", "op": "_FusedConv2D", "input": ["StatefulPartitionedCall/vae_img2f0/xception/block6_sepconv2/separable_conv2d/depthwise", "StatefulPartitionedCall/vae_img2f0/xception/block6_sepconv2/separable_conv2d_weights", "StatefulPartitionedCall/vae_img2f0/xception/block6_sepconv2/separable_conv2d_bn_offset"], "device": "/device:CPU:0", "attr": {"data_format": {"s": "TkhXQw=="}, "epsilon": {"f": 0.0}, "dilations": {"list": {"i": ["1", "1", "1", "1"]}}, "explicit_paddings": {"list": {}}, "T": {"type": "DT_FLOAT"}, "padding": {"s": "VkFMSUQ="}, "strides": {"list": {"i": ["1", "1", "1", "1"]}}, "fused_ops": {"list": {"s": ["Qmlhc0FkZA==", "UmVsdQ=="]}}, "num_args": {"i": "1"}, "use_cudnn_on_gpu": {"b": true}}}, {"name": "StatefulPartitionedCall/vae_img2f0/xception/block6_sepconv3/separable_conv2d/depthwise", "op": "DepthwiseConv2dNative", "input": ["StatefulPartitionedCall/vae_img2f0/xception/block6_sepconv3_act/Relu", "StatefulPartitionedCall/vae_img2f0/xception/block6_sepconv3/separable_conv2d/ReadVariableOp"], "attr": {"padding": {"s": "U0FNRQ=="}, "data_format": {"s": "TkhXQw=="}, "dilations": {"list": {"i": ["1", "1", "1", "1"]}}, "explicit_paddings": {"list": {}}, "strides": {"list": {"i": ["1", "1", "1", "1"]}}, "T": {"type": "DT_FLOAT"}}}, {"name": "StatefulPartitionedCall/vae_img2f0/xception/block6_sepconv3_bn/FusedBatchNormV3", "op": "_FusedConv2D", "input": ["StatefulPartitionedCall/vae_img2f0/xception/block6_sepconv3/separable_conv2d/depthwise", "StatefulPartitionedCall/vae_img2f0/xception/block6_sepconv3/separable_conv2d_weights", "StatefulPartitionedCall/vae_img2f0/xception/block6_sepconv3/separable_conv2d_bn_offset"], "device": "/device:CPU:0", "attr": {"strides": {"list": {"i": ["1", "1", "1", "1"]}}, "fused_ops": {"list": {"s": ["Qmlhc0FkZA=="]}}, "num_args": {"i": "1"}, "padding": {"s": "VkFMSUQ="}, "use_cudnn_on_gpu": {"b": true}, "data_format": {"s": "TkhXQw=="}, "epsilon": {"f": 0.0}, "dilations": {"list": {"i": ["1", "1", "1", "1"]}}, "T": {"type": "DT_FLOAT"}, "explicit_paddings": {"list": {}}}}, {"name": "StatefulPartitionedCall/vae_img2f0/xception/add_24/add", "op": "AddV2", "input": ["StatefulPartitionedCall/vae_img2f0/xception/block6_sepconv3_bn/FusedBatchNormV3", "StatefulPartitionedCall/vae_img2f0/xception/add_23/add"], "attr": {"T": {"type": "DT_FLOAT"}}}, {"name": "StatefulPartitionedCall/vae_img2f0/xception/block7_sepconv1_act/Relu", "op": "Relu", "input": ["StatefulPartitionedCall/vae_img2f0/xception/add_24/add"], "attr": {"T": {"type": "DT_FLOAT"}}}, {"name": "StatefulPartitionedCall/vae_img2f0/xception/block7_sepconv1/separable_conv2d/depthwise", "op": "DepthwiseConv2dNative", "input": ["StatefulPartitionedCall/vae_img2f0/xception/block7_sepconv1_act/Relu", "StatefulPartitionedCall/vae_img2f0/xception/block7_sepconv1/separable_conv2d/ReadVariableOp"], "attr": {"strides": {"list": {"i": ["1", "1", "1", "1"]}}, "T": {"type": "DT_FLOAT"}, "explicit_paddings": {"list": {}}, "padding": {"s": "U0FNRQ=="}, "data_format": {"s": "TkhXQw=="}, "dilations": {"list": {"i": ["1", "1", "1", "1"]}}}}, {"name": "StatefulPartitionedCall/vae_img2f0/xception/block7_sepconv2_act/Relu", "op": "_FusedConv2D", "input": ["StatefulPartitionedCall/vae_img2f0/xception/block7_sepconv1/separable_conv2d/depthwise", "StatefulPartitionedCall/vae_img2f0/xception/block7_sepconv1/separable_conv2d_weights", "StatefulPartitionedCall/vae_img2f0/xception/block7_sepconv1/separable_conv2d_bn_offset"], "device": "/device:CPU:0", "attr": {"strides": {"list": {"i": ["1", "1", "1", "1"]}}, "fused_ops": {"list": {"s": ["Qmlhc0FkZA==", "UmVsdQ=="]}}, "num_args": {"i": "1"}, "padding": {"s": "VkFMSUQ="}, "use_cudnn_on_gpu": {"b": true}, "data_format": {"s": "TkhXQw=="}, "epsilon": {"f": 0.0}, "dilations": {"list": {"i": ["1", "1", "1", "1"]}}, "T": {"type": "DT_FLOAT"}, "explicit_paddings": {"list": {}}}}, {"name": "StatefulPartitionedCall/vae_img2f0/xception/block7_sepconv2/separable_conv2d/depthwise", "op": "DepthwiseConv2dNative", "input": ["StatefulPartitionedCall/vae_img2f0/xception/block7_sepconv2_act/Relu", "StatefulPartitionedCall/vae_img2f0/xception/block7_sepconv2/separable_conv2d/ReadVariableOp"], "attr": {"strides": {"list": {"i": ["1", "1", "1", "1"]}}, "padding": {"s": "U0FNRQ=="}, "data_format": {"s": "TkhXQw=="}, "dilations": {"list": {"i": ["1", "1", "1", "1"]}}, "T": {"type": "DT_FLOAT"}, "explicit_paddings": {"list": {}}}}, {"name": "StatefulPartitionedCall/vae_img2f0/xception/block7_sepconv3_act/Relu", "op": "_FusedConv2D", "input": ["StatefulPartitionedCall/vae_img2f0/xception/block7_sepconv2/separable_conv2d/depthwise", "StatefulPartitionedCall/vae_img2f0/xception/block7_sepconv2/separable_conv2d_weights", "StatefulPartitionedCall/vae_img2f0/xception/block7_sepconv2/separable_conv2d_bn_offset"], "device": "/device:CPU:0", "attr": {"strides": {"list": {"i": ["1", "1", "1", "1"]}}, "fused_ops": {"list": {"s": ["Qmlhc0FkZA==", "UmVsdQ=="]}}, "num_args": {"i": "1"}, "padding": {"s": "VkFMSUQ="}, "use_cudnn_on_gpu": {"b": true}, "data_format": {"s": "TkhXQw=="}, "epsilon": {"f": 0.0}, "dilations": {"list": {"i": ["1", "1", "1", "1"]}}, "T": {"type": "DT_FLOAT"}, "explicit_paddings": {"list": {}}}}, {"name": "StatefulPartitionedCall/vae_img2f0/xception/block7_sepconv3/separable_conv2d/depthwise", "op": "DepthwiseConv2dNative", "input": ["StatefulPartitionedCall/vae_img2f0/xception/block7_sepconv3_act/Relu", "StatefulPartitionedCall/vae_img2f0/xception/block7_sepconv3/separable_conv2d/ReadVariableOp"], "attr": {"data_format": {"s": "TkhXQw=="}, "dilations": {"list": {"i": ["1", "1", "1", "1"]}}, "explicit_paddings": {"list": {}}, "T": {"type": "DT_FLOAT"}, "padding": {"s": "U0FNRQ=="}, "strides": {"list": {"i": ["1", "1", "1", "1"]}}}}, {"name": "StatefulPartitionedCall/vae_img2f0/xception/block7_sepconv3_bn/FusedBatchNormV3", "op": "_FusedConv2D", "input": ["StatefulPartitionedCall/vae_img2f0/xception/block7_sepconv3/separable_conv2d/depthwise", "StatefulPartitionedCall/vae_img2f0/xception/block7_sepconv3/separable_conv2d_weights", "StatefulPartitionedCall/vae_img2f0/xception/block7_sepconv3/separable_conv2d_bn_offset"], "device": "/device:CPU:0", "attr": {"strides": {"list": {"i": ["1", "1", "1", "1"]}}, "T": {"type": "DT_FLOAT"}, "num_args": {"i": "1"}, "use_cudnn_on_gpu": {"b": true}, "explicit_paddings": {"list": {}}, "padding": {"s": "VkFMSUQ="}, "data_format": {"s": "TkhXQw=="}, "fused_ops": {"list": {"s": ["Qmlhc0FkZA=="]}}, "epsilon": {"f": 0.0}, "dilations": {"list": {"i": ["1", "1", "1", "1"]}}}}, {"name": "StatefulPartitionedCall/vae_img2f0/xception/add_25/add", "op": "AddV2", "input": ["StatefulPartitionedCall/vae_img2f0/xception/block7_sepconv3_bn/FusedBatchNormV3", "StatefulPartitionedCall/vae_img2f0/xception/add_24/add"], "attr": {"T": {"type": "DT_FLOAT"}}}, {"name": "StatefulPartitionedCall/vae_img2f0/xception/block8_sepconv1_act/Relu", "op": "Relu", "input": ["StatefulPartitionedCall/vae_img2f0/xception/add_25/add"], "attr": {"T": {"type": "DT_FLOAT"}}}, {"name": "StatefulPartitionedCall/vae_img2f0/xception/block8_sepconv1/separable_conv2d/depthwise", "op": "DepthwiseConv2dNative", "input": ["StatefulPartitionedCall/vae_img2f0/xception/block8_sepconv1_act/Relu", "StatefulPartitionedCall/vae_img2f0/xception/block8_sepconv1/separable_conv2d/ReadVariableOp"], "attr": {"strides": {"list": {"i": ["1", "1", "1", "1"]}}, "T": {"type": "DT_FLOAT"}, "data_format": {"s": "TkhXQw=="}, "padding": {"s": "U0FNRQ=="}, "dilations": {"list": {"i": ["1", "1", "1", "1"]}}, "explicit_paddings": {"list": {}}}}, {"name": "StatefulPartitionedCall/vae_img2f0/xception/block8_sepconv2_act/Relu", "op": "_FusedConv2D", "input": ["StatefulPartitionedCall/vae_img2f0/xception/block8_sepconv1/separable_conv2d/depthwise", "StatefulPartitionedCall/vae_img2f0/xception/block8_sepconv1/separable_conv2d_weights", "StatefulPartitionedCall/vae_img2f0/xception/block8_sepconv1/separable_conv2d_bn_offset"], "device": "/device:CPU:0", "attr": {"strides": {"list": {"i": ["1", "1", "1", "1"]}}, "T": {"type": "DT_FLOAT"}, "num_args": {"i": "1"}, "use_cudnn_on_gpu": {"b": true}, "explicit_paddings": {"list": {}}, "padding": {"s": "VkFMSUQ="}, "data_format": {"s": "TkhXQw=="}, "fused_ops": {"list": {"s": ["Qmlhc0FkZA==", "UmVsdQ=="]}}, "epsilon": {"f": 0.0}, "dilations": {"list": {"i": ["1", "1", "1", "1"]}}}}, {"name": "StatefulPartitionedCall/vae_img2f0/xception/block8_sepconv2/separable_conv2d/depthwise", "op": "DepthwiseConv2dNative", "input": ["StatefulPartitionedCall/vae_img2f0/xception/block8_sepconv2_act/Relu", "StatefulPartitionedCall/vae_img2f0/xception/block8_sepconv2/separable_conv2d/ReadVariableOp"], "attr": {"strides": {"list": {"i": ["1", "1", "1", "1"]}}, "T": {"type": "DT_FLOAT"}, "data_format": {"s": "TkhXQw=="}, "padding": {"s": "U0FNRQ=="}, "dilations": {"list": {"i": ["1", "1", "1", "1"]}}, "explicit_paddings": {"list": {}}}}, {"name": "StatefulPartitionedCall/vae_img2f0/xception/block8_sepconv3_act/Relu", "op": "_FusedConv2D", "input": ["StatefulPartitionedCall/vae_img2f0/xception/block8_sepconv2/separable_conv2d/depthwise", "StatefulPartitionedCall/vae_img2f0/xception/block8_sepconv2/separable_conv2d_weights", "StatefulPartitionedCall/vae_img2f0/xception/block8_sepconv2/separable_conv2d_bn_offset"], "device": "/device:CPU:0", "attr": {"data_format": {"s": "TkhXQw=="}, "epsilon": {"f": 0.0}, "dilations": {"list": {"i": ["1", "1", "1", "1"]}}, "explicit_paddings": {"list": {}}, "T": {"type": "DT_FLOAT"}, "padding": {"s": "VkFMSUQ="}, "strides": {"list": {"i": ["1", "1", "1", "1"]}}, "fused_ops": {"list": {"s": ["Qmlhc0FkZA==", "UmVsdQ=="]}}, "num_args": {"i": "1"}, "use_cudnn_on_gpu": {"b": true}}}, {"name": "StatefulPartitionedCall/vae_img2f0/xception/block8_sepconv3/separable_conv2d/depthwise", "op": "DepthwiseConv2dNative", "input": ["StatefulPartitionedCall/vae_img2f0/xception/block8_sepconv3_act/Relu", "StatefulPartitionedCall/vae_img2f0/xception/block8_sepconv3/separable_conv2d/ReadVariableOp"], "attr": {"strides": {"list": {"i": ["1", "1", "1", "1"]}}, "T": {"type": "DT_FLOAT"}, "data_format": {"s": "TkhXQw=="}, "padding": {"s": "U0FNRQ=="}, "dilations": {"list": {"i": ["1", "1", "1", "1"]}}, "explicit_paddings": {"list": {}}}}, {"name": "StatefulPartitionedCall/vae_img2f0/xception/block8_sepconv3_bn/FusedBatchNormV3", "op": "_FusedConv2D", "input": ["StatefulPartitionedCall/vae_img2f0/xception/block8_sepconv3/separable_conv2d/depthwise", "StatefulPartitionedCall/vae_img2f0/xception/block8_sepconv3/separable_conv2d_weights", "StatefulPartitionedCall/vae_img2f0/xception/block8_sepconv3/separable_conv2d_bn_offset"], "device": "/device:CPU:0", "attr": {"strides": {"list": {"i": ["1", "1", "1", "1"]}}, "fused_ops": {"list": {"s": ["Qmlhc0FkZA=="]}}, "num_args": {"i": "1"}, "padding": {"s": "VkFMSUQ="}, "use_cudnn_on_gpu": {"b": true}, "data_format": {"s": "TkhXQw=="}, "epsilon": {"f": 0.0}, "dilations": {"list": {"i": ["1", "1", "1", "1"]}}, "T": {"type": "DT_FLOAT"}, "explicit_paddings": {"list": {}}}}, {"name": "StatefulPartitionedCall/vae_img2f0/xception/add_26/add", "op": "AddV2", "input": ["StatefulPartitionedCall/vae_img2f0/xception/block8_sepconv3_bn/FusedBatchNormV3", "StatefulPartitionedCall/vae_img2f0/xception/add_25/add"], "attr": {"T": {"type": "DT_FLOAT"}}}, {"name": "StatefulPartitionedCall/vae_img2f0/xception/block9_sepconv1_act/Relu", "op": "Relu", "input": ["StatefulPartitionedCall/vae_img2f0/xception/add_26/add"], "attr": {"T": {"type": "DT_FLOAT"}}}, {"name": "StatefulPartitionedCall/vae_img2f0/xception/block9_sepconv1/separable_conv2d/depthwise", "op": "DepthwiseConv2dNative", "input": ["StatefulPartitionedCall/vae_img2f0/xception/block9_sepconv1_act/Relu", "StatefulPartitionedCall/vae_img2f0/xception/block9_sepconv1/separable_conv2d/ReadVariableOp"], "attr": {"data_format": {"s": "TkhXQw=="}, "dilations": {"list": {"i": ["1", "1", "1", "1"]}}, "explicit_paddings": {"list": {}}, "T": {"type": "DT_FLOAT"}, "padding": {"s": "U0FNRQ=="}, "strides": {"list": {"i": ["1", "1", "1", "1"]}}}}, {"name": "StatefulPartitionedCall/vae_img2f0/xception/block9_sepconv2_act/Relu", "op": "_FusedConv2D", "input": ["StatefulPartitionedCall/vae_img2f0/xception/block9_sepconv1/separable_conv2d/depthwise", "StatefulPartitionedCall/vae_img2f0/xception/block9_sepconv1/separable_conv2d_weights", "StatefulPartitionedCall/vae_img2f0/xception/block9_sepconv1/separable_conv2d_bn_offset"], "device": "/device:CPU:0", "attr": {"strides": {"list": {"i": ["1", "1", "1", "1"]}}, "T": {"type": "DT_FLOAT"}, "num_args": {"i": "1"}, "use_cudnn_on_gpu": {"b": true}, "explicit_paddings": {"list": {}}, "padding": {"s": "VkFMSUQ="}, "data_format": {"s": "TkhXQw=="}, "fused_ops": {"list": {"s": ["Qmlhc0FkZA==", "UmVsdQ=="]}}, "epsilon": {"f": 0.0}, "dilations": {"list": {"i": ["1", "1", "1", "1"]}}}}, {"name": "StatefulPartitionedCall/vae_img2f0/xception/block9_sepconv2/separable_conv2d/depthwise", "op": "DepthwiseConv2dNative", "input": ["StatefulPartitionedCall/vae_img2f0/xception/block9_sepconv2_act/Relu", "StatefulPartitionedCall/vae_img2f0/xception/block9_sepconv2/separable_conv2d/ReadVariableOp"], "attr": {"strides": {"list": {"i": ["1", "1", "1", "1"]}}, "padding": {"s": "U0FNRQ=="}, "data_format": {"s": "TkhXQw=="}, "dilations": {"list": {"i": ["1", "1", "1", "1"]}}, "T": {"type": "DT_FLOAT"}, "explicit_paddings": {"list": {}}}}, {"name": "StatefulPartitionedCall/vae_img2f0/xception/block9_sepconv3_act/Relu", "op": "_FusedConv2D", "input": ["StatefulPartitionedCall/vae_img2f0/xception/block9_sepconv2/separable_conv2d/depthwise", "StatefulPartitionedCall/vae_img2f0/xception/block9_sepconv2/separable_conv2d_weights", "StatefulPartitionedCall/vae_img2f0/xception/block9_sepconv2/separable_conv2d_bn_offset"], "device": "/device:CPU:0", "attr": {"data_format": {"s": "TkhXQw=="}, "epsilon": {"f": 0.0}, "dilations": {"list": {"i": ["1", "1", "1", "1"]}}, "explicit_paddings": {"list": {}}, "T": {"type": "DT_FLOAT"}, "padding": {"s": "VkFMSUQ="}, "strides": {"list": {"i": ["1", "1", "1", "1"]}}, "fused_ops": {"list": {"s": ["Qmlhc0FkZA==", "UmVsdQ=="]}}, "num_args": {"i": "1"}, "use_cudnn_on_gpu": {"b": true}}}, {"name": "StatefulPartitionedCall/vae_img2f0/xception/block9_sepconv3/separable_conv2d/depthwise", "op": "DepthwiseConv2dNative", "input": ["StatefulPartitionedCall/vae_img2f0/xception/block9_sepconv3_act/Relu", "StatefulPartitionedCall/vae_img2f0/xception/block9_sepconv3/separable_conv2d/ReadVariableOp"], "attr": {"strides": {"list": {"i": ["1", "1", "1", "1"]}}, "T": {"type": "DT_FLOAT"}, "explicit_paddings": {"list": {}}, "padding": {"s": "U0FNRQ=="}, "data_format": {"s": "TkhXQw=="}, "dilations": {"list": {"i": ["1", "1", "1", "1"]}}}}, {"name": "StatefulPartitionedCall/vae_img2f0/xception/block9_sepconv3_bn/FusedBatchNormV3", "op": "_FusedConv2D", "input": ["StatefulPartitionedCall/vae_img2f0/xception/block9_sepconv3/separable_conv2d/depthwise", "StatefulPartitionedCall/vae_img2f0/xception/block9_sepconv3/separable_conv2d_weights", "StatefulPartitionedCall/vae_img2f0/xception/block9_sepconv3/separable_conv2d_bn_offset"], "device": "/device:CPU:0", "attr": {"data_format": {"s": "TkhXQw=="}, "epsilon": {"f": 0.0}, "dilations": {"list": {"i": ["1", "1", "1", "1"]}}, "explicit_paddings": {"list": {}}, "T": {"type": "DT_FLOAT"}, "padding": {"s": "VkFMSUQ="}, "strides": {"list": {"i": ["1", "1", "1", "1"]}}, "fused_ops": {"list": {"s": ["Qmlhc0FkZA=="]}}, "num_args": {"i": "1"}, "use_cudnn_on_gpu": {"b": true}}}, {"name": "StatefulPartitionedCall/vae_img2f0/xception/add_27/add", "op": "AddV2", "input": ["StatefulPartitionedCall/vae_img2f0/xception/block9_sepconv3_bn/FusedBatchNormV3", "StatefulPartitionedCall/vae_img2f0/xception/add_26/add"], "attr": {"T": {"type": "DT_FLOAT"}}}, {"name": "StatefulPartitionedCall/vae_img2f0/xception/block10_sepconv1_act/Relu", "op": "Relu", "input": ["StatefulPartitionedCall/vae_img2f0/xception/add_27/add"], "attr": {"T": {"type": "DT_FLOAT"}}}, {"name": "StatefulPartitionedCall/vae_img2f0/xception/block10_sepconv1/separable_conv2d/depthwise", "op": "DepthwiseConv2dNative", "input": ["StatefulPartitionedCall/vae_img2f0/xception/block10_sepconv1_act/Relu", "StatefulPartitionedCall/vae_img2f0/xception/block10_sepconv1/separable_conv2d/ReadVariableOp"], "attr": {"padding": {"s": "U0FNRQ=="}, "data_format": {"s": "TkhXQw=="}, "T": {"type": "DT_FLOAT"}, "explicit_paddings": {"list": {}}, "dilations": {"list": {"i": ["1", "1", "1", "1"]}}, "strides": {"list": {"i": ["1", "1", "1", "1"]}}}}, {"name": "StatefulPartitionedCall/vae_img2f0/xception/block10_sepconv2_act/Relu", "op": "_FusedConv2D", "input": ["StatefulPartitionedCall/vae_img2f0/xception/block10_sepconv1/separable_conv2d/depthwise", "StatefulPartitionedCall/vae_img2f0/xception/block10_sepconv1/separable_conv2d_weights", "StatefulPartitionedCall/vae_img2f0/xception/block10_sepconv1/separable_conv2d_bn_offset"], "device": "/device:CPU:0", "attr": {"data_format": {"s": "TkhXQw=="}, "fused_ops": {"list": {"s": ["Qmlhc0FkZA==", "UmVsdQ=="]}}, "epsilon": {"f": 0.0}, "explicit_paddings": {"list": {}}, "padding": {"s": "VkFMSUQ="}, "dilations": {"list": {"i": ["1", "1", "1", "1"]}}, "strides": {"list": {"i": ["1", "1", "1", "1"]}}, "num_args": {"i": "1"}, "T": {"type": "DT_FLOAT"}, "use_cudnn_on_gpu": {"b": true}}}, {"name": "StatefulPartitionedCall/vae_img2f0/xception/block10_sepconv2/separable_conv2d/depthwise", "op": "DepthwiseConv2dNative", "input": ["StatefulPartitionedCall/vae_img2f0/xception/block10_sepconv2_act/Relu", "StatefulPartitionedCall/vae_img2f0/xception/block10_sepconv2/separable_conv2d/ReadVariableOp"], "attr": {"data_format": {"s": "TkhXQw=="}, "dilations": {"list": {"i": ["1", "1", "1", "1"]}}, "strides": {"list": {"i": ["1", "1", "1", "1"]}}, "T": {"type": "DT_FLOAT"}, "explicit_paddings": {"list": {}}, "padding": {"s": "U0FNRQ=="}}}, {"name": "StatefulPartitionedCall/vae_img2f0/xception/block10_sepconv3_act/Relu", "op": "_FusedConv2D", "input": ["StatefulPartitionedCall/vae_img2f0/xception/block10_sepconv2/separable_conv2d/depthwise", "StatefulPartitionedCall/vae_img2f0/xception/block10_sepconv2/separable_conv2d_weights", "StatefulPartitionedCall/vae_img2f0/xception/block10_sepconv2/separable_conv2d_bn_offset"], "device": "/device:CPU:0", "attr": {"data_format": {"s": "TkhXQw=="}, "fused_ops": {"list": {"s": ["Qmlhc0FkZA==", "UmVsdQ=="]}}, "epsilon": {"f": 0.0}, "explicit_paddings": {"list": {}}, "padding": {"s": "VkFMSUQ="}, "dilations": {"list": {"i": ["1", "1", "1", "1"]}}, "strides": {"list": {"i": ["1", "1", "1", "1"]}}, "num_args": {"i": "1"}, "T": {"type": "DT_FLOAT"}, "use_cudnn_on_gpu": {"b": true}}}, {"name": "StatefulPartitionedCall/vae_img2f0/xception/block10_sepconv3/separable_conv2d/depthwise", "op": "DepthwiseConv2dNative", "input": ["StatefulPartitionedCall/vae_img2f0/xception/block10_sepconv3_act/Relu", "StatefulPartitionedCall/vae_img2f0/xception/block10_sepconv3/separable_conv2d/ReadVariableOp"], "attr": {"data_format": {"s": "TkhXQw=="}, "dilations": {"list": {"i": ["1", "1", "1", "1"]}}, "strides": {"list": {"i": ["1", "1", "1", "1"]}}, "T": {"type": "DT_FLOAT"}, "explicit_paddings": {"list": {}}, "padding": {"s": "U0FNRQ=="}}}, {"name": "StatefulPartitionedCall/vae_img2f0/xception/block10_sepconv3_bn/FusedBatchNormV3", "op": "_FusedConv2D", "input": ["StatefulPartitionedCall/vae_img2f0/xception/block10_sepconv3/separable_conv2d/depthwise", "StatefulPartitionedCall/vae_img2f0/xception/block10_sepconv3/separable_conv2d_weights", "StatefulPartitionedCall/vae_img2f0/xception/block10_sepconv3/separable_conv2d_bn_offset"], "device": "/device:CPU:0", "attr": {"strides": {"list": {"i": ["1", "1", "1", "1"]}}, "num_args": {"i": "1"}, "use_cudnn_on_gpu": {"b": true}, "padding": {"s": "VkFMSUQ="}, "fused_ops": {"list": {"s": ["Qmlhc0FkZA=="]}}, "explicit_paddings": {"list": {}}, "T": {"type": "DT_FLOAT"}, "data_format": {"s": "TkhXQw=="}, "epsilon": {"f": 0.0}, "dilations": {"list": {"i": ["1", "1", "1", "1"]}}}}, {"name": "StatefulPartitionedCall/vae_img2f0/xception/add_28/add", "op": "AddV2", "input": ["StatefulPartitionedCall/vae_img2f0/xception/block10_sepconv3_bn/FusedBatchNormV3", "StatefulPartitionedCall/vae_img2f0/xception/add_27/add"], "attr": {"T": {"type": "DT_FLOAT"}}}, {"name": "StatefulPartitionedCall/vae_img2f0/xception/block11_sepconv1_act/Relu", "op": "Relu", "input": ["StatefulPartitionedCall/vae_img2f0/xception/add_28/add"], "attr": {"T": {"type": "DT_FLOAT"}}}, {"name": "StatefulPartitionedCall/vae_img2f0/xception/block11_sepconv1/separable_conv2d/depthwise", "op": "DepthwiseConv2dNative", "input": ["StatefulPartitionedCall/vae_img2f0/xception/block11_sepconv1_act/Relu", "StatefulPartitionedCall/vae_img2f0/xception/block11_sepconv1/separable_conv2d/ReadVariableOp"], "attr": {"strides": {"list": {"i": ["1", "1", "1", "1"]}}, "padding": {"s": "U0FNRQ=="}, "explicit_paddings": {"list": {}}, "T": {"type": "DT_FLOAT"}, "data_format": {"s": "TkhXQw=="}, "dilations": {"list": {"i": ["1", "1", "1", "1"]}}}}, {"name": "StatefulPartitionedCall/vae_img2f0/xception/block11_sepconv2_act/Relu", "op": "_FusedConv2D", "input": ["StatefulPartitionedCall/vae_img2f0/xception/block11_sepconv1/separable_conv2d/depthwise", "StatefulPartitionedCall/vae_img2f0/xception/block11_sepconv1/separable_conv2d_weights", "StatefulPartitionedCall/vae_img2f0/xception/block11_sepconv1/separable_conv2d_bn_offset"], "device": "/device:CPU:0", "attr": {"strides": {"list": {"i": ["1", "1", "1", "1"]}}, "num_args": {"i": "1"}, "use_cudnn_on_gpu": {"b": true}, "padding": {"s": "VkFMSUQ="}, "fused_ops": {"list": {"s": ["Qmlhc0FkZA==", "UmVsdQ=="]}}, "explicit_paddings": {"list": {}}, "T": {"type": "DT_FLOAT"}, "data_format": {"s": "TkhXQw=="}, "epsilon": {"f": 0.0}, "dilations": {"list": {"i": ["1", "1", "1", "1"]}}}}, {"name": "StatefulPartitionedCall/vae_img2f0/xception/block11_sepconv2/separable_conv2d/depthwise", "op": "DepthwiseConv2dNative", "input": ["StatefulPartitionedCall/vae_img2f0/xception/block11_sepconv2_act/Relu", "StatefulPartitionedCall/vae_img2f0/xception/block11_sepconv2/separable_conv2d/ReadVariableOp"], "attr": {"padding": {"s": "U0FNRQ=="}, "data_format": {"s": "TkhXQw=="}, "T": {"type": "DT_FLOAT"}, "explicit_paddings": {"list": {}}, "dilations": {"list": {"i": ["1", "1", "1", "1"]}}, "strides": {"list": {"i": ["1", "1", "1", "1"]}}}}, {"name": "StatefulPartitionedCall/vae_img2f0/xception/block11_sepconv3_act/Relu", "op": "_FusedConv2D", "input": ["StatefulPartitionedCall/vae_img2f0/xception/block11_sepconv2/separable_conv2d/depthwise", "StatefulPartitionedCall/vae_img2f0/xception/block11_sepconv2/separable_conv2d_weights", "StatefulPartitionedCall/vae_img2f0/xception/block11_sepconv2/separable_conv2d_bn_offset"], "device": "/device:CPU:0", "attr": {"padding": {"s": "VkFMSUQ="}, "data_format": {"s": "TkhXQw=="}, "epsilon": {"f": 0.0}, "T": {"type": "DT_FLOAT"}, "explicit_paddings": {"list": {}}, "dilations": {"list": {"i": ["1", "1", "1", "1"]}}, "strides": {"list": {"i": ["1", "1", "1", "1"]}}, "num_args": {"i": "1"}, "use_cudnn_on_gpu": {"b": true}, "fused_ops": {"list": {"s": ["Qmlhc0FkZA==", "UmVsdQ=="]}}}}, {"name": "StatefulPartitionedCall/vae_img2f0/xception/block11_sepconv3/separable_conv2d/depthwise", "op": "DepthwiseConv2dNative", "input": ["StatefulPartitionedCall/vae_img2f0/xception/block11_sepconv3_act/Relu", "StatefulPartitionedCall/vae_img2f0/xception/block11_sepconv3/separable_conv2d/ReadVariableOp"], "attr": {"data_format": {"s": "TkhXQw=="}, "dilations": {"list": {"i": ["1", "1", "1", "1"]}}, "strides": {"list": {"i": ["1", "1", "1", "1"]}}, "T": {"type": "DT_FLOAT"}, "explicit_paddings": {"list": {}}, "padding": {"s": "U0FNRQ=="}}}, {"name": "StatefulPartitionedCall/vae_img2f0/xception/block11_sepconv3_bn/FusedBatchNormV3", "op": "_FusedConv2D", "input": ["StatefulPartitionedCall/vae_img2f0/xception/block11_sepconv3/separable_conv2d/depthwise", "StatefulPartitionedCall/vae_img2f0/xception/block11_sepconv3/separable_conv2d_weights", "StatefulPartitionedCall/vae_img2f0/xception/block11_sepconv3/separable_conv2d_bn_offset"], "device": "/device:CPU:0", "attr": {"padding": {"s": "VkFMSUQ="}, "data_format": {"s": "TkhXQw=="}, "epsilon": {"f": 0.0}, "T": {"type": "DT_FLOAT"}, "explicit_paddings": {"list": {}}, "dilations": {"list": {"i": ["1", "1", "1", "1"]}}, "strides": {"list": {"i": ["1", "1", "1", "1"]}}, "num_args": {"i": "1"}, "use_cudnn_on_gpu": {"b": true}, "fused_ops": {"list": {"s": ["Qmlhc0FkZA=="]}}}}, {"name": "StatefulPartitionedCall/vae_img2f0/xception/add_29/add", "op": "AddV2", "input": ["StatefulPartitionedCall/vae_img2f0/xception/block11_sepconv3_bn/FusedBatchNormV3", "StatefulPartitionedCall/vae_img2f0/xception/add_28/add"], "attr": {"T": {"type": "DT_FLOAT"}}}, {"name": "StatefulPartitionedCall/vae_img2f0/xception/block12_sepconv1_act/Relu", "op": "Relu", "input": ["StatefulPartitionedCall/vae_img2f0/xception/add_29/add"], "attr": {"T": {"type": "DT_FLOAT"}}}, {"name": "StatefulPartitionedCall/vae_img2f0/xception/block12_sepconv1/separable_conv2d/depthwise", "op": "DepthwiseConv2dNative", "input": ["StatefulPartitionedCall/vae_img2f0/xception/block12_sepconv1_act/Relu", "StatefulPartitionedCall/vae_img2f0/xception/block12_sepconv1/separable_conv2d/ReadVariableOp"], "attr": {"data_format": {"s": "TkhXQw=="}, "explicit_paddings": {"list": {}}, "padding": {"s": "U0FNRQ=="}, "dilations": {"list": {"i": ["1", "1", "1", "1"]}}, "strides": {"list": {"i": ["1", "1", "1", "1"]}}, "T": {"type": "DT_FLOAT"}}}, {"name": "StatefulPartitionedCall/vae_img2f0/xception/block12_sepconv2_act/Relu", "op": "_FusedConv2D", "input": ["StatefulPartitionedCall/vae_img2f0/xception/block12_sepconv1/separable_conv2d/depthwise", "StatefulPartitionedCall/vae_img2f0/xception/block12_sepconv1/separable_conv2d_weights", "StatefulPartitionedCall/vae_img2f0/xception/block12_sepconv1/separable_conv2d_bn_offset"], "device": "/device:CPU:0", "attr": {"data_format": {"s": "TkhXQw=="}, "fused_ops": {"list": {"s": ["Qmlhc0FkZA==", "UmVsdQ=="]}}, "epsilon": {"f": 0.0}, "explicit_paddings": {"list": {}}, "padding": {"s": "VkFMSUQ="}, "dilations": {"list": {"i": ["1", "1", "1", "1"]}}, "strides": {"list": {"i": ["1", "1", "1", "1"]}}, "num_args": {"i": "1"}, "T": {"type": "DT_FLOAT"}, "use_cudnn_on_gpu": {"b": true}}}, {"name": "StatefulPartitionedCall/vae_img2f0/xception/block12_sepconv2/separable_conv2d/depthwise", "op": "DepthwiseConv2dNative", "input": ["StatefulPartitionedCall/vae_img2f0/xception/block12_sepconv2_act/Relu", "StatefulPartitionedCall/vae_img2f0/xception/block12_sepconv2/separable_conv2d/ReadVariableOp"], "attr": {"padding": {"s": "U0FNRQ=="}, "data_format": {"s": "TkhXQw=="}, "T": {"type": "DT_FLOAT"}, "explicit_paddings": {"list": {}}, "dilations": {"list": {"i": ["1", "1", "1", "1"]}}, "strides": {"list": {"i": ["1", "1", "1", "1"]}}}}, {"name": "StatefulPartitionedCall/vae_img2f0/xception/block12_sepconv3_act/Relu", "op": "_FusedConv2D", "input": ["StatefulPartitionedCall/vae_img2f0/xception/block12_sepconv2/separable_conv2d/depthwise", "StatefulPartitionedCall/vae_img2f0/xception/block12_sepconv2/separable_conv2d_weights", "StatefulPartitionedCall/vae_img2f0/xception/block12_sepconv2/separable_conv2d_bn_offset"], "device": "/device:CPU:0", "attr": {"strides": {"list": {"i": ["1", "1", "1", "1"]}}, "num_args": {"i": "1"}, "use_cudnn_on_gpu": {"b": true}, "padding": {"s": "VkFMSUQ="}, "fused_ops": {"list": {"s": ["Qmlhc0FkZA==", "UmVsdQ=="]}}, "explicit_paddings": {"list": {}}, "T": {"type": "DT_FLOAT"}, "data_format": {"s": "TkhXQw=="}, "epsilon": {"f": 0.0}, "dilations": {"list": {"i": ["1", "1", "1", "1"]}}}}, {"name": "StatefulPartitionedCall/vae_img2f0/xception/block12_sepconv3/separable_conv2d/depthwise", "op": "DepthwiseConv2dNative", "input": ["StatefulPartitionedCall/vae_img2f0/xception/block12_sepconv3_act/Relu", "StatefulPartitionedCall/vae_img2f0/xception/block12_sepconv3/separable_conv2d/ReadVariableOp"], "attr": {"data_format": {"s": "TkhXQw=="}, "dilations": {"list": {"i": ["1", "1", "1", "1"]}}, "strides": {"list": {"i": ["1", "1", "1", "1"]}}, "T": {"type": "DT_FLOAT"}, "explicit_paddings": {"list": {}}, "padding": {"s": "U0FNRQ=="}}}, {"name": "StatefulPartitionedCall/vae_img2f0/xception/block12_sepconv3_bn/FusedBatchNormV3", "op": "_FusedConv2D", "input": ["StatefulPartitionedCall/vae_img2f0/xception/block12_sepconv3/separable_conv2d/depthwise", "StatefulPartitionedCall/vae_img2f0/xception/block12_sepconv3/separable_conv2d_weights", "StatefulPartitionedCall/vae_img2f0/xception/block12_sepconv3/separable_conv2d_bn_offset"], "device": "/device:CPU:0", "attr": {"num_args": {"i": "1"}, "use_cudnn_on_gpu": {"b": true}, "data_format": {"s": "TkhXQw=="}, "fused_ops": {"list": {"s": ["Qmlhc0FkZA=="]}}, "epsilon": {"f": 0.0}, "dilations": {"list": {"i": ["1", "1", "1", "1"]}}, "strides": {"list": {"i": ["1", "1", "1", "1"]}}, "T": {"type": "DT_FLOAT"}, "explicit_paddings": {"list": {}}, "padding": {"s": "VkFMSUQ="}}}, {"name": "StatefulPartitionedCall/vae_img2f0/xception/add_30/add", "op": "AddV2", "input": ["StatefulPartitionedCall/vae_img2f0/xception/block12_sepconv3_bn/FusedBatchNormV3", "StatefulPartitionedCall/vae_img2f0/xception/add_29/add"], "attr": {"T": {"type": "DT_FLOAT"}}}, {"name": "StatefulPartitionedCall/vae_img2f0/xception/block13_sepconv1_act/Relu", "op": "Relu", "input": ["StatefulPartitionedCall/vae_img2f0/xception/add_30/add"], "attr": {"T": {"type": "DT_FLOAT"}}}, {"name": "StatefulPartitionedCall/vae_img2f0/xception/batch_normalization_13/FusedBatchNormV3", "op": "_FusedConv2D", "input": ["StatefulPartitionedCall/vae_img2f0/xception/add_30/add", "StatefulPartitionedCall/vae_img2f0/xception/conv2d_7/Conv2D_weights", "StatefulPartitionedCall/vae_img2f0/xception/conv2d_7/Conv2D_bn_offset"], "device": "/device:CPU:0", "attr": {"strides": {"list": {"i": ["1", "2", "2", "1"]}}, "num_args": {"i": "1"}, "use_cudnn_on_gpu": {"b": true}, "padding": {"s": "U0FNRQ=="}, "fused_ops": {"list": {"s": ["Qmlhc0FkZA=="]}}, "explicit_paddings": {"list": {}}, "T": {"type": "DT_FLOAT"}, "data_format": {"s": "TkhXQw=="}, "epsilon": {"f": 0.0}, "dilations": {"list": {"i": ["1", "1", "1", "1"]}}}}, {"name": "StatefulPartitionedCall/vae_img2f0/xception/block13_sepconv1/separable_conv2d/depthwise", "op": "DepthwiseConv2dNative", "input": ["StatefulPartitionedCall/vae_img2f0/xception/block13_sepconv1_act/Relu", "StatefulPartitionedCall/vae_img2f0/xception/block13_sepconv1/separable_conv2d/ReadVariableOp"], "attr": {"padding": {"s": "U0FNRQ=="}, "data_format": {"s": "TkhXQw=="}, "T": {"type": "DT_FLOAT"}, "explicit_paddings": {"list": {}}, "dilations": {"list": {"i": ["1", "1", "1", "1"]}}, "strides": {"list": {"i": ["1", "1", "1", "1"]}}}}, {"name": "StatefulPartitionedCall/vae_img2f0/xception/block13_sepconv2_act/Relu", "op": "_FusedConv2D", "input": ["StatefulPartitionedCall/vae_img2f0/xception/block13_sepconv1/separable_conv2d/depthwise", "StatefulPartitionedCall/vae_img2f0/xception/block13_sepconv1/separable_conv2d_weights", "StatefulPartitionedCall/vae_img2f0/xception/block13_sepconv1/separable_conv2d_bn_offset"], "device": "/device:CPU:0", "attr": {"num_args": {"i": "1"}, "use_cudnn_on_gpu": {"b": true}, "data_format": {"s": "TkhXQw=="}, "fused_ops": {"list": {"s": ["Qmlhc0FkZA==", "UmVsdQ=="]}}, "epsilon": {"f": 0.0}, "dilations": {"list": {"i": ["1", "1", "1", "1"]}}, "strides": {"list": {"i": ["1", "1", "1", "1"]}}, "T": {"type": "DT_FLOAT"}, "explicit_paddings": {"list": {}}, "padding": {"s": "VkFMSUQ="}}}, {"name": "StatefulPartitionedCall/vae_img2f0/xception/block13_sepconv2/separable_conv2d/depthwise", "op": "DepthwiseConv2dNative", "input": ["StatefulPartitionedCall/vae_img2f0/xception/block13_sepconv2_act/Relu", "StatefulPartitionedCall/vae_img2f0/xception/block13_sepconv2/separable_conv2d/ReadVariableOp"], "attr": {"padding": {"s": "U0FNRQ=="}, "data_format": {"s": "TkhXQw=="}, "T": {"type": "DT_FLOAT"}, "explicit_paddings": {"list": {}}, "dilations": {"list": {"i": ["1", "1", "1", "1"]}}, "strides": {"list": {"i": ["1", "1", "1", "1"]}}}}, {"name": "StatefulPartitionedCall/vae_img2f0/xception/block13_sepconv2_bn/FusedBatchNormV3", "op": "_FusedConv2D", "input": ["StatefulPartitionedCall/vae_img2f0/xception/block13_sepconv2/separable_conv2d/depthwise", "StatefulPartitionedCall/vae_img2f0/xception/block13_sepconv2/separable_conv2d_weights", "StatefulPartitionedCall/vae_img2f0/xception/block13_sepconv2/separable_conv2d_bn_offset"], "device": "/device:CPU:0", "attr": {"strides": {"list": {"i": ["1", "1", "1", "1"]}}, "num_args": {"i": "1"}, "use_cudnn_on_gpu": {"b": true}, "padding": {"s": "VkFMSUQ="}, "fused_ops": {"list": {"s": ["Qmlhc0FkZA=="]}}, "explicit_paddings": {"list": {}}, "T": {"type": "DT_FLOAT"}, "data_format": {"s": "TkhXQw=="}, "epsilon": {"f": 0.0}, "dilations": {"list": {"i": ["1", "1", "1", "1"]}}}}, {"name": "StatefulPartitionedCall/vae_img2f0/xception/block13_pool/MaxPool", "op": "MaxPool", "input": ["StatefulPartitionedCall/vae_img2f0/xception/block13_sepconv2_bn/FusedBatchNormV3"], "attr": {"data_format": {"s": "TkhXQw=="}, "ksize": {"list": {"i": ["1", "3", "3", "1"]}}, "strides": {"list": {"i": ["1", "2", "2", "1"]}}, "T": {"type": "DT_FLOAT"}, "explicit_paddings": {"list": {}}, "padding": {"s": "U0FNRQ=="}}}, {"name": "StatefulPartitionedCall/vae_img2f0/xception/add_31/add", "op": "AddV2", "input": ["StatefulPartitionedCall/vae_img2f0/xception/block13_pool/MaxPool", "StatefulPartitionedCall/vae_img2f0/xception/batch_normalization_13/FusedBatchNormV3"], "attr": {"T": {"type": "DT_FLOAT"}}}, {"name": "StatefulPartitionedCall/vae_img2f0/xception/block14_sepconv1/separable_conv2d/depthwise", "op": "DepthwiseConv2dNative", "input": ["StatefulPartitionedCall/vae_img2f0/xception/add_31/add", "StatefulPartitionedCall/vae_img2f0/xception/block14_sepconv1/separable_conv2d/ReadVariableOp"], "attr": {"data_format": {"s": "TkhXQw=="}, "dilations": {"list": {"i": ["1", "1", "1", "1"]}}, "strides": {"list": {"i": ["1", "1", "1", "1"]}}, "T": {"type": "DT_FLOAT"}, "explicit_paddings": {"list": {}}, "padding": {"s": "U0FNRQ=="}}}, {"name": "StatefulPartitionedCall/vae_img2f0/xception/block14_sepconv1_act/Relu", "op": "_FusedConv2D", "input": ["StatefulPartitionedCall/vae_img2f0/xception/block14_sepconv1/separable_conv2d/depthwise", "StatefulPartitionedCall/vae_img2f0/xception/block14_sepconv1/separable_conv2d_weights", "StatefulPartitionedCall/vae_img2f0/xception/block14_sepconv1/separable_conv2d_bn_offset"], "device": "/device:CPU:0", "attr": {"padding": {"s": "VkFMSUQ="}, "data_format": {"s": "TkhXQw=="}, "epsilon": {"f": 0.0}, "T": {"type": "DT_FLOAT"}, "explicit_paddings": {"list": {}}, "dilations": {"list": {"i": ["1", "1", "1", "1"]}}, "strides": {"list": {"i": ["1", "1", "1", "1"]}}, "num_args": {"i": "1"}, "use_cudnn_on_gpu": {"b": true}, "fused_ops": {"list": {"s": ["Qmlhc0FkZA==", "UmVsdQ=="]}}}}, {"name": "StatefulPartitionedCall/vae_img2f0/xception/block14_sepconv2/separable_conv2d/depthwise", "op": "DepthwiseConv2dNative", "input": ["StatefulPartitionedCall/vae_img2f0/xception/block14_sepconv1_act/Relu", "StatefulPartitionedCall/vae_img2f0/xception/block14_sepconv2/separable_conv2d/ReadVariableOp"], "attr": {"data_format": {"s": "TkhXQw=="}, "dilations": {"list": {"i": ["1", "1", "1", "1"]}}, "strides": {"list": {"i": ["1", "1", "1", "1"]}}, "T": {"type": "DT_FLOAT"}, "explicit_paddings": {"list": {}}, "padding": {"s": "U0FNRQ=="}}}, {"name": "StatefulPartitionedCall/vae_img2f0/xception/block14_sepconv2_act/Relu", "op": "_FusedConv2D", "input": ["StatefulPartitionedCall/vae_img2f0/xception/block14_sepconv2/separable_conv2d/depthwise", "StatefulPartitionedCall/vae_img2f0/xception/block14_sepconv2/separable_conv2d_weights", "StatefulPartitionedCall/vae_img2f0/xception/block14_sepconv2/separable_conv2d_bn_offset"], "device": "/device:CPU:0", "attr": {"strides": {"list": {"i": ["1", "1", "1", "1"]}}, "num_args": {"i": "1"}, "use_cudnn_on_gpu": {"b": true}, "padding": {"s": "VkFMSUQ="}, "fused_ops": {"list": {"s": ["Qmlhc0FkZA==", "UmVsdQ=="]}}, "explicit_paddings": {"list": {}}, "T": {"type": "DT_FLOAT"}, "data_format": {"s": "TkhXQw=="}, "epsilon": {"f": 0.0}, "dilations": {"list": {"i": ["1", "1", "1", "1"]}}}}, {"name": "StatefulPartitionedCall/vae_img2f0/flatten_2/Reshape", "op": "Reshape", "input": ["StatefulPartitionedCall/vae_img2f0/xception/block14_sepconv2_act/Relu", "StatefulPartitionedCall/vae_img2f0/flatten_2/Const"], "attr": {"Tshape": {"type": "DT_INT32"}, "T": {"type": "DT_FLOAT"}}}, {"name": "StatefulPartitionedCall/vae_img2f0/leaky_re_lu_17/LeakyRelu", "op": "_FusedMatMul", "input": ["StatefulPartitionedCall/vae_img2f0/flatten_2/Reshape", "StatefulPartitionedCall/vae_img2f0/dense_1/MatMul/ReadVariableOp", "StatefulPartitionedCall/vae_img2f0/dense_1/BiasAdd/ReadVariableOp"], "device": "/device:CPU:0", "attr": {"num_args": {"i": "1"}, "leakyrelu_alpha": {"f": 0.3}, "transpose_b": {"b": false}, "epsilon": {"f": 0.0}, "fused_ops": {"list": {"s": ["Qmlhc0FkZA==", "TGVha3lSZWx1"]}}, "T": {"type": "DT_FLOAT"}, "transpose_a": {"b": false}}}, {"name": "StatefulPartitionedCall/vae_img2f0/dense_2/BiasAdd", "op": "_FusedMatMul", "input": ["StatefulPartitionedCall/vae_img2f0/leaky_re_lu_17/LeakyRelu", "StatefulPartitionedCall/vae_img2f0/dense_2/MatMul/ReadVariableOp", "StatefulPartitionedCall/vae_img2f0/dense_2/BiasAdd/ReadVariableOp"], "device": "/device:CPU:0", "attr": {"transpose_a": {"b": false}, "num_args": {"i": "1"}, "fused_ops": {"list": {"s": ["Qmlhc0FkZA=="]}}, "T": {"type": "DT_FLOAT"}, "transpose_b": {"b": false}, "epsilon": {"f": 0.0}}}, {"name": "Identity", "op": "Identity", "input": ["StatefulPartitionedCall/vae_img2f0/dense_2/BiasAdd"], "attr": {"T": {"type": "DT_FLOAT"}}}], "library": {}, "versions": {"producer": 808}}, "weightsManifest": [{"paths": ["group1-shard1of1.bin"], "weights": [{"name": "StatefulPartitionedCall/vae_img2f0/xception/block13_sepconv1/separable_conv2d/ReadVariableOp", "shape": [3, 3, 728, 1], "dtype": "float32", "quantization": {"dtype": "uint8", "min": -1.0113488889208027, "scale": 0.00790116319469377, "original_dtype": "float32"}}, {"name": "StatefulPartitionedCall/vae_img2f0/xception/block13_sepconv2/separable_conv2d/ReadVariableOp", "shape": [3, 3, 728, 1], "dtype": "float32", "quantization": {"dtype": "uint8", "min": -0.773077781644522, "scale": 0.004924062303468293, "original_dtype": "float32"}}, {"name": "StatefulPartitionedCall/vae_img2f0/xception/block12_sepconv1/separable_conv2d/ReadVariableOp", "shape": [3, 3, 728, 1], "dtype": "float32", "quantization": {"dtype": "uint8", "min": -0.7148039586403792, "scale": 0.005811414297889261, "original_dtype": "float32"}}, {"name": "StatefulPartitionedCall/vae_img2f0/xception/block12_sepconv2/separable_conv2d/ReadVariableOp", "shape": [3, 3, 728, 1], "dtype": "float32", "quantization": {"dtype": "uint8", "min": -0.9113322384217206, "scale": 0.007789164430954877, "original_dtype": "float32"}}, {"name": "StatefulPartitionedCall/vae_img2f0/xception/block12_sepconv3/separable_conv2d/ReadVariableOp", "shape": [3, 3, 728, 1], "dtype": "float32", "quantization": {"dtype": "uint8", "min": -0.9318280893213609, "scale": 0.006338966594022863, "original_dtype": "float32"}}, {"name": "StatefulPartitionedCall/vae_img2f0/xception/block11_sepconv1/separable_conv2d/ReadVariableOp", "shape": [3, 3, 728, 1], "dtype": "float32", "quantization": {"dtype": "uint8", "min": -0.672933438244988, "scale": 0.00509798059276506, "original_dtype": "float32"}}, {"name": "StatefulPartitionedCall/vae_img2f0/xception/block11_sepconv2/separable_conv2d/ReadVariableOp", "shape": [3, 3, 728, 1], "dtype": "float32", "quantization": {"dtype": "uint8", "min": -0.702373044163573, "scale": 0.0054028695704890235, "original_dtype": "float32"}}, {"name": "StatefulPartitionedCall/vae_img2f0/xception/block11_sepconv3/separable_conv2d/ReadVariableOp", "shape": [3, 3, 728, 1], "dtype": "float32", "quantization": {"dtype": "uint8", "min": -0.7192970198743484, "scale": 0.005754376158994787, "original_dtype": "float32"}}, {"name": "StatefulPartitionedCall/vae_img2f0/xception/block10_sepconv1/separable_conv2d/ReadVariableOp", "shape": [3, 3, 728, 1], "dtype": "float32", "quantization": {"dtype": "uint8", "min": -0.8376813276141297, "scale": 0.0057375433398228065, "original_dtype": "float32"}}, {"name": "StatefulPartitionedCall/vae_img2f0/xception/block10_sepconv2/separable_conv2d/ReadVariableOp", "shape": [3, 3, 728, 1], "dtype": "float32", "quantization": {"dtype": "uint8", "min": -0.7460408290227254, "scale": 0.006269250664056516, "original_dtype": "float32"}}, {"name": "StatefulPartitionedCall/vae_img2f0/xception/block10_sepconv3/separable_conv2d/ReadVariableOp", "shape": [3, 3, 728, 1], "dtype": "float32", "quantization": {"dtype": "uint8", "min": -1.0433021222843843, "scale": 0.007097293348873363, "original_dtype": "float32"}}, {"name": "StatefulPartitionedCall/vae_img2f0/xception/block9_sepconv1/separable_conv2d/ReadVariableOp", "shape": [3, 3, 728, 1], "dtype": "float32", "quantization": {"dtype": "uint8", "min": -0.5009796857833863, "scale": 0.004911565546895943, "original_dtype": "float32"}}, {"name": "StatefulPartitionedCall/vae_img2f0/xception/block9_sepconv2/separable_conv2d/ReadVariableOp", "shape": [3, 3, 728, 1], "dtype": "float32", "quantization": {"dtype": "uint8", "min": -0.9689833641052247, "scale": 0.006211431821187338, "original_dtype": "float32"}}, {"name": "StatefulPartitionedCall/vae_img2f0/xception/block9_sepconv3/separable_conv2d/ReadVariableOp", "shape": [3, 3, 728, 1], "dtype": "float32", "quantization": {"dtype": "uint8", "min": -1.4393190944896024, "scale": 0.00916763754451976, "original_dtype": "float32"}}, {"name": "StatefulPartitionedCall/vae_img2f0/xception/block8_sepconv1/separable_conv2d/ReadVariableOp", "shape": [3, 3, 728, 1], "dtype": "float32", "quantization": {"dtype": "uint8", "min": -0.8889755489779453, "scale": 0.0071118043918235625, "original_dtype": "float32"}}, {"name": "StatefulPartitionedCall/vae_img2f0/xception/block8_sepconv2/separable_conv2d/ReadVariableOp", "shape": [3, 3, 728, 1], "dtype": "float32", "quantization": {"dtype": "uint8", "min": -0.7367980195026772, "scale": 0.005539834733102836, "original_dtype": "float32"}}, {"name": "StatefulPartitionedCall/vae_img2f0/xception/block8_sepconv3/separable_conv2d/ReadVariableOp", "shape": [3, 3, 728, 1], "dtype": "float32", "quantization": {"dtype": "uint8", "min": -0.7391018495840185, "scale": 0.005241857089248358, "original_dtype": "float32"}}, {"name": "StatefulPartitionedCall/vae_img2f0/xception/block7_sepconv1/separable_conv2d/ReadVariableOp", "shape": [3, 3, 728, 1], "dtype": "float32", "quantization": {"dtype": "uint8", "min": -0.6268042143653421, "scale": 0.005137739462011, "original_dtype": "float32"}}, {"name": "StatefulPartitionedCall/vae_img2f0/xception/block7_sepconv2/separable_conv2d/ReadVariableOp", "shape": [3, 3, 728, 1], "dtype": "float32", "quantization": {"dtype": "uint8", "min": -0.94987779341492, "scale": 0.006290581413343841, "original_dtype": "float32"}}, {"name": "StatefulPartitionedCall/vae_img2f0/xception/block7_sepconv3/separable_conv2d/ReadVariableOp", "shape": [3, 3, 728, 1], "dtype": "float32", "quantization": {"dtype": "uint8", "min": -1.1853539448158412, "scale": 0.007697103537765203, "original_dtype": "float32"}}, {"name": "StatefulPartitionedCall/vae_img2f0/xception/block6_sepconv1/separable_conv2d/ReadVariableOp", "shape": [3, 3, 728, 1], "dtype": "float32", "quantization": {"dtype": "uint8", "min": -0.7238093694051106, "scale": 0.005322127716214049, "original_dtype": "float32"}}, {"name": "StatefulPartitionedCall/vae_img2f0/xception/block6_sepconv2/separable_conv2d/ReadVariableOp", "shape": [3, 3, 728, 1], "dtype": "float32", "quantization": {"dtype": "uint8", "min": -1.2618297212264118, "scale": 0.008088652059143666, "original_dtype": "float32"}}, {"name": "StatefulPartitionedCall/vae_img2f0/xception/block6_sepconv3/separable_conv2d/ReadVariableOp", "shape": [3, 3, 728, 1], "dtype": "float32", "quantization": {"dtype": "uint8", "min": -1.3600828970179837, "scale": 0.008144208964179544, "original_dtype": "float32"}}, {"name": "StatefulPartitionedCall/vae_img2f0/xception/block5_sepconv1/separable_conv2d/ReadVariableOp", "shape": [3, 3, 728, 1], "dtype": "float32", "quantization": {"dtype": "uint8", "min": -0.6500039633582619, "scale": 0.005603482442743638, "original_dtype": "float32"}}, {"name": "StatefulPartitionedCall/vae_img2f0/xception/block5_sepconv2/separable_conv2d/ReadVariableOp", "shape": [3, 3, 728, 1], "dtype": "float32", "quantization": {"dtype": "uint8", "min": -0.9178192405139699, "scale": 0.00777812915689805, "original_dtype": "float32"}}, {"name": "StatefulPartitionedCall/vae_img2f0/xception/block5_sepconv3/separable_conv2d/ReadVariableOp", "shape": [3, 3, 728, 1], "dtype": "float32", "quantization": {"dtype": "uint8", "min": -1.4483884175618489, "scale": 0.010649914835013595, "original_dtype": "float32"}}, {"name": "StatefulPartitionedCall/vae_img2f0/xception/block4_sepconv1/separable_conv2d/ReadVariableOp", "shape": [3, 3, 256, 1], "dtype": "float32", "quantization": {"dtype": "uint8", "min": -1.2079637359170354, "scale": 0.009151240423613904, "original_dtype": "float32"}}, {"name": "StatefulPartitionedCall/vae_img2f0/xception/block4_sepconv2/separable_conv2d/ReadVariableOp", "shape": [3, 3, 728, 1], "dtype": "float32", "quantization": {"dtype": "uint8", "min": -0.8398082443312104, "scale": 0.008398082443312103, "original_dtype": "float32"}}, {"name": "StatefulPartitionedCall/vae_img2f0/xception/block3_sepconv1/separable_conv2d/ReadVariableOp", "shape": [3, 3, 128, 1], "dtype": "float32", "quantization": {"dtype": "uint8", "min": -1.9272671797696284, "scale": 0.013291497791514678, "original_dtype": "float32"}}, {"name": "StatefulPartitionedCall/vae_img2f0/xception/block3_sepconv2/separable_conv2d/ReadVariableOp", "shape": [3, 3, 256, 1], "dtype": "float32", "quantization": {"dtype": "uint8", "min": -1.1806897574780035, "scale": 0.0086181734122482, "original_dtype": "float32"}}, {"name": "StatefulPartitionedCall/vae_img2f0/xception/block2_sepconv1/separable_conv2d/ReadVariableOp", "shape": [3, 3, 64, 1], "dtype": "float32", "quantization": {"dtype": "uint8", "min": -2.2691744215348186, "scale": 0.01759049939174278, "original_dtype": "float32"}}, {"name": "StatefulPartitionedCall/vae_img2f0/xception/block2_sepconv2/separable_conv2d/ReadVariableOp", "shape": [3, 3, 128, 1], "dtype": "float32", "quantization": {"dtype": "uint8", "min": -1.5694792326758888, "scale": 0.011373037917941224, "original_dtype": "float32"}}, {"name": "StatefulPartitionedCall/vae_img2f0/xception/block14_sepconv1/separable_conv2d/ReadVariableOp", "shape": [3, 3, 1024, 1], "dtype": "float32", "quantization": {"dtype": "uint8", "min": -1.1298973307890052, "scale": 0.007846509241590314, "original_dtype": "float32"}}, {"name": "StatefulPartitionedCall/vae_img2f0/xception/block14_sepconv2/separable_conv2d/ReadVariableOp", "shape": [3, 3, 1536, 1], "dtype": "float32", "quantization": {"dtype": "uint8", "min": -0.5206813545788035, "scale": 0.004036289570378322, "original_dtype": "float32"}}, {"name": "StatefulPartitionedCall/vae_img2f0/flatten_2/Const", "shape": [2], "dtype": "int32"}, {"name": "StatefulPartitionedCall/vae_img2f0/dense_1/MatMul/ReadVariableOp", "shape": [18432, 128], "dtype": "float32", "quantization": {"dtype": "uint8", "min": -0.3415903533206266, "scale": 0.002189681752055299, "original_dtype": "float32"}}, {"name": "StatefulPartitionedCall/vae_img2f0/dense_1/BiasAdd/ReadVariableOp", "shape": [128], "dtype": "float32", "quantization": {"dtype": "uint8", "min": -0.0549386598608073, "scale": 0.0004360211100064072, "original_dtype": "float32"}}, {"name": "StatefulPartitionedCall/vae_img2f0/dense_2/MatMul/ReadVariableOp", "shape": [128, 1], "dtype": "float32", "quantization": {"dtype": "uint8", "min": -0.20671969301560347, "scale": 0.0017226641084633623, "original_dtype": "float32"}}, {"name": "StatefulPartitionedCall/vae_img2f0/dense_2/BiasAdd/ReadVariableOp", "shape": [1], "dtype": "float32", "quantization": {"dtype": "uint8", "min": 0.05136948823928833, "scale": 1.0, "original_dtype": "float32"}}, {"name": "StatefulPartitionedCall/vae_img2f0/xception/block1_conv1/Conv2D_weights", "shape": [3, 3, 3, 32], "dtype": "float32", "quantization": {"dtype": "uint8", "min": -1.5745361136455163, "scale": 0.011492964333178951, "original_dtype": "float32"}}, {"name": "StatefulPartitionedCall/vae_img2f0/xception/block11_sepconv2/separable_conv2d_weights", "shape": [1, 1, 728, 728], "dtype": "float32", "quantization": {"dtype": "uint8", "min": -1.3381665987126967, "scale": 0.009490543253281537, "original_dtype": "float32"}}, {"name": "StatefulPartitionedCall/vae_img2f0/xception/block1_conv1/Conv2D_bn_offset", "shape": [32], "dtype": "float32", "quantization": {"dtype": "uint8", "min": -1.5558086844051586, "scale": 0.019447608555064482, "original_dtype": "float32"}}, {"name": "StatefulPartitionedCall/vae_img2f0/xception/block1_conv2/Conv2D_weights", "shape": [3, 3, 32, 64], "dtype": "float32", "quantization": {"dtype": "uint8", "min": -1.162169828601912, "scale": 0.0088715254091749, "original_dtype": "float32"}}, {"name": "StatefulPartitionedCall/vae_img2f0/xception/block11_sepconv2/separable_conv2d_bn_offset", "shape": [728], "dtype": "float32", "quantization": {"dtype": "uint8", "min": -2.885248790067785, "scale": 0.02169359992532169, "original_dtype": "float32"}}, {"name": "StatefulPartitionedCall/vae_img2f0/xception/block1_conv2/Conv2D_bn_offset", "shape": [64], "dtype": "float32", "quantization": {"dtype": "uint8", "min": -6.31031748827766, "scale": 0.057366522620706, "original_dtype": "float32"}}, {"name": "StatefulPartitionedCall/vae_img2f0/xception/block14_sepconv1/separable_conv2d_weights", "shape": [1, 1, 1024, 1536], "dtype": "float32", "quantization": {"dtype": "uint8", "min": -0.16154890305855693, "scale": 0.0012523170779733096, "original_dtype": "float32"}}, {"name": "StatefulPartitionedCall/vae_img2f0/xception/conv2d_4/Conv2D_weights", "shape": [1, 1, 64, 128], "dtype": "float32", "quantization": {"dtype": "uint8", "min": -0.7783823569615682, "scale": 0.006541028209761077, "original_dtype": "float32"}}, {"name": "StatefulPartitionedCall/vae_img2f0/xception/conv2d_4/Conv2D_bn_offset", "shape": [128], "dtype": "float32", "quantization": {"dtype": "uint8", "min": -2.4228307088216146, "scale": 0.02163241704305013, "original_dtype": "float32"}}, {"name": "StatefulPartitionedCall/vae_img2f0/xception/block2_sepconv1/separable_conv2d_weights", "shape": [1, 1, 64, 128], "dtype": "float32", "quantization": {"dtype": "uint8", "min": -0.9742150437598135, "scale": 0.0074367560592352175, "original_dtype": "float32"}}, {"name": "StatefulPartitionedCall/vae_img2f0/xception/block2_sepconv1/separable_conv2d_bn_offset", "shape": [128], "dtype": "float32", "quantization": {"dtype": "uint8", "min": -2.438096186693977, "scale": 0.025135012233958524, "original_dtype": "float32"}}, {"name": "StatefulPartitionedCall/vae_img2f0/xception/block11_sepconv3/separable_conv2d_weights", "shape": [1, 1, 728, 728], "dtype": "float32", "quantization": {"dtype": "uint8", "min": -1.7752092782188864, "scale": 0.014432595757877125, "original_dtype": "float32"}}, {"name": "StatefulPartitionedCall/vae_img2f0/xception/block2_sepconv2/separable_conv2d_weights", "shape": [1, 1, 128, 128], "dtype": "float32", "quantization": {"dtype": "uint8", "min": -0.9974323945886948, "scale": 0.007792440582724178, "original_dtype": "float32"}}, {"name": "StatefulPartitionedCall/vae_img2f0/xception/block2_sepconv2/separable_conv2d_bn_offset", "shape": [128], "dtype": "float32", "quantization": {"dtype": "uint8", "min": -2.259181561189539, "scale": 0.02755099464865292, "original_dtype": "float32"}}, {"name": "StatefulPartitionedCall/vae_img2f0/xception/conv2d_5/Conv2D_weights", "shape": [1, 1, 128, 256], "dtype": "float32", "quantization": {"dtype": "uint8", "min": -0.4455105498725293, "scale": 0.0034270042297886868, "original_dtype": "float32"}}, {"name": "StatefulPartitionedCall/vae_img2f0/xception/block11_sepconv3/separable_conv2d_bn_offset", "shape": [728], "dtype": "float32", "quantization": {"dtype": "uint8", "min": -1.072134626612944, "scale": 0.008311121136534448, "original_dtype": "float32"}}, {"name": "StatefulPartitionedCall/vae_img2f0/xception/conv2d_5/Conv2D_bn_offset", "shape": [256], "dtype": "float32", "quantization": {"dtype": "uint8", "min": -5.305965038374358, "scale": 0.036342226290235334, "original_dtype": "float32"}}, {"name": "StatefulPartitionedCall/vae_img2f0/xception/block3_sepconv1/separable_conv2d_weights", "shape": [1, 1, 128, 256], "dtype": "float32", "quantization": {"dtype": "uint8", "min": -0.6537189937105367, "scale": 0.00610952330570595, "original_dtype": "float32"}}, {"name": "StatefulPartitionedCall/vae_img2f0/xception/block3_sepconv1/separable_conv2d_bn_offset", "shape": [256], "dtype": "float32", "quantization": {"dtype": "uint8", "min": -7.855148453805961, "scale": 0.058620510849298216, "original_dtype": "float32"}}, {"name": "StatefulPartitionedCall/vae_img2f0/xception/block3_sepconv2/separable_conv2d_weights", "shape": [1, 1, 256, 256], "dtype": "float32", "quantization": {"dtype": "uint8", "min": -1.133077829024371, "scale": 0.008583922947154326, "original_dtype": "float32"}}, {"name": "StatefulPartitionedCall/vae_img2f0/xception/block3_sepconv2/separable_conv2d_bn_offset", "shape": [256], "dtype": "float32", "quantization": {"dtype": "uint8", "min": -2.9115626148149083, "scale": 0.024674259447583967, "original_dtype": "float32"}}, {"name": "StatefulPartitionedCall/vae_img2f0/xception/conv2d_6/Conv2D_weights", "shape": [1, 1, 256, 728], "dtype": "float32", "quantization": {"dtype": "uint8", "min": -0.2417777022894691, "scale": 0.0018598284791497624, "original_dtype": "float32"}}, {"name": "StatefulPartitionedCall/vae_img2f0/xception/conv2d_6/Conv2D_bn_offset", "shape": [728], "dtype": "float32", "quantization": {"dtype": "uint8", "min": -3.6497038598154106, "scale": 0.027860334807751224, "original_dtype": "float32"}}, {"name": "StatefulPartitionedCall/vae_img2f0/xception/block4_sepconv1/separable_conv2d_weights", "shape": [1, 1, 256, 728], "dtype": "float32", "quantization": {"dtype": "uint8", "min": -0.813703161127427, "scale": 0.00666969804202809, "original_dtype": "float32"}}, {"name": "StatefulPartitionedCall/vae_img2f0/xception/block12_sepconv1/separable_conv2d_weights", "shape": [1, 1, 728, 728], "dtype": "float32", "quantization": {"dtype": "uint8", "min": -0.4309050861526938, "scale": 0.003503293383355234, "original_dtype": "float32"}}, {"name": "StatefulPartitionedCall/vae_img2f0/xception/block4_sepconv1/separable_conv2d_bn_offset", "shape": [728], "dtype": "float32", "quantization": {"dtype": "uint8", "min": -4.873133939855239, "scale": 0.04060944949879366, "original_dtype": "float32"}}, {"name": "StatefulPartitionedCall/vae_img2f0/xception/block14_sepconv1/separable_conv2d_bn_offset", "shape": [1536], "dtype": "float32", "quantization": {"dtype": "uint8", "min": -5.869591395060221, "scale": 0.04192565282185872, "original_dtype": "float32"}}, {"name": "StatefulPartitionedCall/vae_img2f0/xception/block4_sepconv2/separable_conv2d_weights", "shape": [1, 1, 728, 728], "dtype": "float32", "quantization": {"dtype": "uint8", "min": -0.6964418100375755, "scale": 0.007653206703709621, "original_dtype": "float32"}}, {"name": "StatefulPartitionedCall/vae_img2f0/xception/block12_sepconv1/separable_conv2d_bn_offset", "shape": [728], "dtype": "float32", "quantization": {"dtype": "uint8", "min": -4.002507976457185, "scale": 0.025015674852857404, "original_dtype": "float32"}}, {"name": "StatefulPartitionedCall/vae_img2f0/xception/block4_sepconv2/separable_conv2d_bn_offset", "shape": [728], "dtype": "float32", "quantization": {"dtype": "uint8", "min": -3.5293462687847663, "scale": 0.02337315409791236, "original_dtype": "float32"}}, {"name": "StatefulPartitionedCall/vae_img2f0/xception/block5_sepconv1/separable_conv2d_weights", "shape": [1, 1, 728, 728], "dtype": "float32", "quantization": {"dtype": "uint8", "min": -1.0846040164723116, "scale": 0.008890196856330423, "original_dtype": "float32"}}, {"name": "StatefulPartitionedCall/vae_img2f0/xception/block5_sepconv1/separable_conv2d_bn_offset", "shape": [728], "dtype": "float32", "quantization": {"dtype": "uint8", "min": -4.6039273579915365, "scale": 0.03385240704405541, "original_dtype": "float32"}}, {"name": "StatefulPartitionedCall/vae_img2f0/xception/block5_sepconv2/separable_conv2d_weights", "shape": [1, 1, 728, 728], "dtype": "float32", "quantization": {"dtype": "uint8", "min": -1.8365955235911349, "scale": 0.01469276418872908, "original_dtype": "float32"}}, {"name": "StatefulPartitionedCall/vae_img2f0/xception/block5_sepconv2/separable_conv2d_bn_offset", "shape": [728], "dtype": "float32", "quantization": {"dtype": "uint8", "min": -2.963257658715342, "scale": 0.022794289682425705, "original_dtype": "float32"}}, {"name": "StatefulPartitionedCall/vae_img2f0/xception/block12_sepconv2/separable_conv2d_weights", "shape": [1, 1, 728, 728], "dtype": "float32", "quantization": {"dtype": "uint8", "min": -1.7981199573068056, "scale": 0.014618861441518746, "original_dtype": "float32"}}, {"name": "StatefulPartitionedCall/vae_img2f0/xception/block5_sepconv3/separable_conv2d_weights", "shape": [1, 1, 728, 728], "dtype": "float32", "quantization": {"dtype": "uint8", "min": -1.937623610683516, "scale": 0.013362921452989765, "original_dtype": "float32"}}, {"name": "StatefulPartitionedCall/vae_img2f0/xception/block5_sepconv3/separable_conv2d_bn_offset", "shape": [728], "dtype": "float32", "quantization": {"dtype": "uint8", "min": -1.6134491672702864, "scale": 0.010211703590318269, "original_dtype": "float32"}}, {"name": "StatefulPartitionedCall/vae_img2f0/xception/block6_sepconv1/separable_conv2d_weights", "shape": [1, 1, 728, 728], "dtype": "float32", "quantization": {"dtype": "uint8", "min": -0.9542858441670736, "scale": 0.00701680767769907, "original_dtype": "float32"}}, {"name": "StatefulPartitionedCall/vae_img2f0/xception/block12_sepconv2/separable_conv2d_bn_offset", "shape": [728], "dtype": "float32", "quantization": {"dtype": "uint8", "min": -2.855297430823831, "scale": 0.019163070005529068, "original_dtype": "float32"}}, {"name": "StatefulPartitionedCall/vae_img2f0/xception/block6_sepconv1/separable_conv2d_bn_offset", "shape": [728], "dtype": "float32", "quantization": {"dtype": "uint8", "min": -4.459179575303022, "scale": 0.02654273556727989, "original_dtype": "float32"}}, {"name": "StatefulPartitionedCall/vae_img2f0/xception/block6_sepconv2/separable_conv2d_weights", "shape": [1, 1, 728, 728], "dtype": "float32", "quantization": {"dtype": "uint8", "min": -1.2850399452097276, "scale": 0.010447479229347379, "original_dtype": "float32"}}, {"name": "StatefulPartitionedCall/vae_img2f0/xception/block6_sepconv2/separable_conv2d_bn_offset", "shape": [728], "dtype": "float32", "quantization": {"dtype": "uint8", "min": -2.018246056051815, "scale": 0.0194062120774213, "original_dtype": "float32"}}, {"name": "StatefulPartitionedCall/vae_img2f0/xception/block6_sepconv3/separable_conv2d_weights", "shape": [1, 1, 728, 728], "dtype": "float32", "quantization": {"dtype": "uint8", "min": -1.7611277734532076, "scale": 0.013045390914468205, "original_dtype": "float32"}}, {"name": "StatefulPartitionedCall/vae_img2f0/xception/block12_sepconv3/separable_conv2d_weights", "shape": [1, 1, 728, 728], "dtype": "float32", "quantization": {"dtype": "uint8", "min": -1.7331934816697063, "scale": 0.013755503822775447, "original_dtype": "float32"}}, {"name": "StatefulPartitionedCall/vae_img2f0/xception/block6_sepconv3/separable_conv2d_bn_offset", "shape": [728], "dtype": "float32", "quantization": {"dtype": "uint8", "min": -1.285501973769244, "scale": 0.01147769619436825, "original_dtype": "float32"}}, {"name": "StatefulPartitionedCall/vae_img2f0/xception/block7_sepconv1/separable_conv2d_weights", "shape": [1, 1, 728, 728], "dtype": "float32", "quantization": {"dtype": "uint8", "min": -0.6558373862621831, "scale": 0.005246699090097465, "original_dtype": "float32"}}, {"name": "StatefulPartitionedCall/vae_img2f0/xception/block14_sepconv2/separable_conv2d_weights", "shape": [1, 1, 1536, 2048], "dtype": "float32", "quantization": {"dtype": "uint8", "min": -0.3443374937655879, "scale": 0.0025890037125232174, "original_dtype": "float32"}}, {"name": "StatefulPartitionedCall/vae_img2f0/xception/block7_sepconv1/separable_conv2d_bn_offset", "shape": [728], "dtype": "float32", "quantization": {"dtype": "uint8", "min": -2.6475740320542283, "scale": 0.022063116933785234, "original_dtype": "float32"}}, {"name": "StatefulPartitionedCall/vae_img2f0/xception/block12_sepconv3/separable_conv2d_bn_offset", "shape": [728], "dtype": "float32", "quantization": {"dtype": "uint8", "min": -1.4831174233380486, "scale": 0.01278549502877628, "original_dtype": "float32"}}, {"name": "StatefulPartitionedCall/vae_img2f0/xception/block7_sepconv2/separable_conv2d_weights", "shape": [1, 1, 728, 728], "dtype": "float32", "quantization": {"dtype": "uint8", "min": -1.0864203396965477, "scale": 0.009053502830804564, "original_dtype": "float32"}}, {"name": "StatefulPartitionedCall/vae_img2f0/xception/block7_sepconv2/separable_conv2d_bn_offset", "shape": [728], "dtype": "float32", "quantization": {"dtype": "uint8", "min": -1.6170133992737414, "scale": 0.013254208190768373, "original_dtype": "float32"}}, {"name": "StatefulPartitionedCall/vae_img2f0/xception/block7_sepconv3/separable_conv2d_weights", "shape": [1, 1, 728, 728], "dtype": "float32", "quantization": {"dtype": "uint8", "min": -1.2020507279564352, "scale": 0.009616405823651482, "original_dtype": "float32"}}, {"name": "StatefulPartitionedCall/vae_img2f0/xception/block7_sepconv3/separable_conv2d_bn_offset", "shape": [728], "dtype": "float32", "quantization": {"dtype": "uint8", "min": -1.6206815083821613, "scale": 0.013619172339345894, "original_dtype": "float32"}}, {"name": "StatefulPartitionedCall/vae_img2f0/xception/block8_sepconv1/separable_conv2d_weights", "shape": [1, 1, 728, 728], "dtype": "float32", "quantization": {"dtype": "uint8", "min": -0.6607432702008416, "scale": 0.006117993242600385, "original_dtype": "float32"}}, {"name": "StatefulPartitionedCall/vae_img2f0/xception/block8_sepconv1/separable_conv2d_bn_offset", "shape": [728], "dtype": "float32", "quantization": {"dtype": "uint8", "min": -1.3891811501746085, "scale": 0.016153269188076844, "original_dtype": "float32"}}, {"name": "StatefulPartitionedCall/vae_img2f0/xception/conv2d_7/Conv2D_weights", "shape": [1, 1, 728, 1024], "dtype": "float32", "quantization": {"dtype": "uint8", "min": -0.15360553474987257, "scale": 0.0014222734699062274, "original_dtype": "float32"}}, {"name": "StatefulPartitionedCall/vae_img2f0/xception/block8_sepconv2/separable_conv2d_weights", "shape": [1, 1, 728, 728], "dtype": "float32", "quantization": {"dtype": "uint8", "min": -1.5474217513028314, "scale": 0.011812379780937644, "original_dtype": "float32"}}, {"name": "StatefulPartitionedCall/vae_img2f0/xception/block8_sepconv2/separable_conv2d_bn_offset", "shape": [728], "dtype": "float32", "quantization": {"dtype": "uint8", "min": -2.836000779095818, "scale": 0.01955862606272978, "original_dtype": "float32"}}, {"name": "StatefulPartitionedCall/vae_img2f0/xception/conv2d_7/Conv2D_bn_offset", "shape": [1024], "dtype": "float32", "quantization": {"dtype": "uint8", "min": -4.772953283085543, "scale": 0.03385073250415278, "original_dtype": "float32"}}, {"name": "StatefulPartitionedCall/vae_img2f0/xception/block8_sepconv3/separable_conv2d_weights", "shape": [1, 1, 728, 728], "dtype": "float32", "quantization": {"dtype": "uint8", "min": -1.640975436042337, "scale": 0.013233672871309169, "original_dtype": "float32"}}, {"name": "StatefulPartitionedCall/vae_img2f0/xception/block8_sepconv3/separable_conv2d_bn_offset", "shape": [728], "dtype": "float32", "quantization": {"dtype": "uint8", "min": -1.9341994467903585, "scale": 0.012013661160188562, "original_dtype": "float32"}}, {"name": "StatefulPartitionedCall/vae_img2f0/xception/block9_sepconv1/separable_conv2d_weights", "shape": [1, 1, 728, 728], "dtype": "float32", "quantization": {"dtype": "uint8", "min": -0.8431857744852702, "scale": 0.005775245030721029, "original_dtype": "float32"}}, {"name": "StatefulPartitionedCall/vae_img2f0/xception/block13_sepconv1/separable_conv2d_weights", "shape": [1, 1, 728, 728], "dtype": "float32", "quantization": {"dtype": "uint8", "min": -0.2750517918783076, "scale": 0.0020526253125246834, "original_dtype": "float32"}}, {"name": "StatefulPartitionedCall/vae_img2f0/xception/block9_sepconv1/separable_conv2d_bn_offset", "shape": [728], "dtype": "float32", "quantization": {"dtype": "uint8", "min": -3.0159959035761217, "scale": 0.01997348280513988, "original_dtype": "float32"}}, {"name": "StatefulPartitionedCall/vae_img2f0/xception/block14_sepconv2/separable_conv2d_bn_offset", "shape": [2048], "dtype": "float32", "quantization": {"dtype": "uint8", "min": -2.163226562387803, "scale": 0.012650447733262005, "original_dtype": "float32"}}, {"name": "StatefulPartitionedCall/vae_img2f0/xception/block9_sepconv2/separable_conv2d_weights", "shape": [1, 1, 728, 728], "dtype": "float32", "quantization": {"dtype": "uint8", "min": -1.1858387909683528, "scale": 0.008849543216181737, "original_dtype": "float32"}}, {"name": "StatefulPartitionedCall/vae_img2f0/xception/block13_sepconv1/separable_conv2d_bn_offset", "shape": [728], "dtype": "float32", "quantization": {"dtype": "uint8", "min": -3.14625389435712, "scale": 0.017479188301984, "original_dtype": "float32"}}, {"name": "StatefulPartitionedCall/vae_img2f0/xception/block9_sepconv2/separable_conv2d_bn_offset", "shape": [728], "dtype": "float32", "quantization": {"dtype": "uint8", "min": -2.786306111952838, "scale": 0.021599272185680914, "original_dtype": "float32"}}, {"name": "StatefulPartitionedCall/vae_img2f0/xception/block9_sepconv3/separable_conv2d_weights", "shape": [1, 1, 728, 728], "dtype": "float32", "quantization": {"dtype": "uint8", "min": -1.9147840177311617, "scale": 0.014183585316527124, "original_dtype": "float32"}}, {"name": "StatefulPartitionedCall/vae_img2f0/xception/block9_sepconv3/separable_conv2d_bn_offset", "shape": [728], "dtype": "float32", "quantization": {"dtype": "uint8", "min": -1.2309236521814384, "scale": 0.00969231222190109, "original_dtype": "float32"}}, {"name": "StatefulPartitionedCall/vae_img2f0/xception/block10_sepconv1/separable_conv2d_weights", "shape": [1, 1, 728, 728], "dtype": "float32", "quantization": {"dtype": "uint8", "min": -0.6077114371692434, "scale": 0.004823106644200344, "original_dtype": "float32"}}, {"name": "StatefulPartitionedCall/vae_img2f0/xception/block10_sepconv1/separable_conv2d_bn_offset", "shape": [728], "dtype": "float32", "quantization": {"dtype": "uint8", "min": -2.648706291236129, "scale": 0.02085595504910338, "original_dtype": "float32"}}, {"name": "StatefulPartitionedCall/vae_img2f0/xception/block13_sepconv2/separable_conv2d_weights", "shape": [1, 1, 728, 1024], "dtype": "float32", "quantization": {"dtype": "uint8", "min": -1.9227924753637873, "scale": 0.017322454733007094, "original_dtype": "float32"}}, {"name": "StatefulPartitionedCall/vae_img2f0/xception/block10_sepconv2/separable_conv2d_weights", "shape": [1, 1, 728, 728], "dtype": "float32", "quantization": {"dtype": "uint8", "min": -1.8570819980957929, "scale": 0.015347785108229694, "original_dtype": "float32"}}, {"name": "StatefulPartitionedCall/vae_img2f0/xception/block10_sepconv2/separable_conv2d_bn_offset", "shape": [728], "dtype": "float32", "quantization": {"dtype": "uint8", "min": -1.9239153861999512, "scale": 0.012412357330322265, "original_dtype": "float32"}}, {"name": "StatefulPartitionedCall/vae_img2f0/xception/block13_sepconv2/separable_conv2d_bn_offset", "shape": [1024], "dtype": "float32", "quantization": {"dtype": "uint8", "min": -1.8023532914180382, "scale": 0.013450397697149539, "original_dtype": "float32"}}, {"name": "StatefulPartitionedCall/vae_img2f0/xception/block10_sepconv3/separable_conv2d_weights", "shape": [1, 1, 728, 728], "dtype": "float32", "quantization": {"dtype": "uint8", "min": -1.6461832083907781, "scale": 0.012860806315552954, "original_dtype": "float32"}}, {"name": "StatefulPartitionedCall/vae_img2f0/xception/block10_sepconv3/separable_conv2d_bn_offset", "shape": [728], "dtype": "float32", "quantization": {"dtype": "uint8", "min": -1.2449571946088005, "scale": 0.010374643288406671, "original_dtype": "float32"}}, {"name": "StatefulPartitionedCall/vae_img2f0/xception/block11_sepconv1/separable_conv2d_weights", "shape": [1, 1, 728, 728], "dtype": "float32", "quantization": {"dtype": "uint8", "min": -0.46678115374901713, "scale": 0.0036184585561939314, "original_dtype": "float32"}}, {"name": "StatefulPartitionedCall/vae_img2f0/xception/block11_sepconv1/separable_conv2d_bn_offset", "shape": [728], "dtype": "float32", "quantization": {"dtype": "uint8", "min": -2.453738757675769, "scale": 0.018730830211265415, "original_dtype": "float32"}}]}]}