{"format": "graph-model", "generatedBy": "2.10.1", "convertedBy": "TensorFlow.js Converter v3.18.0", "signature": {"inputs": {"in_image": {"name": "in_image:0", "dtype": "DT_FLOAT", "tensorShape": {"dim": [{"size": "-1"}, {"size": "71"}, {"size": "71"}, {"size": "3"}]}}}, "outputs": {"spec_decoder": {"name": "Identity:0", "dtype": "DT_FLOAT", "tensorShape": {"dim": [{"size": "1"}, {"size": "512"}, {"size": "1"}]}}}}, "modelTopology": {"node": [{"name": "unknown_283", "op": "Const", "attr": {"value": {"tensor": {"dtype": "DT_BOOL", "tensorShape": {"dim": [{"size": "512"}, {"size": "1"}]}}}, "dtype": {"type": "DT_BOOL"}}}, {"name": "StatefulPartitionedCall/vae_img2spctr/spec_decoder/spec_mask/SelectV2/t", "op": "Const", "attr": {"dtype": {"type": "DT_FLOAT"}, "value": {"tensor": {"dtype": "DT_FLOAT", "tensorShape": {}}}}}, {"name": "StatefulPartitionedCall/vae_img2spctr/spec_decoder/conv1d_transpose_9/conv1d_transpose/concat", "op": "Const", "attr": {"value": {"tensor": {"dtype": "DT_INT32", "tensorShape": {"dim": [{"size": "4"}]}}}, "dtype": {"type": "DT_INT32"}}}, {"name": "StatefulPartitionedCall/vae_img2spctr/spec_decoder/conv1d_transpose_9/conv1d_transpose/ExpandDims_1", "op": "Const", "attr": {"value": {"tensor": {"dtype": "DT_FLOAT", "tensorShape": {"dim": [{"size": "1"}, {"size": "3"}, {"size": "1"}, {"size": "32"}]}}}, "dtype": {"type": "DT_FLOAT"}}}, {"name": "StatefulPartitionedCall/vae_img2spctr/spec_decoder/conv1d_transpose_7/conv1d_transpose/concat", "op": "Const", "attr": {"value": {"tensor": {"dtype": "DT_INT32", "tensorShape": {"dim": [{"size": "4"}]}}}, "dtype": {"type": "DT_INT32"}}}, {"name": "StatefulPartitionedCall/vae_img2spctr/spec_decoder/conv1d_transpose_7/conv1d_transpose/ExpandDims_1", "op": "Const", "attr": {"value": {"tensor": {"dtype": "DT_FLOAT", "tensorShape": {"dim": [{"size": "1"}, {"size": "3"}, {"size": "32"}, {"size": "32"}]}}}, "dtype": {"type": "DT_FLOAT"}}}, {"name": "StatefulPartitionedCall/vae_img2spctr/spec_decoder/conv1d_transpose_6/conv1d_transpose/concat", "op": "Const", "attr": {"value": {"tensor": {"dtype": "DT_INT32", "tensorShape": {"dim": [{"size": "4"}]}}}, "dtype": {"type": "DT_INT32"}}}, {"name": "StatefulPartitionedCall/vae_img2spctr/spec_decoder/conv1d_transpose_6/conv1d_transpose/ExpandDims_1", "op": "Const", "attr": {"dtype": {"type": "DT_FLOAT"}, "value": {"tensor": {"dtype": "DT_FLOAT", "tensorShape": {"dim": [{"size": "1"}, {"size": "3"}, {"size": "32"}, {"size": "64"}]}}}}}, {"name": "StatefulPartitionedCall/vae_img2spctr/spec_decoder/conv1d_transpose_6/conv1d_transpose/ExpandDims/dim", "op": "Const", "attr": {"dtype": {"type": "DT_INT32"}, "value": {"tensor": {"dtype": "DT_INT32", "tensorShape": {}}}}}, {"name": "StatefulPartitionedCall/vae_img2spctr/spec_decoder/conv1d_transpose_6/BiasAdd/ReadVariableOp", "op": "Const", "attr": {"dtype": {"type": "DT_FLOAT"}, "value": {"tensor": {"dtype": "DT_FLOAT", "tensorShape": {"dim": [{"size": "32"}]}}}}}, {"name": "StatefulPartitionedCall/vae_img2spctr/spec_decoder/batch_normalization_4/batchnorm/mul", "op": "Const", "attr": {"value": {"tensor": {"dtype": "DT_FLOAT", "tensorShape": {"dim": [{"size": "32"}]}}}, "dtype": {"type": "DT_FLOAT"}}}, {"name": "StatefulPartitionedCall/vae_img2spctr/spec_decoder/batch_normalization_4/batchnorm/sub", "op": "Const", "attr": {"value": {"tensor": {"dtype": "DT_FLOAT", "tensorShape": {"dim": [{"size": "32"}]}}}, "dtype": {"type": "DT_FLOAT"}}}, {"name": "StatefulPartitionedCall/vae_img2spctr/spec_decoder/conv1d_transpose_7/conv1d_transpose/ExpandDims/dim", "op": "Const", "attr": {"value": {"tensor": {"dtype": "DT_INT32", "tensorShape": {}}}, "dtype": {"type": "DT_INT32"}}}, {"name": "StatefulPartitionedCall/vae_img2spctr/spec_decoder/conv1d_transpose_7/BiasAdd/ReadVariableOp", "op": "Const", "attr": {"dtype": {"type": "DT_FLOAT"}, "value": {"tensor": {"dtype": "DT_FLOAT", "tensorShape": {"dim": [{"size": "32"}]}}}}}, {"name": "StatefulPartitionedCall/vae_img2spctr/spec_decoder/batch_normalization_5/batchnorm/mul", "op": "Const", "attr": {"dtype": {"type": "DT_FLOAT"}, "value": {"tensor": {"dtype": "DT_FLOAT", "tensorShape": {"dim": [{"size": "32"}]}}}}}, {"name": "StatefulPartitionedCall/vae_img2spctr/spec_decoder/batch_normalization_5/batchnorm/sub", "op": "Const", "attr": {"value": {"tensor": {"dtype": "DT_FLOAT", "tensorShape": {"dim": [{"size": "32"}]}}}, "dtype": {"type": "DT_FLOAT"}}}, {"name": "StatefulPartitionedCall/vae_img2spctr/spec_decoder/conv1d_transpose_8/conv1d_transpose/concat", "op": "Const", "attr": {"dtype": {"type": "DT_INT32"}, "value": {"tensor": {"dtype": "DT_INT32", "tensorShape": {"dim": [{"size": "4"}]}}}}}, {"name": "StatefulPartitionedCall/vae_img2spctr/spec_decoder/conv1d_transpose_8/conv1d_transpose/ExpandDims_1", "op": "Const", "attr": {"value": {"tensor": {"dtype": "DT_FLOAT", "tensorShape": {"dim": [{"size": "1"}, {"size": "1"}, {"size": "32"}, {"size": "64"}]}}}, "dtype": {"type": "DT_FLOAT"}}}, {"name": "StatefulPartitionedCall/vae_img2spctr/spec_decoder/conv1d_transpose_4/conv1d_transpose/concat", "op": "Const", "attr": {"dtype": {"type": "DT_INT32"}, "value": {"tensor": {"dtype": "DT_INT32", "tensorShape": {"dim": [{"size": "4"}]}}}}}, {"name": "StatefulPartitionedCall/vae_img2spctr/spec_decoder/conv1d_transpose_4/conv1d_transpose/ExpandDims_1", "op": "Const", "attr": {"dtype": {"type": "DT_FLOAT"}, "value": {"tensor": {"dtype": "DT_FLOAT", "tensorShape": {"dim": [{"size": "1"}, {"size": "3"}, {"size": "64"}, {"size": "64"}]}}}}}, {"name": "StatefulPartitionedCall/vae_img2spctr/spec_decoder/conv1d_transpose_3/conv1d_transpose/concat", "op": "Const", "attr": {"dtype": {"type": "DT_INT32"}, "value": {"tensor": {"dtype": "DT_INT32", "tensorShape": {"dim": [{"size": "4"}]}}}}}, {"name": "StatefulPartitionedCall/vae_img2spctr/spec_decoder/conv1d_transpose_3/conv1d_transpose/ExpandDims_1", "op": "Const", "attr": {"dtype": {"type": "DT_FLOAT"}, "value": {"tensor": {"dtype": "DT_FLOAT", "tensorShape": {"dim": [{"size": "1"}, {"size": "3"}, {"size": "64"}, {"size": "128"}]}}}}}, {"name": "StatefulPartitionedCall/vae_img2spctr/spec_decoder/conv1d_transpose_3/conv1d_transpose/ExpandDims/dim", "op": "Const", "attr": {"dtype": {"type": "DT_INT32"}, "value": {"tensor": {"dtype": "DT_INT32", "tensorShape": {}}}}}, {"name": "StatefulPartitionedCall/vae_img2spctr/spec_decoder/conv1d_transpose_3/BiasAdd/ReadVariableOp", "op": "Const", "attr": {"dtype": {"type": "DT_FLOAT"}, "value": {"tensor": {"dtype": "DT_FLOAT", "tensorShape": {"dim": [{"size": "64"}]}}}}}, {"name": "StatefulPartitionedCall/vae_img2spctr/spec_decoder/batch_normalization_2/batchnorm/mul", "op": "Const", "attr": {"dtype": {"type": "DT_FLOAT"}, "value": {"tensor": {"dtype": "DT_FLOAT", "tensorShape": {"dim": [{"size": "64"}]}}}}}, {"name": "StatefulPartitionedCall/vae_img2spctr/spec_decoder/batch_normalization_2/batchnorm/sub", "op": "Const", "attr": {"value": {"tensor": {"dtype": "DT_FLOAT", "tensorShape": {"dim": [{"size": "64"}]}}}, "dtype": {"type": "DT_FLOAT"}}}, {"name": "StatefulPartitionedCall/vae_img2spctr/spec_decoder/conv1d_transpose_4/conv1d_transpose/ExpandDims/dim", "op": "Const", "attr": {"dtype": {"type": "DT_INT32"}, "value": {"tensor": {"dtype": "DT_INT32", "tensorShape": {}}}}}, {"name": "StatefulPartitionedCall/vae_img2spctr/spec_decoder/conv1d_transpose_4/BiasAdd/ReadVariableOp", "op": "Const", "attr": {"value": {"tensor": {"dtype": "DT_FLOAT", "tensorShape": {"dim": [{"size": "64"}]}}}, "dtype": {"type": "DT_FLOAT"}}}, {"name": "StatefulPartitionedCall/vae_img2spctr/spec_decoder/batch_normalization_3/batchnorm/mul", "op": "Const", "attr": {"dtype": {"type": "DT_FLOAT"}, "value": {"tensor": {"dtype": "DT_FLOAT", "tensorShape": {"dim": [{"size": "64"}]}}}}}, {"name": "StatefulPartitionedCall/vae_img2spctr/spec_decoder/batch_normalization_3/batchnorm/sub", "op": "Const", "attr": {"value": {"tensor": {"dtype": "DT_FLOAT", "tensorShape": {"dim": [{"size": "64"}]}}}, "dtype": {"type": "DT_FLOAT"}}}, {"name": "StatefulPartitionedCall/vae_img2spctr/spec_decoder/conv1d_transpose_5/conv1d_transpose/concat", "op": "Const", "attr": {"value": {"tensor": {"dtype": "DT_INT32", "tensorShape": {"dim": [{"size": "4"}]}}}, "dtype": {"type": "DT_INT32"}}}, {"name": "StatefulPartitionedCall/vae_img2spctr/spec_decoder/conv1d_transpose_5/conv1d_transpose/ExpandDims_1", "op": "Const", "attr": {"value": {"tensor": {"dtype": "DT_FLOAT", "tensorShape": {"dim": [{"size": "1"}, {"size": "1"}, {"size": "64"}, {"size": "128"}]}}}, "dtype": {"type": "DT_FLOAT"}}}, {"name": "StatefulPartitionedCall/vae_img2spctr/spec_decoder/conv1d_transpose_1/conv1d_transpose/concat", "op": "Const", "attr": {"dtype": {"type": "DT_INT32"}, "value": {"tensor": {"dtype": "DT_INT32", "tensorShape": {"dim": [{"size": "4"}]}}}}}, {"name": "StatefulPartitionedCall/vae_img2spctr/spec_decoder/conv1d_transpose_1/conv1d_transpose/ExpandDims_1", "op": "Const", "attr": {"dtype": {"type": "DT_FLOAT"}, "value": {"tensor": {"dtype": "DT_FLOAT", "tensorShape": {"dim": [{"size": "1"}, {"size": "3"}, {"size": "128"}, {"size": "128"}]}}}}}, {"name": "StatefulPartitionedCall/vae_img2spctr/spec_decoder/conv1d_transpose/conv1d_transpose/concat", "op": "Const", "attr": {"dtype": {"type": "DT_INT32"}, "value": {"tensor": {"dtype": "DT_INT32", "tensorShape": {"dim": [{"size": "4"}]}}}}}, {"name": "StatefulPartitionedCall/vae_img2spctr/spec_decoder/conv1d_transpose/conv1d_transpose/ExpandDims_1", "op": "Const", "attr": {"dtype": {"type": "DT_FLOAT"}, "value": {"tensor": {"dtype": "DT_FLOAT", "tensorShape": {"dim": [{"size": "1"}, {"size": "3"}, {"size": "128"}, {"size": "1024"}]}}}}}, {"name": "StatefulPartitionedCall/vae_img2spctr/spec_decoder/conv1d_transpose/conv1d_transpose/ExpandDims/dim", "op": "Const", "attr": {"dtype": {"type": "DT_INT32"}, "value": {"tensor": {"dtype": "DT_INT32", "tensorShape": {}}}}}, {"name": "StatefulPartitionedCall/vae_img2spctr/spec_decoder/conv1d_transpose/BiasAdd/ReadVariableOp", "op": "Const", "attr": {"dtype": {"type": "DT_FLOAT"}, "value": {"tensor": {"dtype": "DT_FLOAT", "tensorShape": {"dim": [{"size": "128"}]}}}}}, {"name": "StatefulPartitionedCall/vae_img2spctr/spec_decoder/batch_normalization/batchnorm/mul", "op": "Const", "attr": {"value": {"tensor": {"dtype": "DT_FLOAT", "tensorShape": {"dim": [{"size": "128"}]}}}, "dtype": {"type": "DT_FLOAT"}}}, {"name": "StatefulPartitionedCall/vae_img2spctr/spec_decoder/batch_normalization/batchnorm/sub", "op": "Const", "attr": {"dtype": {"type": "DT_FLOAT"}, "value": {"tensor": {"dtype": "DT_FLOAT", "tensorShape": {"dim": [{"size": "128"}]}}}}}, {"name": "StatefulPartitionedCall/vae_img2spctr/spec_decoder/conv1d_transpose_1/conv1d_transpose/ExpandDims/dim", "op": "Const", "attr": {"dtype": {"type": "DT_INT32"}, "value": {"tensor": {"dtype": "DT_INT32", "tensorShape": {}}}}}, {"name": "StatefulPartitionedCall/vae_img2spctr/spec_decoder/conv1d_transpose_1/BiasAdd/ReadVariableOp", "op": "Const", "attr": {"dtype": {"type": "DT_FLOAT"}, "value": {"tensor": {"dtype": "DT_FLOAT", "tensorShape": {"dim": [{"size": "128"}]}}}}}, {"name": "StatefulPartitionedCall/vae_img2spctr/spec_decoder/batch_normalization_1/batchnorm/mul", "op": "Const", "attr": {"dtype": {"type": "DT_FLOAT"}, "value": {"tensor": {"dtype": "DT_FLOAT", "tensorShape": {"dim": [{"size": "128"}]}}}}}, {"name": "StatefulPartitionedCall/vae_img2spctr/spec_decoder/batch_normalization_1/batchnorm/sub", "op": "Const", "attr": {"dtype": {"type": "DT_FLOAT"}, "value": {"tensor": {"dtype": "DT_FLOAT", "tensorShape": {"dim": [{"size": "128"}]}}}}}, {"name": "StatefulPartitionedCall/vae_img2spctr/spec_decoder/conv1d_transpose_2/conv1d_transpose/concat", "op": "Const", "attr": {"dtype": {"type": "DT_INT32"}, "value": {"tensor": {"dtype": "DT_INT32", "tensorShape": {"dim": [{"size": "4"}]}}}}}, {"name": "StatefulPartitionedCall/vae_img2spctr/spec_decoder/conv1d_transpose_2/conv1d_transpose/ExpandDims_1", "op": "Const", "attr": {"dtype": {"type": "DT_FLOAT"}, "value": {"tensor": {"dtype": "DT_FLOAT", "tensorShape": {"dim": [{"size": "1"}, {"size": "1"}, {"size": "128"}, {"size": "1024"}]}}}}}, {"name": "StatefulPartitionedCall/vae_img2spctr/mu/MatMul/ReadVariableOp", "op": "Const", "attr": {"dtype": {"type": "DT_FLOAT"}, "value": {"tensor": {"dtype": "DT_FLOAT", "tensorShape": {"dim": [{"size": "2048"}, {"size": "128"}]}}}}}, {"name": "StatefulPartitionedCall/vae_img2spctr/mu/BiasAdd/ReadVariableOp", "op": "Const", "attr": {"dtype": {"type": "DT_FLOAT"}, "value": {"tensor": {"dtype": "DT_FLOAT", "tensorShape": {"dim": [{"size": "128"}]}}}}}, {"name": "StatefulPartitionedCall/vae_img2spctr/sampling_tf_lite/mul/x", "op": "Const", "attr": {"dtype": {"type": "DT_FLOAT"}, "value": {"tensor": {"dtype": "DT_FLOAT", "tensorShape": {}}}}}, {"name": "StatefulPartitionedCall/vae_img2spctr/xception/block13_sepconv1/separable_conv2d/ReadVariableOp", "op": "Const", "attr": {"dtype": {"type": "DT_FLOAT"}, "value": {"tensor": {"dtype": "DT_FLOAT", "tensorShape": {"dim": [{"size": "3"}, {"size": "3"}, {"size": "728"}, {"size": "1"}]}}}}}, {"name": "StatefulPartitionedCall/vae_img2spctr/xception/block13_sepconv2/separable_conv2d/ReadVariableOp", "op": "Const", "attr": {"dtype": {"type": "DT_FLOAT"}, "value": {"tensor": {"dtype": "DT_FLOAT", "tensorShape": {"dim": [{"size": "3"}, {"size": "3"}, {"size": "728"}, {"size": "1"}]}}}}}, {"name": "StatefulPartitionedCall/vae_img2spctr/xception/block12_sepconv1/separable_conv2d/ReadVariableOp", "op": "Const", "attr": {"dtype": {"type": "DT_FLOAT"}, "value": {"tensor": {"dtype": "DT_FLOAT", "tensorShape": {"dim": [{"size": "3"}, {"size": "3"}, {"size": "728"}, {"size": "1"}]}}}}}, {"name": "StatefulPartitionedCall/vae_img2spctr/xception/block12_sepconv2/separable_conv2d/ReadVariableOp", "op": "Const", "attr": {"dtype": {"type": "DT_FLOAT"}, "value": {"tensor": {"dtype": "DT_FLOAT", "tensorShape": {"dim": [{"size": "3"}, {"size": "3"}, {"size": "728"}, {"size": "1"}]}}}}}, {"name": "StatefulPartitionedCall/vae_img2spctr/xception/block12_sepconv3/separable_conv2d/ReadVariableOp", "op": "Const", "attr": {"dtype": {"type": "DT_FLOAT"}, "value": {"tensor": {"dtype": "DT_FLOAT", "tensorShape": {"dim": [{"size": "3"}, {"size": "3"}, {"size": "728"}, {"size": "1"}]}}}}}, {"name": "StatefulPartitionedCall/vae_img2spctr/xception/block11_sepconv1/separable_conv2d/ReadVariableOp", "op": "Const", "attr": {"dtype": {"type": "DT_FLOAT"}, "value": {"tensor": {"dtype": "DT_FLOAT", "tensorShape": {"dim": [{"size": "3"}, {"size": "3"}, {"size": "728"}, {"size": "1"}]}}}}}, {"name": "StatefulPartitionedCall/vae_img2spctr/xception/block11_sepconv2/separable_conv2d/ReadVariableOp", "op": "Const", "attr": {"dtype": {"type": "DT_FLOAT"}, "value": {"tensor": {"dtype": "DT_FLOAT", "tensorShape": {"dim": [{"size": "3"}, {"size": "3"}, {"size": "728"}, {"size": "1"}]}}}}}, {"name": "StatefulPartitionedCall/vae_img2spctr/xception/block11_sepconv3/separable_conv2d/ReadVariableOp", "op": "Const", "attr": {"dtype": {"type": "DT_FLOAT"}, "value": {"tensor": {"dtype": "DT_FLOAT", "tensorShape": {"dim": [{"size": "3"}, {"size": "3"}, {"size": "728"}, {"size": "1"}]}}}}}, {"name": "StatefulPartitionedCall/vae_img2spctr/xception/block10_sepconv1/separable_conv2d/ReadVariableOp", "op": "Const", "attr": {"dtype": {"type": "DT_FLOAT"}, "value": {"tensor": {"dtype": "DT_FLOAT", "tensorShape": {"dim": [{"size": "3"}, {"size": "3"}, {"size": "728"}, {"size": "1"}]}}}}}, {"name": "StatefulPartitionedCall/vae_img2spctr/xception/block10_sepconv2/separable_conv2d/ReadVariableOp", "op": "Const", "attr": {"dtype": {"type": "DT_FLOAT"}, "value": {"tensor": {"dtype": "DT_FLOAT", "tensorShape": {"dim": [{"size": "3"}, {"size": "3"}, {"size": "728"}, {"size": "1"}]}}}}}, {"name": "StatefulPartitionedCall/vae_img2spctr/xception/block10_sepconv3/separable_conv2d/ReadVariableOp", "op": "Const", "attr": {"dtype": {"type": "DT_FLOAT"}, "value": {"tensor": {"dtype": "DT_FLOAT", "tensorShape": {"dim": [{"size": "3"}, {"size": "3"}, {"size": "728"}, {"size": "1"}]}}}}}, {"name": "StatefulPartitionedCall/vae_img2spctr/xception/block9_sepconv1/separable_conv2d/ReadVariableOp", "op": "Const", "attr": {"dtype": {"type": "DT_FLOAT"}, "value": {"tensor": {"dtype": "DT_FLOAT", "tensorShape": {"dim": [{"size": "3"}, {"size": "3"}, {"size": "728"}, {"size": "1"}]}}}}}, {"name": "StatefulPartitionedCall/vae_img2spctr/xception/block9_sepconv2/separable_conv2d/ReadVariableOp", "op": "Const", "attr": {"dtype": {"type": "DT_FLOAT"}, "value": {"tensor": {"dtype": "DT_FLOAT", "tensorShape": {"dim": [{"size": "3"}, {"size": "3"}, {"size": "728"}, {"size": "1"}]}}}}}, {"name": "StatefulPartitionedCall/vae_img2spctr/xception/block9_sepconv3/separable_conv2d/ReadVariableOp", "op": "Const", "attr": {"dtype": {"type": "DT_FLOAT"}, "value": {"tensor": {"dtype": "DT_FLOAT", "tensorShape": {"dim": [{"size": "3"}, {"size": "3"}, {"size": "728"}, {"size": "1"}]}}}}}, {"name": "StatefulPartitionedCall/vae_img2spctr/xception/block8_sepconv1/separable_conv2d/ReadVariableOp", "op": "Const", "attr": {"dtype": {"type": "DT_FLOAT"}, "value": {"tensor": {"dtype": "DT_FLOAT", "tensorShape": {"dim": [{"size": "3"}, {"size": "3"}, {"size": "728"}, {"size": "1"}]}}}}}, {"name": "StatefulPartitionedCall/vae_img2spctr/xception/block8_sepconv2/separable_conv2d/ReadVariableOp", "op": "Const", "attr": {"dtype": {"type": "DT_FLOAT"}, "value": {"tensor": {"dtype": "DT_FLOAT", "tensorShape": {"dim": [{"size": "3"}, {"size": "3"}, {"size": "728"}, {"size": "1"}]}}}}}, {"name": "StatefulPartitionedCall/vae_img2spctr/xception/block8_sepconv3/separable_conv2d/ReadVariableOp", "op": "Const", "attr": {"dtype": {"type": "DT_FLOAT"}, "value": {"tensor": {"dtype": "DT_FLOAT", "tensorShape": {"dim": [{"size": "3"}, {"size": "3"}, {"size": "728"}, {"size": "1"}]}}}}}, {"name": "StatefulPartitionedCall/vae_img2spctr/xception/block7_sepconv1/separable_conv2d/ReadVariableOp", "op": "Const", "attr": {"dtype": {"type": "DT_FLOAT"}, "value": {"tensor": {"dtype": "DT_FLOAT", "tensorShape": {"dim": [{"size": "3"}, {"size": "3"}, {"size": "728"}, {"size": "1"}]}}}}}, {"name": "StatefulPartitionedCall/vae_img2spctr/xception/block7_sepconv2/separable_conv2d/ReadVariableOp", "op": "Const", "attr": {"dtype": {"type": "DT_FLOAT"}, "value": {"tensor": {"dtype": "DT_FLOAT", "tensorShape": {"dim": [{"size": "3"}, {"size": "3"}, {"size": "728"}, {"size": "1"}]}}}}}, {"name": "StatefulPartitionedCall/vae_img2spctr/xception/block7_sepconv3/separable_conv2d/ReadVariableOp", "op": "Const", "attr": {"dtype": {"type": "DT_FLOAT"}, "value": {"tensor": {"dtype": "DT_FLOAT", "tensorShape": {"dim": [{"size": "3"}, {"size": "3"}, {"size": "728"}, {"size": "1"}]}}}}}, {"name": "StatefulPartitionedCall/vae_img2spctr/xception/block6_sepconv1/separable_conv2d/ReadVariableOp", "op": "Const", "attr": {"dtype": {"type": "DT_FLOAT"}, "value": {"tensor": {"dtype": "DT_FLOAT", "tensorShape": {"dim": [{"size": "3"}, {"size": "3"}, {"size": "728"}, {"size": "1"}]}}}}}, {"name": "StatefulPartitionedCall/vae_img2spctr/xception/block6_sepconv2/separable_conv2d/ReadVariableOp", "op": "Const", "attr": {"dtype": {"type": "DT_FLOAT"}, "value": {"tensor": {"dtype": "DT_FLOAT", "tensorShape": {"dim": [{"size": "3"}, {"size": "3"}, {"size": "728"}, {"size": "1"}]}}}}}, {"name": "StatefulPartitionedCall/vae_img2spctr/xception/block6_sepconv3/separable_conv2d/ReadVariableOp", "op": "Const", "attr": {"dtype": {"type": "DT_FLOAT"}, "value": {"tensor": {"dtype": "DT_FLOAT", "tensorShape": {"dim": [{"size": "3"}, {"size": "3"}, {"size": "728"}, {"size": "1"}]}}}}}, {"name": "StatefulPartitionedCall/vae_img2spctr/xception/block5_sepconv1/separable_conv2d/ReadVariableOp", "op": "Const", "attr": {"dtype": {"type": "DT_FLOAT"}, "value": {"tensor": {"dtype": "DT_FLOAT", "tensorShape": {"dim": [{"size": "3"}, {"size": "3"}, {"size": "728"}, {"size": "1"}]}}}}}, {"name": "StatefulPartitionedCall/vae_img2spctr/xception/block5_sepconv2/separable_conv2d/ReadVariableOp", "op": "Const", "attr": {"dtype": {"type": "DT_FLOAT"}, "value": {"tensor": {"dtype": "DT_FLOAT", "tensorShape": {"dim": [{"size": "3"}, {"size": "3"}, {"size": "728"}, {"size": "1"}]}}}}}, {"name": "StatefulPartitionedCall/vae_img2spctr/xception/block5_sepconv3/separable_conv2d/ReadVariableOp", "op": "Const", "attr": {"dtype": {"type": "DT_FLOAT"}, "value": {"tensor": {"dtype": "DT_FLOAT", "tensorShape": {"dim": [{"size": "3"}, {"size": "3"}, {"size": "728"}, {"size": "1"}]}}}}}, {"name": "StatefulPartitionedCall/vae_img2spctr/xception/block4_sepconv1/separable_conv2d/ReadVariableOp", "op": "Const", "attr": {"dtype": {"type": "DT_FLOAT"}, "value": {"tensor": {"dtype": "DT_FLOAT", "tensorShape": {"dim": [{"size": "3"}, {"size": "3"}, {"size": "256"}, {"size": "1"}]}}}}}, {"name": "StatefulPartitionedCall/vae_img2spctr/xception/block4_sepconv2/separable_conv2d/ReadVariableOp", "op": "Const", "attr": {"dtype": {"type": "DT_FLOAT"}, "value": {"tensor": {"dtype": "DT_FLOAT", "tensorShape": {"dim": [{"size": "3"}, {"size": "3"}, {"size": "728"}, {"size": "1"}]}}}}}, {"name": "StatefulPartitionedCall/vae_img2spctr/xception/block3_sepconv1/separable_conv2d/ReadVariableOp", "op": "Const", "attr": {"dtype": {"type": "DT_FLOAT"}, "value": {"tensor": {"dtype": "DT_FLOAT", "tensorShape": {"dim": [{"size": "3"}, {"size": "3"}, {"size": "128"}, {"size": "1"}]}}}}}, {"name": "StatefulPartitionedCall/vae_img2spctr/xception/block3_sepconv2/separable_conv2d/ReadVariableOp", "op": "Const", "attr": {"dtype": {"type": "DT_FLOAT"}, "value": {"tensor": {"dtype": "DT_FLOAT", "tensorShape": {"dim": [{"size": "3"}, {"size": "3"}, {"size": "256"}, {"size": "1"}]}}}}}, {"name": "StatefulPartitionedCall/vae_img2spctr/xception/block2_sepconv1/separable_conv2d/ReadVariableOp", "op": "Const", "attr": {"dtype": {"type": "DT_FLOAT"}, "value": {"tensor": {"dtype": "DT_FLOAT", "tensorShape": {"dim": [{"size": "3"}, {"size": "3"}, {"size": "64"}, {"size": "1"}]}}}}}, {"name": "StatefulPartitionedCall/vae_img2spctr/xception/block2_sepconv2/separable_conv2d/ReadVariableOp", "op": "Const", "attr": {"dtype": {"type": "DT_FLOAT"}, "value": {"tensor": {"dtype": "DT_FLOAT", "tensorShape": {"dim": [{"size": "3"}, {"size": "3"}, {"size": "128"}, {"size": "1"}]}}}}}, {"name": "StatefulPartitionedCall/vae_img2spctr/xception/block14_sepconv1/separable_conv2d/ReadVariableOp", "op": "Const", "attr": {"dtype": {"type": "DT_FLOAT"}, "value": {"tensor": {"dtype": "DT_FLOAT", "tensorShape": {"dim": [{"size": "3"}, {"size": "3"}, {"size": "1024"}, {"size": "1"}]}}}}}, {"name": "StatefulPartitionedCall/vae_img2spctr/xception/block14_sepconv2/separable_conv2d/ReadVariableOp", "op": "Const", "attr": {"dtype": {"type": "DT_FLOAT"}, "value": {"tensor": {"dtype": "DT_FLOAT", "tensorShape": {"dim": [{"size": "3"}, {"size": "3"}, {"size": "1536"}, {"size": "1"}]}}}}}, {"name": "StatefulPartitionedCall/vae_img2spctr/global_average_pooling2d/Mean/reduction_indices", "op": "Const", "attr": {"dtype": {"type": "DT_INT32"}, "value": {"tensor": {"dtype": "DT_INT32", "tensorShape": {"dim": [{"size": "2"}]}}}}}, {"name": "StatefulPartitionedCall/vae_img2spctr/log_var/MatMul/ReadVariableOp", "op": "Const", "attr": {"dtype": {"type": "DT_FLOAT"}, "value": {"tensor": {"dtype": "DT_FLOAT", "tensorShape": {"dim": [{"size": "2048"}, {"size": "128"}]}}}}}, {"name": "StatefulPartitionedCall/vae_img2spctr/log_var/BiasAdd/ReadVariableOp", "op": "Const", "attr": {"dtype": {"type": "DT_FLOAT"}, "value": {"tensor": {"dtype": "DT_FLOAT", "tensorShape": {"dim": [{"size": "128"}]}}}}}, {"name": "StatefulPartitionedCall/vae_img2spctr/sampling_tf_lite/random_normal/shape", "op": "Const", "attr": {"dtype": {"type": "DT_INT32"}, "value": {"tensor": {"dtype": "DT_INT32", "tensorShape": {"dim": [{"size": "2"}]}}}}}, {"name": "StatefulPartitionedCall/vae_img2spctr/spec_decoder/dense/MatMul/ReadVariableOp", "op": "Const", "attr": {"dtype": {"type": "DT_FLOAT"}, "value": {"tensor": {"dtype": "DT_FLOAT", "tensorShape": {"dim": [{"size": "128"}, {"size": "8192"}]}}}}}, {"name": "StatefulPartitionedCall/vae_img2spctr/spec_decoder/dense/BiasAdd/ReadVariableOp", "op": "Const", "attr": {"dtype": {"type": "DT_FLOAT"}, "value": {"tensor": {"dtype": "DT_FLOAT", "tensorShape": {"dim": [{"size": "8192"}]}}}}}, {"name": "StatefulPartitionedCall/vae_img2spctr/spec_decoder/reshape_tf_lite/Reshape/shape", "op": "Const", "attr": {"dtype": {"type": "DT_INT32"}, "value": {"tensor": {"dtype": "DT_INT32", "tensorShape": {"dim": [{"size": "3"}]}}}}}, {"name": "StatefulPartitionedCall/vae_img2spctr/spec_decoder/conv1d_transpose_2/conv1d_transpose/ExpandDims/dim", "op": "Const", "attr": {"dtype": {"type": "DT_INT32"}, "value": {"tensor": {"dtype": "DT_INT32", "tensorShape": {}}}}}, {"name": "StatefulPartitionedCall/vae_img2spctr/spec_decoder/conv1d_transpose_2/BiasAdd/ReadVariableOp", "op": "Const", "attr": {"value": {"tensor": {"dtype": "DT_FLOAT", "tensorShape": {"dim": [{"size": "128"}]}}}, "dtype": {"type": "DT_FLOAT"}}}, {"name": "StatefulPartitionedCall/vae_img2spctr/spec_decoder/conv1d_transpose_5/conv1d_transpose/ExpandDims/dim", "op": "Const", "attr": {"dtype": {"type": "DT_INT32"}, "value": {"tensor": {"dtype": "DT_INT32", "tensorShape": {}}}}}, {"name": "StatefulPartitionedCall/vae_img2spctr/spec_decoder/conv1d_transpose_5/BiasAdd/ReadVariableOp", "op": "Const", "attr": {"dtype": {"type": "DT_FLOAT"}, "value": {"tensor": {"dtype": "DT_FLOAT", "tensorShape": {"dim": [{"size": "64"}]}}}}}, {"name": "StatefulPartitionedCall/vae_img2spctr/spec_decoder/conv1d_transpose_8/conv1d_transpose/ExpandDims/dim", "op": "Const", "attr": {"dtype": {"type": "DT_INT32"}, "value": {"tensor": {"dtype": "DT_INT32", "tensorShape": {}}}}}, {"name": "StatefulPartitionedCall/vae_img2spctr/spec_decoder/conv1d_transpose_8/BiasAdd/ReadVariableOp", "op": "Const", "attr": {"dtype": {"type": "DT_FLOAT"}, "value": {"tensor": {"dtype": "DT_FLOAT", "tensorShape": {"dim": [{"size": "32"}]}}}}}, {"name": "StatefulPartitionedCall/vae_img2spctr/spec_decoder/conv1d_transpose_9/conv1d_transpose/ExpandDims/dim", "op": "Const", "attr": {"dtype": {"type": "DT_INT32"}, "value": {"tensor": {"dtype": "DT_INT32", "tensorShape": {}}}}}, {"name": "StatefulPartitionedCall/vae_img2spctr/spec_decoder/conv1d_transpose_9/BiasAdd/ReadVariableOp", "op": "Const", "attr": {"dtype": {"type": "DT_FLOAT"}, "value": {"tensor": {"dtype": "DT_FLOAT", "tensorShape": {"dim": [{"size": "1"}]}}}}}, {"name": "StatefulPartitionedCall/vae_img2spctr/spec_decoder/my_up_sampling1d/ExpandDims/dim", "op": "Const", "attr": {"dtype": {"type": "DT_INT32"}, "value": {"tensor": {"dtype": "DT_INT32", "tensorShape": {}}}}}, {"name": "StatefulPartitionedCall/vae_img2spctr/spec_decoder/my_up_sampling1d/resize/size", "op": "Const", "attr": {"value": {"tensor": {"dtype": "DT_INT32", "tensorShape": {"dim": [{"size": "2"}]}}}, "dtype": {"type": "DT_INT32"}}}, {"name": "in_image", "op": "Placeholder", "attr": {"dtype": {"type": "DT_FLOAT"}, "shape": {"shape": {"dim": [{"size": "-1"}, {"size": "71"}, {"size": "71"}, {"size": "3"}]}}}}, {"name": "StatefulPartitionedCall/vae_img2spctr/xception/block1_conv1/Conv2D_weights", "op": "Const", "attr": {"dtype": {"type": "DT_FLOAT"}, "value": {"tensor": {"dtype": "DT_FLOAT", "tensorShape": {"dim": [{"size": "3"}, {"size": "3"}, {"size": "3"}, {"size": "32"}]}}}}}, {"name": "StatefulPartitionedCall/vae_img2spctr/xception/block1_conv1/Conv2D_bn_offset", "op": "Const", "attr": {"value": {"tensor": {"dtype": "DT_FLOAT", "tensorShape": {"dim": [{"size": "32"}]}}}, "dtype": {"type": "DT_FLOAT"}}}, {"name": "StatefulPartitionedCall/vae_img2spctr/xception/block1_conv2/Conv2D_weights", "op": "Const", "attr": {"dtype": {"type": "DT_FLOAT"}, "value": {"tensor": {"dtype": "DT_FLOAT", "tensorShape": {"dim": [{"size": "3"}, {"size": "3"}, {"size": "32"}, {"size": "64"}]}}}}}, {"name": "StatefulPartitionedCall/vae_img2spctr/xception/block1_conv2/Conv2D_bn_offset", "op": "Const", "attr": {"value": {"tensor": {"dtype": "DT_FLOAT", "tensorShape": {"dim": [{"size": "64"}]}}}, "dtype": {"type": "DT_FLOAT"}}}, {"name": "StatefulPartitionedCall/vae_img2spctr/xception/conv2d/Conv2D_weights", "op": "Const", "attr": {"dtype": {"type": "DT_FLOAT"}, "value": {"tensor": {"dtype": "DT_FLOAT", "tensorShape": {"dim": [{"size": "1"}, {"size": "1"}, {"size": "64"}, {"size": "128"}]}}}}}, {"name": "StatefulPartitionedCall/vae_img2spctr/xception/conv2d/Conv2D_bn_offset", "op": "Const", "attr": {"value": {"tensor": {"dtype": "DT_FLOAT", "tensorShape": {"dim": [{"size": "128"}]}}}, "dtype": {"type": "DT_FLOAT"}}}, {"name": "StatefulPartitionedCall/vae_img2spctr/xception/block2_sepconv1/separable_conv2d_weights", "op": "Const", "attr": {"dtype": {"type": "DT_FLOAT"}, "value": {"tensor": {"dtype": "DT_FLOAT", "tensorShape": {"dim": [{"size": "1"}, {"size": "1"}, {"size": "64"}, {"size": "128"}]}}}}}, {"name": "StatefulPartitionedCall/vae_img2spctr/xception/block2_sepconv1/separable_conv2d_bn_offset", "op": "Const", "attr": {"dtype": {"type": "DT_FLOAT"}, "value": {"tensor": {"dtype": "DT_FLOAT", "tensorShape": {"dim": [{"size": "128"}]}}}}}, {"name": "StatefulPartitionedCall/vae_img2spctr/xception/block2_sepconv2/separable_conv2d_weights", "op": "Const", "attr": {"dtype": {"type": "DT_FLOAT"}, "value": {"tensor": {"dtype": "DT_FLOAT", "tensorShape": {"dim": [{"size": "1"}, {"size": "1"}, {"size": "128"}, {"size": "128"}]}}}}}, {"name": "StatefulPartitionedCall/vae_img2spctr/xception/block2_sepconv2/separable_conv2d_bn_offset", "op": "Const", "attr": {"dtype": {"type": "DT_FLOAT"}, "value": {"tensor": {"dtype": "DT_FLOAT", "tensorShape": {"dim": [{"size": "128"}]}}}}}, {"name": "StatefulPartitionedCall/vae_img2spctr/xception/conv2d_1/Conv2D_weights", "op": "Const", "attr": {"dtype": {"type": "DT_FLOAT"}, "value": {"tensor": {"dtype": "DT_FLOAT", "tensorShape": {"dim": [{"size": "1"}, {"size": "1"}, {"size": "128"}, {"size": "256"}]}}}}}, {"name": "StatefulPartitionedCall/vae_img2spctr/xception/conv2d_1/Conv2D_bn_offset", "op": "Const", "attr": {"value": {"tensor": {"dtype": "DT_FLOAT", "tensorShape": {"dim": [{"size": "256"}]}}}, "dtype": {"type": "DT_FLOAT"}}}, {"name": "StatefulPartitionedCall/vae_img2spctr/xception/block3_sepconv1/separable_conv2d_weights", "op": "Const", "attr": {"value": {"tensor": {"dtype": "DT_FLOAT", "tensorShape": {"dim": [{"size": "1"}, {"size": "1"}, {"size": "128"}, {"size": "256"}]}}}, "dtype": {"type": "DT_FLOAT"}}}, {"name": "StatefulPartitionedCall/vae_img2spctr/xception/block3_sepconv1/separable_conv2d_bn_offset", "op": "Const", "attr": {"value": {"tensor": {"dtype": "DT_FLOAT", "tensorShape": {"dim": [{"size": "256"}]}}}, "dtype": {"type": "DT_FLOAT"}}}, {"name": "StatefulPartitionedCall/vae_img2spctr/xception/block3_sepconv2/separable_conv2d_weights", "op": "Const", "attr": {"dtype": {"type": "DT_FLOAT"}, "value": {"tensor": {"dtype": "DT_FLOAT", "tensorShape": {"dim": [{"size": "1"}, {"size": "1"}, {"size": "256"}, {"size": "256"}]}}}}}, {"name": "StatefulPartitionedCall/vae_img2spctr/xception/block3_sepconv2/separable_conv2d_bn_offset", "op": "Const", "attr": {"value": {"tensor": {"dtype": "DT_FLOAT", "tensorShape": {"dim": [{"size": "256"}]}}}, "dtype": {"type": "DT_FLOAT"}}}, {"name": "StatefulPartitionedCall/vae_img2spctr/xception/conv2d_2/Conv2D_weights", "op": "Const", "attr": {"dtype": {"type": "DT_FLOAT"}, "value": {"tensor": {"dtype": "DT_FLOAT", "tensorShape": {"dim": [{"size": "1"}, {"size": "1"}, {"size": "256"}, {"size": "728"}]}}}}}, {"name": "StatefulPartitionedCall/vae_img2spctr/xception/conv2d_2/Conv2D_bn_offset", "op": "Const", "attr": {"value": {"tensor": {"dtype": "DT_FLOAT", "tensorShape": {"dim": [{"size": "728"}]}}}, "dtype": {"type": "DT_FLOAT"}}}, {"name": "StatefulPartitionedCall/vae_img2spctr/xception/block4_sepconv1/separable_conv2d_weights", "op": "Const", "attr": {"dtype": {"type": "DT_FLOAT"}, "value": {"tensor": {"dtype": "DT_FLOAT", "tensorShape": {"dim": [{"size": "1"}, {"size": "1"}, {"size": "256"}, {"size": "728"}]}}}}}, {"name": "StatefulPartitionedCall/vae_img2spctr/xception/block4_sepconv1/separable_conv2d_bn_offset", "op": "Const", "attr": {"value": {"tensor": {"dtype": "DT_FLOAT", "tensorShape": {"dim": [{"size": "728"}]}}}, "dtype": {"type": "DT_FLOAT"}}}, {"name": "StatefulPartitionedCall/vae_img2spctr/xception/block4_sepconv2/separable_conv2d_weights", "op": "Const", "attr": {"dtype": {"type": "DT_FLOAT"}, "value": {"tensor": {"dtype": "DT_FLOAT", "tensorShape": {"dim": [{"size": "1"}, {"size": "1"}, {"size": "728"}, {"size": "728"}]}}}}}, {"name": "StatefulPartitionedCall/vae_img2spctr/xception/block4_sepconv2/separable_conv2d_bn_offset", "op": "Const", "attr": {"value": {"tensor": {"dtype": "DT_FLOAT", "tensorShape": {"dim": [{"size": "728"}]}}}, "dtype": {"type": "DT_FLOAT"}}}, {"name": "StatefulPartitionedCall/vae_img2spctr/xception/block5_sepconv1/separable_conv2d_weights", "op": "Const", "attr": {"value": {"tensor": {"dtype": "DT_FLOAT", "tensorShape": {"dim": [{"size": "1"}, {"size": "1"}, {"size": "728"}, {"size": "728"}]}}}, "dtype": {"type": "DT_FLOAT"}}}, {"name": "StatefulPartitionedCall/vae_img2spctr/xception/block5_sepconv1/separable_conv2d_bn_offset", "op": "Const", "attr": {"value": {"tensor": {"dtype": "DT_FLOAT", "tensorShape": {"dim": [{"size": "728"}]}}}, "dtype": {"type": "DT_FLOAT"}}}, {"name": "StatefulPartitionedCall/vae_img2spctr/xception/block5_sepconv2/separable_conv2d_weights", "op": "Const", "attr": {"value": {"tensor": {"dtype": "DT_FLOAT", "tensorShape": {"dim": [{"size": "1"}, {"size": "1"}, {"size": "728"}, {"size": "728"}]}}}, "dtype": {"type": "DT_FLOAT"}}}, {"name": "StatefulPartitionedCall/vae_img2spctr/xception/block5_sepconv2/separable_conv2d_bn_offset", "op": "Const", "attr": {"dtype": {"type": "DT_FLOAT"}, "value": {"tensor": {"dtype": "DT_FLOAT", "tensorShape": {"dim": [{"size": "728"}]}}}}}, {"name": "StatefulPartitionedCall/vae_img2spctr/xception/block5_sepconv3/separable_conv2d_weights", "op": "Const", "attr": {"dtype": {"type": "DT_FLOAT"}, "value": {"tensor": {"dtype": "DT_FLOAT", "tensorShape": {"dim": [{"size": "1"}, {"size": "1"}, {"size": "728"}, {"size": "728"}]}}}}}, {"name": "StatefulPartitionedCall/vae_img2spctr/xception/block5_sepconv3/separable_conv2d_bn_offset", "op": "Const", "attr": {"dtype": {"type": "DT_FLOAT"}, "value": {"tensor": {"dtype": "DT_FLOAT", "tensorShape": {"dim": [{"size": "728"}]}}}}}, {"name": "StatefulPartitionedCall/vae_img2spctr/xception/block6_sepconv1/separable_conv2d_weights", "op": "Const", "attr": {"value": {"tensor": {"dtype": "DT_FLOAT", "tensorShape": {"dim": [{"size": "1"}, {"size": "1"}, {"size": "728"}, {"size": "728"}]}}}, "dtype": {"type": "DT_FLOAT"}}}, {"name": "StatefulPartitionedCall/vae_img2spctr/xception/block6_sepconv1/separable_conv2d_bn_offset", "op": "Const", "attr": {"dtype": {"type": "DT_FLOAT"}, "value": {"tensor": {"dtype": "DT_FLOAT", "tensorShape": {"dim": [{"size": "728"}]}}}}}, {"name": "StatefulPartitionedCall/vae_img2spctr/xception/block6_sepconv2/separable_conv2d_weights", "op": "Const", "attr": {"dtype": {"type": "DT_FLOAT"}, "value": {"tensor": {"dtype": "DT_FLOAT", "tensorShape": {"dim": [{"size": "1"}, {"size": "1"}, {"size": "728"}, {"size": "728"}]}}}}}, {"name": "StatefulPartitionedCall/vae_img2spctr/xception/block6_sepconv2/separable_conv2d_bn_offset", "op": "Const", "attr": {"value": {"tensor": {"dtype": "DT_FLOAT", "tensorShape": {"dim": [{"size": "728"}]}}}, "dtype": {"type": "DT_FLOAT"}}}, {"name": "StatefulPartitionedCall/vae_img2spctr/xception/block6_sepconv3/separable_conv2d_weights", "op": "Const", "attr": {"value": {"tensor": {"dtype": "DT_FLOAT", "tensorShape": {"dim": [{"size": "1"}, {"size": "1"}, {"size": "728"}, {"size": "728"}]}}}, "dtype": {"type": "DT_FLOAT"}}}, {"name": "StatefulPartitionedCall/vae_img2spctr/xception/block6_sepconv3/separable_conv2d_bn_offset", "op": "Const", "attr": {"dtype": {"type": "DT_FLOAT"}, "value": {"tensor": {"dtype": "DT_FLOAT", "tensorShape": {"dim": [{"size": "728"}]}}}}}, {"name": "StatefulPartitionedCall/vae_img2spctr/xception/block7_sepconv1/separable_conv2d_weights", "op": "Const", "attr": {"dtype": {"type": "DT_FLOAT"}, "value": {"tensor": {"dtype": "DT_FLOAT", "tensorShape": {"dim": [{"size": "1"}, {"size": "1"}, {"size": "728"}, {"size": "728"}]}}}}}, {"name": "StatefulPartitionedCall/vae_img2spctr/xception/block7_sepconv1/separable_conv2d_bn_offset", "op": "Const", "attr": {"dtype": {"type": "DT_FLOAT"}, "value": {"tensor": {"dtype": "DT_FLOAT", "tensorShape": {"dim": [{"size": "728"}]}}}}}, {"name": "StatefulPartitionedCall/vae_img2spctr/xception/block7_sepconv2/separable_conv2d_weights", "op": "Const", "attr": {"value": {"tensor": {"dtype": "DT_FLOAT", "tensorShape": {"dim": [{"size": "1"}, {"size": "1"}, {"size": "728"}, {"size": "728"}]}}}, "dtype": {"type": "DT_FLOAT"}}}, {"name": "StatefulPartitionedCall/vae_img2spctr/xception/block7_sepconv2/separable_conv2d_bn_offset", "op": "Const", "attr": {"dtype": {"type": "DT_FLOAT"}, "value": {"tensor": {"dtype": "DT_FLOAT", "tensorShape": {"dim": [{"size": "728"}]}}}}}, {"name": "StatefulPartitionedCall/vae_img2spctr/xception/block7_sepconv3/separable_conv2d_weights", "op": "Const", "attr": {"dtype": {"type": "DT_FLOAT"}, "value": {"tensor": {"dtype": "DT_FLOAT", "tensorShape": {"dim": [{"size": "1"}, {"size": "1"}, {"size": "728"}, {"size": "728"}]}}}}}, {"name": "StatefulPartitionedCall/vae_img2spctr/xception/block7_sepconv3/separable_conv2d_bn_offset", "op": "Const", "attr": {"value": {"tensor": {"dtype": "DT_FLOAT", "tensorShape": {"dim": [{"size": "728"}]}}}, "dtype": {"type": "DT_FLOAT"}}}, {"name": "StatefulPartitionedCall/vae_img2spctr/xception/block8_sepconv1/separable_conv2d_weights", "op": "Const", "attr": {"dtype": {"type": "DT_FLOAT"}, "value": {"tensor": {"dtype": "DT_FLOAT", "tensorShape": {"dim": [{"size": "1"}, {"size": "1"}, {"size": "728"}, {"size": "728"}]}}}}}, {"name": "StatefulPartitionedCall/vae_img2spctr/xception/block8_sepconv1/separable_conv2d_bn_offset", "op": "Const", "attr": {"value": {"tensor": {"dtype": "DT_FLOAT", "tensorShape": {"dim": [{"size": "728"}]}}}, "dtype": {"type": "DT_FLOAT"}}}, {"name": "StatefulPartitionedCall/vae_img2spctr/xception/block8_sepconv2/separable_conv2d_weights", "op": "Const", "attr": {"dtype": {"type": "DT_FLOAT"}, "value": {"tensor": {"dtype": "DT_FLOAT", "tensorShape": {"dim": [{"size": "1"}, {"size": "1"}, {"size": "728"}, {"size": "728"}]}}}}}, {"name": "StatefulPartitionedCall/vae_img2spctr/xception/block8_sepconv2/separable_conv2d_bn_offset", "op": "Const", "attr": {"dtype": {"type": "DT_FLOAT"}, "value": {"tensor": {"dtype": "DT_FLOAT", "tensorShape": {"dim": [{"size": "728"}]}}}}}, {"name": "StatefulPartitionedCall/vae_img2spctr/xception/block8_sepconv3/separable_conv2d_weights", "op": "Const", "attr": {"dtype": {"type": "DT_FLOAT"}, "value": {"tensor": {"dtype": "DT_FLOAT", "tensorShape": {"dim": [{"size": "1"}, {"size": "1"}, {"size": "728"}, {"size": "728"}]}}}}}, {"name": "StatefulPartitionedCall/vae_img2spctr/xception/block8_sepconv3/separable_conv2d_bn_offset", "op": "Const", "attr": {"dtype": {"type": "DT_FLOAT"}, "value": {"tensor": {"dtype": "DT_FLOAT", "tensorShape": {"dim": [{"size": "728"}]}}}}}, {"name": "StatefulPartitionedCall/vae_img2spctr/xception/block9_sepconv1/separable_conv2d_weights", "op": "Const", "attr": {"dtype": {"type": "DT_FLOAT"}, "value": {"tensor": {"dtype": "DT_FLOAT", "tensorShape": {"dim": [{"size": "1"}, {"size": "1"}, {"size": "728"}, {"size": "728"}]}}}}}, {"name": "StatefulPartitionedCall/vae_img2spctr/xception/block9_sepconv1/separable_conv2d_bn_offset", "op": "Const", "attr": {"value": {"tensor": {"dtype": "DT_FLOAT", "tensorShape": {"dim": [{"size": "728"}]}}}, "dtype": {"type": "DT_FLOAT"}}}, {"name": "StatefulPartitionedCall/vae_img2spctr/xception/block9_sepconv2/separable_conv2d_weights", "op": "Const", "attr": {"dtype": {"type": "DT_FLOAT"}, "value": {"tensor": {"dtype": "DT_FLOAT", "tensorShape": {"dim": [{"size": "1"}, {"size": "1"}, {"size": "728"}, {"size": "728"}]}}}}}, {"name": "StatefulPartitionedCall/vae_img2spctr/xception/block9_sepconv2/separable_conv2d_bn_offset", "op": "Const", "attr": {"dtype": {"type": "DT_FLOAT"}, "value": {"tensor": {"dtype": "DT_FLOAT", "tensorShape": {"dim": [{"size": "728"}]}}}}}, {"name": "StatefulPartitionedCall/vae_img2spctr/xception/block9_sepconv3/separable_conv2d_weights", "op": "Const", "attr": {"value": {"tensor": {"dtype": "DT_FLOAT", "tensorShape": {"dim": [{"size": "1"}, {"size": "1"}, {"size": "728"}, {"size": "728"}]}}}, "dtype": {"type": "DT_FLOAT"}}}, {"name": "StatefulPartitionedCall/vae_img2spctr/xception/block9_sepconv3/separable_conv2d_bn_offset", "op": "Const", "attr": {"dtype": {"type": "DT_FLOAT"}, "value": {"tensor": {"dtype": "DT_FLOAT", "tensorShape": {"dim": [{"size": "728"}]}}}}}, {"name": "StatefulPartitionedCall/vae_img2spctr/xception/block10_sepconv1/separable_conv2d_weights", "op": "Const", "attr": {"value": {"tensor": {"dtype": "DT_FLOAT", "tensorShape": {"dim": [{"size": "1"}, {"size": "1"}, {"size": "728"}, {"size": "728"}]}}}, "dtype": {"type": "DT_FLOAT"}}}, {"name": "StatefulPartitionedCall/vae_img2spctr/xception/block10_sepconv1/separable_conv2d_bn_offset", "op": "Const", "attr": {"dtype": {"type": "DT_FLOAT"}, "value": {"tensor": {"dtype": "DT_FLOAT", "tensorShape": {"dim": [{"size": "728"}]}}}}}, {"name": "StatefulPartitionedCall/vae_img2spctr/xception/block10_sepconv2/separable_conv2d_weights", "op": "Const", "attr": {"value": {"tensor": {"dtype": "DT_FLOAT", "tensorShape": {"dim": [{"size": "1"}, {"size": "1"}, {"size": "728"}, {"size": "728"}]}}}, "dtype": {"type": "DT_FLOAT"}}}, {"name": "StatefulPartitionedCall/vae_img2spctr/xception/block10_sepconv2/separable_conv2d_bn_offset", "op": "Const", "attr": {"value": {"tensor": {"dtype": "DT_FLOAT", "tensorShape": {"dim": [{"size": "728"}]}}}, "dtype": {"type": "DT_FLOAT"}}}, {"name": "StatefulPartitionedCall/vae_img2spctr/xception/block10_sepconv3/separable_conv2d_weights", "op": "Const", "attr": {"value": {"tensor": {"dtype": "DT_FLOAT", "tensorShape": {"dim": [{"size": "1"}, {"size": "1"}, {"size": "728"}, {"size": "728"}]}}}, "dtype": {"type": "DT_FLOAT"}}}, {"name": "StatefulPartitionedCall/vae_img2spctr/xception/block10_sepconv3/separable_conv2d_bn_offset", "op": "Const", "attr": {"value": {"tensor": {"dtype": "DT_FLOAT", "tensorShape": {"dim": [{"size": "728"}]}}}, "dtype": {"type": "DT_FLOAT"}}}, {"name": "StatefulPartitionedCall/vae_img2spctr/xception/block11_sepconv1/separable_conv2d_weights", "op": "Const", "attr": {"value": {"tensor": {"dtype": "DT_FLOAT", "tensorShape": {"dim": [{"size": "1"}, {"size": "1"}, {"size": "728"}, {"size": "728"}]}}}, "dtype": {"type": "DT_FLOAT"}}}, {"name": "StatefulPartitionedCall/vae_img2spctr/xception/block11_sepconv1/separable_conv2d_bn_offset", "op": "Const", "attr": {"value": {"tensor": {"dtype": "DT_FLOAT", "tensorShape": {"dim": [{"size": "728"}]}}}, "dtype": {"type": "DT_FLOAT"}}}, {"name": "StatefulPartitionedCall/vae_img2spctr/xception/block11_sepconv2/separable_conv2d_weights", "op": "Const", "attr": {"value": {"tensor": {"dtype": "DT_FLOAT", "tensorShape": {"dim": [{"size": "1"}, {"size": "1"}, {"size": "728"}, {"size": "728"}]}}}, "dtype": {"type": "DT_FLOAT"}}}, {"name": "StatefulPartitionedCall/vae_img2spctr/xception/block11_sepconv2/separable_conv2d_bn_offset", "op": "Const", "attr": {"value": {"tensor": {"dtype": "DT_FLOAT", "tensorShape": {"dim": [{"size": "728"}]}}}, "dtype": {"type": "DT_FLOAT"}}}, {"name": "StatefulPartitionedCall/vae_img2spctr/xception/block11_sepconv3/separable_conv2d_weights", "op": "Const", "attr": {"dtype": {"type": "DT_FLOAT"}, "value": {"tensor": {"dtype": "DT_FLOAT", "tensorShape": {"dim": [{"size": "1"}, {"size": "1"}, {"size": "728"}, {"size": "728"}]}}}}}, {"name": "StatefulPartitionedCall/vae_img2spctr/xception/block11_sepconv3/separable_conv2d_bn_offset", "op": "Const", "attr": {"value": {"tensor": {"dtype": "DT_FLOAT", "tensorShape": {"dim": [{"size": "728"}]}}}, "dtype": {"type": "DT_FLOAT"}}}, {"name": "StatefulPartitionedCall/vae_img2spctr/xception/block12_sepconv1/separable_conv2d_weights", "op": "Const", "attr": {"value": {"tensor": {"dtype": "DT_FLOAT", "tensorShape": {"dim": [{"size": "1"}, {"size": "1"}, {"size": "728"}, {"size": "728"}]}}}, "dtype": {"type": "DT_FLOAT"}}}, {"name": "StatefulPartitionedCall/vae_img2spctr/xception/block12_sepconv1/separable_conv2d_bn_offset", "op": "Const", "attr": {"dtype": {"type": "DT_FLOAT"}, "value": {"tensor": {"dtype": "DT_FLOAT", "tensorShape": {"dim": [{"size": "728"}]}}}}}, {"name": "StatefulPartitionedCall/vae_img2spctr/xception/block12_sepconv2/separable_conv2d_weights", "op": "Const", "attr": {"value": {"tensor": {"dtype": "DT_FLOAT", "tensorShape": {"dim": [{"size": "1"}, {"size": "1"}, {"size": "728"}, {"size": "728"}]}}}, "dtype": {"type": "DT_FLOAT"}}}, {"name": "StatefulPartitionedCall/vae_img2spctr/xception/block12_sepconv2/separable_conv2d_bn_offset", "op": "Const", "attr": {"dtype": {"type": "DT_FLOAT"}, "value": {"tensor": {"dtype": "DT_FLOAT", "tensorShape": {"dim": [{"size": "728"}]}}}}}, {"name": "StatefulPartitionedCall/vae_img2spctr/xception/block12_sepconv3/separable_conv2d_weights", "op": "Const", "attr": {"dtype": {"type": "DT_FLOAT"}, "value": {"tensor": {"dtype": "DT_FLOAT", "tensorShape": {"dim": [{"size": "1"}, {"size": "1"}, {"size": "728"}, {"size": "728"}]}}}}}, {"name": "StatefulPartitionedCall/vae_img2spctr/xception/block12_sepconv3/separable_conv2d_bn_offset", "op": "Const", "attr": {"value": {"tensor": {"dtype": "DT_FLOAT", "tensorShape": {"dim": [{"size": "728"}]}}}, "dtype": {"type": "DT_FLOAT"}}}, {"name": "StatefulPartitionedCall/vae_img2spctr/xception/conv2d_3/Conv2D_weights", "op": "Const", "attr": {"dtype": {"type": "DT_FLOAT"}, "value": {"tensor": {"dtype": "DT_FLOAT", "tensorShape": {"dim": [{"size": "1"}, {"size": "1"}, {"size": "728"}, {"size": "1024"}]}}}}}, {"name": "StatefulPartitionedCall/vae_img2spctr/xception/conv2d_3/Conv2D_bn_offset", "op": "Const", "attr": {"dtype": {"type": "DT_FLOAT"}, "value": {"tensor": {"dtype": "DT_FLOAT", "tensorShape": {"dim": [{"size": "1024"}]}}}}}, {"name": "StatefulPartitionedCall/vae_img2spctr/xception/block13_sepconv1/separable_conv2d_weights", "op": "Const", "attr": {"dtype": {"type": "DT_FLOAT"}, "value": {"tensor": {"dtype": "DT_FLOAT", "tensorShape": {"dim": [{"size": "1"}, {"size": "1"}, {"size": "728"}, {"size": "728"}]}}}}}, {"name": "StatefulPartitionedCall/vae_img2spctr/xception/block13_sepconv1/separable_conv2d_bn_offset", "op": "Const", "attr": {"dtype": {"type": "DT_FLOAT"}, "value": {"tensor": {"dtype": "DT_FLOAT", "tensorShape": {"dim": [{"size": "728"}]}}}}}, {"name": "StatefulPartitionedCall/vae_img2spctr/xception/block13_sepconv2/separable_conv2d_weights", "op": "Const", "attr": {"dtype": {"type": "DT_FLOAT"}, "value": {"tensor": {"dtype": "DT_FLOAT", "tensorShape": {"dim": [{"size": "1"}, {"size": "1"}, {"size": "728"}, {"size": "1024"}]}}}}}, {"name": "StatefulPartitionedCall/vae_img2spctr/xception/block13_sepconv2/separable_conv2d_bn_offset", "op": "Const", "attr": {"dtype": {"type": "DT_FLOAT"}, "value": {"tensor": {"dtype": "DT_FLOAT", "tensorShape": {"dim": [{"size": "1024"}]}}}}}, {"name": "StatefulPartitionedCall/vae_img2spctr/xception/block14_sepconv1/separable_conv2d_weights", "op": "Const", "attr": {"dtype": {"type": "DT_FLOAT"}, "value": {"tensor": {"dtype": "DT_FLOAT", "tensorShape": {"dim": [{"size": "1"}, {"size": "1"}, {"size": "1024"}, {"size": "1536"}]}}}}}, {"name": "StatefulPartitionedCall/vae_img2spctr/xception/block14_sepconv1/separable_conv2d_bn_offset", "op": "Const", "attr": {"dtype": {"type": "DT_FLOAT"}, "value": {"tensor": {"dtype": "DT_FLOAT", "tensorShape": {"dim": [{"size": "1536"}]}}}}}, {"name": "StatefulPartitionedCall/vae_img2spctr/xception/block14_sepconv2/separable_conv2d_weights", "op": "Const", "attr": {"value": {"tensor": {"dtype": "DT_FLOAT", "tensorShape": {"dim": [{"size": "1"}, {"size": "1"}, {"size": "1536"}, {"size": "2048"}]}}}, "dtype": {"type": "DT_FLOAT"}}}, {"name": "StatefulPartitionedCall/vae_img2spctr/xception/block14_sepconv2/separable_conv2d_bn_offset", "op": "Const", "attr": {"value": {"tensor": {"dtype": "DT_FLOAT", "tensorShape": {"dim": [{"size": "2048"}]}}}, "dtype": {"type": "DT_FLOAT"}}}, {"name": "StatefulPartitionedCall/vae_img2spctr/sampling_tf_lite/random_normal/RandomStandardNormal", "op": "RandomStandardNormal", "input": ["StatefulPartitionedCall/vae_img2spctr/sampling_tf_lite/random_normal/shape"], "attr": {"seed": {"i": "0"}, "T": {"type": "DT_INT32"}, "dtype": {"type": "DT_FLOAT"}, "seed2": {"i": "0"}}}, {"name": "StatefulPartitionedCall/vae_img2spctr/xception/block1_conv1_act/Relu", "op": "_FusedConv2D", "input": ["in_image", "StatefulPartitionedCall/vae_img2spctr/xception/block1_conv1/Conv2D_weights", "StatefulPartitionedCall/vae_img2spctr/xception/block1_conv1/Conv2D_bn_offset"], "device": "/device:CPU:0", "attr": {"dilations": {"list": {"i": ["1", "1", "1", "1"]}}, "data_format": {"s": "TkhXQw=="}, "explicit_paddings": {"list": {}}, "strides": {"list": {"i": ["1", "2", "2", "1"]}}, "T": {"type": "DT_FLOAT"}, "fused_ops": {"list": {"s": ["Qmlhc0FkZA==", "UmVsdQ=="]}}, "use_cudnn_on_gpu": {"b": true}, "epsilon": {"f": 0.0}, "padding": {"s": "VkFMSUQ="}, "num_args": {"i": "1"}}}, {"name": "StatefulPartitionedCall/vae_img2spctr/xception/block1_conv2_act/Relu", "op": "_FusedConv2D", "input": ["StatefulPartitionedCall/vae_img2spctr/xception/block1_conv1_act/Relu", "StatefulPartitionedCall/vae_img2spctr/xception/block1_conv2/Conv2D_weights", "StatefulPartitionedCall/vae_img2spctr/xception/block1_conv2/Conv2D_bn_offset"], "device": "/device:CPU:0", "attr": {"dilations": {"list": {"i": ["1", "1", "1", "1"]}}, "data_format": {"s": "TkhXQw=="}, "explicit_paddings": {"list": {}}, "strides": {"list": {"i": ["1", "1", "1", "1"]}}, "T": {"type": "DT_FLOAT"}, "fused_ops": {"list": {"s": ["Qmlhc0FkZA==", "UmVsdQ=="]}}, "use_cudnn_on_gpu": {"b": true}, "epsilon": {"f": 0.0}, "padding": {"s": "VkFMSUQ="}, "num_args": {"i": "1"}}}, {"name": "StatefulPartitionedCall/vae_img2spctr/xception/block2_sepconv1/separable_conv2d/depthwise", "op": "DepthwiseConv2dNative", "input": ["StatefulPartitionedCall/vae_img2spctr/xception/block1_conv2_act/Relu", "StatefulPartitionedCall/vae_img2spctr/xception/block2_sepconv1/separable_conv2d/ReadVariableOp"], "attr": {"dilations": {"list": {"i": ["1", "1", "1", "1"]}}, "data_format": {"s": "TkhXQw=="}, "explicit_paddings": {"list": {}}, "strides": {"list": {"i": ["1", "1", "1", "1"]}}, "T": {"type": "DT_FLOAT"}, "padding": {"s": "U0FNRQ=="}}}, {"name": "StatefulPartitionedCall/vae_img2spctr/xception/batch_normalization_6/FusedBatchNormV3", "op": "_FusedConv2D", "input": ["StatefulPartitionedCall/vae_img2spctr/xception/block1_conv2_act/Relu", "StatefulPartitionedCall/vae_img2spctr/xception/conv2d/Conv2D_weights", "StatefulPartitionedCall/vae_img2spctr/xception/conv2d/Conv2D_bn_offset"], "device": "/device:CPU:0", "attr": {"dilations": {"list": {"i": ["1", "1", "1", "1"]}}, "data_format": {"s": "TkhXQw=="}, "explicit_paddings": {"list": {}}, "strides": {"list": {"i": ["1", "2", "2", "1"]}}, "T": {"type": "DT_FLOAT"}, "fused_ops": {"list": {"s": ["Qmlhc0FkZA=="]}}, "use_cudnn_on_gpu": {"b": true}, "epsilon": {"f": 0.0}, "padding": {"s": "U0FNRQ=="}, "num_args": {"i": "1"}}}, {"name": "StatefulPartitionedCall/vae_img2spctr/xception/block2_sepconv2_act/Relu", "op": "_FusedConv2D", "input": ["StatefulPartitionedCall/vae_img2spctr/xception/block2_sepconv1/separable_conv2d/depthwise", "StatefulPartitionedCall/vae_img2spctr/xception/block2_sepconv1/separable_conv2d_weights", "StatefulPartitionedCall/vae_img2spctr/xception/block2_sepconv1/separable_conv2d_bn_offset"], "device": "/device:CPU:0", "attr": {"dilations": {"list": {"i": ["1", "1", "1", "1"]}}, "data_format": {"s": "TkhXQw=="}, "explicit_paddings": {"list": {}}, "strides": {"list": {"i": ["1", "1", "1", "1"]}}, "T": {"type": "DT_FLOAT"}, "fused_ops": {"list": {"s": ["Qmlhc0FkZA==", "UmVsdQ=="]}}, "use_cudnn_on_gpu": {"b": true}, "epsilon": {"f": 0.0}, "padding": {"s": "VkFMSUQ="}, "num_args": {"i": "1"}}}, {"name": "StatefulPartitionedCall/vae_img2spctr/xception/block2_sepconv2/separable_conv2d/depthwise", "op": "DepthwiseConv2dNative", "input": ["StatefulPartitionedCall/vae_img2spctr/xception/block2_sepconv2_act/Relu", "StatefulPartitionedCall/vae_img2spctr/xception/block2_sepconv2/separable_conv2d/ReadVariableOp"], "attr": {"dilations": {"list": {"i": ["1", "1", "1", "1"]}}, "data_format": {"s": "TkhXQw=="}, "explicit_paddings": {"list": {}}, "strides": {"list": {"i": ["1", "1", "1", "1"]}}, "T": {"type": "DT_FLOAT"}, "padding": {"s": "U0FNRQ=="}}}, {"name": "StatefulPartitionedCall/vae_img2spctr/xception/block2_sepconv2_bn/FusedBatchNormV3", "op": "_FusedConv2D", "input": ["StatefulPartitionedCall/vae_img2spctr/xception/block2_sepconv2/separable_conv2d/depthwise", "StatefulPartitionedCall/vae_img2spctr/xception/block2_sepconv2/separable_conv2d_weights", "StatefulPartitionedCall/vae_img2spctr/xception/block2_sepconv2/separable_conv2d_bn_offset"], "device": "/device:CPU:0", "attr": {"dilations": {"list": {"i": ["1", "1", "1", "1"]}}, "data_format": {"s": "TkhXQw=="}, "explicit_paddings": {"list": {}}, "strides": {"list": {"i": ["1", "1", "1", "1"]}}, "T": {"type": "DT_FLOAT"}, "fused_ops": {"list": {"s": ["Qmlhc0FkZA=="]}}, "use_cudnn_on_gpu": {"b": true}, "epsilon": {"f": 0.0}, "padding": {"s": "VkFMSUQ="}, "num_args": {"i": "1"}}}, {"name": "StatefulPartitionedCall/vae_img2spctr/xception/block2_pool/MaxPool", "op": "MaxPool", "input": ["StatefulPartitionedCall/vae_img2spctr/xception/block2_sepconv2_bn/FusedBatchNormV3"], "attr": {"ksize": {"list": {"i": ["1", "3", "3", "1"]}}, "padding": {"s": "U0FNRQ=="}, "data_format": {"s": "TkhXQw=="}, "T": {"type": "DT_FLOAT"}, "explicit_paddings": {"list": {}}, "strides": {"list": {"i": ["1", "2", "2", "1"]}}}}, {"name": "StatefulPartitionedCall/vae_img2spctr/xception/add_8/add", "op": "AddV2", "input": ["StatefulPartitionedCall/vae_img2spctr/xception/block2_pool/MaxPool", "StatefulPartitionedCall/vae_img2spctr/xception/batch_normalization_6/FusedBatchNormV3"], "attr": {"T": {"type": "DT_FLOAT"}}}, {"name": "StatefulPartitionedCall/vae_img2spctr/xception/block3_sepconv1_act/Relu", "op": "Relu", "input": ["StatefulPartitionedCall/vae_img2spctr/xception/add_8/add"], "attr": {"T": {"type": "DT_FLOAT"}}}, {"name": "StatefulPartitionedCall/vae_img2spctr/xception/batch_normalization_7/FusedBatchNormV3", "op": "_FusedConv2D", "input": ["StatefulPartitionedCall/vae_img2spctr/xception/add_8/add", "StatefulPartitionedCall/vae_img2spctr/xception/conv2d_1/Conv2D_weights", "StatefulPartitionedCall/vae_img2spctr/xception/conv2d_1/Conv2D_bn_offset"], "device": "/device:CPU:0", "attr": {"use_cudnn_on_gpu": {"b": true}, "padding": {"s": "U0FNRQ=="}, "epsilon": {"f": 0.0}, "strides": {"list": {"i": ["1", "2", "2", "1"]}}, "fused_ops": {"list": {"s": ["Qmlhc0FkZA=="]}}, "dilations": {"list": {"i": ["1", "1", "1", "1"]}}, "num_args": {"i": "1"}, "explicit_paddings": {"list": {}}, "data_format": {"s": "TkhXQw=="}, "T": {"type": "DT_FLOAT"}}}, {"name": "StatefulPartitionedCall/vae_img2spctr/xception/block3_sepconv1/separable_conv2d/depthwise", "op": "DepthwiseConv2dNative", "input": ["StatefulPartitionedCall/vae_img2spctr/xception/block3_sepconv1_act/Relu", "StatefulPartitionedCall/vae_img2spctr/xception/block3_sepconv1/separable_conv2d/ReadVariableOp"], "attr": {"padding": {"s": "U0FNRQ=="}, "explicit_paddings": {"list": {}}, "strides": {"list": {"i": ["1", "1", "1", "1"]}}, "T": {"type": "DT_FLOAT"}, "dilations": {"list": {"i": ["1", "1", "1", "1"]}}, "data_format": {"s": "TkhXQw=="}}}, {"name": "StatefulPartitionedCall/vae_img2spctr/xception/block3_sepconv2_act/Relu", "op": "_FusedConv2D", "input": ["StatefulPartitionedCall/vae_img2spctr/xception/block3_sepconv1/separable_conv2d/depthwise", "StatefulPartitionedCall/vae_img2spctr/xception/block3_sepconv1/separable_conv2d_weights", "StatefulPartitionedCall/vae_img2spctr/xception/block3_sepconv1/separable_conv2d_bn_offset"], "device": "/device:CPU:0", "attr": {"use_cudnn_on_gpu": {"b": true}, "padding": {"s": "VkFMSUQ="}, "epsilon": {"f": 0.0}, "strides": {"list": {"i": ["1", "1", "1", "1"]}}, "fused_ops": {"list": {"s": ["Qmlhc0FkZA==", "UmVsdQ=="]}}, "dilations": {"list": {"i": ["1", "1", "1", "1"]}}, "num_args": {"i": "1"}, "explicit_paddings": {"list": {}}, "data_format": {"s": "TkhXQw=="}, "T": {"type": "DT_FLOAT"}}}, {"name": "StatefulPartitionedCall/vae_img2spctr/xception/block3_sepconv2/separable_conv2d/depthwise", "op": "DepthwiseConv2dNative", "input": ["StatefulPartitionedCall/vae_img2spctr/xception/block3_sepconv2_act/Relu", "StatefulPartitionedCall/vae_img2spctr/xception/block3_sepconv2/separable_conv2d/ReadVariableOp"], "attr": {"strides": {"list": {"i": ["1", "1", "1", "1"]}}, "dilations": {"list": {"i": ["1", "1", "1", "1"]}}, "T": {"type": "DT_FLOAT"}, "data_format": {"s": "TkhXQw=="}, "padding": {"s": "U0FNRQ=="}, "explicit_paddings": {"list": {}}}}, {"name": "StatefulPartitionedCall/vae_img2spctr/xception/block3_sepconv2_bn/FusedBatchNormV3", "op": "_FusedConv2D", "input": ["StatefulPartitionedCall/vae_img2spctr/xception/block3_sepconv2/separable_conv2d/depthwise", "StatefulPartitionedCall/vae_img2spctr/xception/block3_sepconv2/separable_conv2d_weights", "StatefulPartitionedCall/vae_img2spctr/xception/block3_sepconv2/separable_conv2d_bn_offset"], "device": "/device:CPU:0", "attr": {"num_args": {"i": "1"}, "dilations": {"list": {"i": ["1", "1", "1", "1"]}}, "data_format": {"s": "TkhXQw=="}, "explicit_paddings": {"list": {}}, "T": {"type": "DT_FLOAT"}, "use_cudnn_on_gpu": {"b": true}, "epsilon": {"f": 0.0}, "strides": {"list": {"i": ["1", "1", "1", "1"]}}, "fused_ops": {"list": {"s": ["Qmlhc0FkZA=="]}}, "padding": {"s": "VkFMSUQ="}}}, {"name": "StatefulPartitionedCall/vae_img2spctr/xception/block3_pool/MaxPool", "op": "MaxPool", "input": ["StatefulPartitionedCall/vae_img2spctr/xception/block3_sepconv2_bn/FusedBatchNormV3"], "attr": {"strides": {"list": {"i": ["1", "2", "2", "1"]}}, "T": {"type": "DT_FLOAT"}, "data_format": {"s": "TkhXQw=="}, "ksize": {"list": {"i": ["1", "3", "3", "1"]}}, "padding": {"s": "U0FNRQ=="}, "explicit_paddings": {"list": {}}}}, {"name": "StatefulPartitionedCall/vae_img2spctr/xception/add_9/add", "op": "AddV2", "input": ["StatefulPartitionedCall/vae_img2spctr/xception/block3_pool/MaxPool", "StatefulPartitionedCall/vae_img2spctr/xception/batch_normalization_7/FusedBatchNormV3"], "attr": {"T": {"type": "DT_FLOAT"}}}, {"name": "StatefulPartitionedCall/vae_img2spctr/xception/block4_sepconv1_act/Relu", "op": "Relu", "input": ["StatefulPartitionedCall/vae_img2spctr/xception/add_9/add"], "attr": {"T": {"type": "DT_FLOAT"}}}, {"name": "StatefulPartitionedCall/vae_img2spctr/xception/batch_normalization_8/FusedBatchNormV3", "op": "_FusedConv2D", "input": ["StatefulPartitionedCall/vae_img2spctr/xception/add_9/add", "StatefulPartitionedCall/vae_img2spctr/xception/conv2d_2/Conv2D_weights", "StatefulPartitionedCall/vae_img2spctr/xception/conv2d_2/Conv2D_bn_offset"], "device": "/device:CPU:0", "attr": {"num_args": {"i": "1"}, "dilations": {"list": {"i": ["1", "1", "1", "1"]}}, "data_format": {"s": "TkhXQw=="}, "explicit_paddings": {"list": {}}, "T": {"type": "DT_FLOAT"}, "use_cudnn_on_gpu": {"b": true}, "epsilon": {"f": 0.0}, "strides": {"list": {"i": ["1", "2", "2", "1"]}}, "fused_ops": {"list": {"s": ["Qmlhc0FkZA=="]}}, "padding": {"s": "U0FNRQ=="}}}, {"name": "StatefulPartitionedCall/vae_img2spctr/xception/block4_sepconv1/separable_conv2d/depthwise", "op": "DepthwiseConv2dNative", "input": ["StatefulPartitionedCall/vae_img2spctr/xception/block4_sepconv1_act/Relu", "StatefulPartitionedCall/vae_img2spctr/xception/block4_sepconv1/separable_conv2d/ReadVariableOp"], "attr": {"strides": {"list": {"i": ["1", "1", "1", "1"]}}, "dilations": {"list": {"i": ["1", "1", "1", "1"]}}, "T": {"type": "DT_FLOAT"}, "data_format": {"s": "TkhXQw=="}, "padding": {"s": "U0FNRQ=="}, "explicit_paddings": {"list": {}}}}, {"name": "StatefulPartitionedCall/vae_img2spctr/xception/block4_sepconv2_act/Relu", "op": "_FusedConv2D", "input": ["StatefulPartitionedCall/vae_img2spctr/xception/block4_sepconv1/separable_conv2d/depthwise", "StatefulPartitionedCall/vae_img2spctr/xception/block4_sepconv1/separable_conv2d_weights", "StatefulPartitionedCall/vae_img2spctr/xception/block4_sepconv1/separable_conv2d_bn_offset"], "device": "/device:CPU:0", "attr": {"padding": {"s": "VkFMSUQ="}, "fused_ops": {"list": {"s": ["Qmlhc0FkZA==", "UmVsdQ=="]}}, "use_cudnn_on_gpu": {"b": true}, "epsilon": {"f": 0.0}, "strides": {"list": {"i": ["1", "1", "1", "1"]}}, "T": {"type": "DT_FLOAT"}, "dilations": {"list": {"i": ["1", "1", "1", "1"]}}, "num_args": {"i": "1"}, "explicit_paddings": {"list": {}}, "data_format": {"s": "TkhXQw=="}}}, {"name": "StatefulPartitionedCall/vae_img2spctr/xception/block4_sepconv2/separable_conv2d/depthwise", "op": "DepthwiseConv2dNative", "input": ["StatefulPartitionedCall/vae_img2spctr/xception/block4_sepconv2_act/Relu", "StatefulPartitionedCall/vae_img2spctr/xception/block4_sepconv2/separable_conv2d/ReadVariableOp"], "attr": {"padding": {"s": "U0FNRQ=="}, "strides": {"list": {"i": ["1", "1", "1", "1"]}}, "T": {"type": "DT_FLOAT"}, "dilations": {"list": {"i": ["1", "1", "1", "1"]}}, "explicit_paddings": {"list": {}}, "data_format": {"s": "TkhXQw=="}}}, {"name": "StatefulPartitionedCall/vae_img2spctr/xception/block4_sepconv2_bn/FusedBatchNormV3", "op": "_FusedConv2D", "input": ["StatefulPartitionedCall/vae_img2spctr/xception/block4_sepconv2/separable_conv2d/depthwise", "StatefulPartitionedCall/vae_img2spctr/xception/block4_sepconv2/separable_conv2d_weights", "StatefulPartitionedCall/vae_img2spctr/xception/block4_sepconv2/separable_conv2d_bn_offset"], "device": "/device:CPU:0", "attr": {"use_cudnn_on_gpu": {"b": true}, "padding": {"s": "VkFMSUQ="}, "epsilon": {"f": 0.0}, "strides": {"list": {"i": ["1", "1", "1", "1"]}}, "fused_ops": {"list": {"s": ["Qmlhc0FkZA=="]}}, "dilations": {"list": {"i": ["1", "1", "1", "1"]}}, "num_args": {"i": "1"}, "explicit_paddings": {"list": {}}, "data_format": {"s": "TkhXQw=="}, "T": {"type": "DT_FLOAT"}}}, {"name": "StatefulPartitionedCall/vae_img2spctr/xception/block4_pool/MaxPool", "op": "MaxPool", "input": ["StatefulPartitionedCall/vae_img2spctr/xception/block4_sepconv2_bn/FusedBatchNormV3"], "attr": {"data_format": {"s": "TkhXQw=="}, "explicit_paddings": {"list": {}}, "T": {"type": "DT_FLOAT"}, "strides": {"list": {"i": ["1", "2", "2", "1"]}}, "padding": {"s": "U0FNRQ=="}, "ksize": {"list": {"i": ["1", "3", "3", "1"]}}}}, {"name": "StatefulPartitionedCall/vae_img2spctr/xception/add_10/add", "op": "AddV2", "input": ["StatefulPartitionedCall/vae_img2spctr/xception/block4_pool/MaxPool", "StatefulPartitionedCall/vae_img2spctr/xception/batch_normalization_8/FusedBatchNormV3"], "attr": {"T": {"type": "DT_FLOAT"}}}, {"name": "StatefulPartitionedCall/vae_img2spctr/xception/block5_sepconv1_act/Relu", "op": "Relu", "input": ["StatefulPartitionedCall/vae_img2spctr/xception/add_10/add"], "attr": {"T": {"type": "DT_FLOAT"}}}, {"name": "StatefulPartitionedCall/vae_img2spctr/xception/block5_sepconv1/separable_conv2d/depthwise", "op": "DepthwiseConv2dNative", "input": ["StatefulPartitionedCall/vae_img2spctr/xception/block5_sepconv1_act/Relu", "StatefulPartitionedCall/vae_img2spctr/xception/block5_sepconv1/separable_conv2d/ReadVariableOp"], "attr": {"padding": {"s": "U0FNRQ=="}, "explicit_paddings": {"list": {}}, "strides": {"list": {"i": ["1", "1", "1", "1"]}}, "T": {"type": "DT_FLOAT"}, "dilations": {"list": {"i": ["1", "1", "1", "1"]}}, "data_format": {"s": "TkhXQw=="}}}, {"name": "StatefulPartitionedCall/vae_img2spctr/xception/block5_sepconv2_act/Relu", "op": "_FusedConv2D", "input": ["StatefulPartitionedCall/vae_img2spctr/xception/block5_sepconv1/separable_conv2d/depthwise", "StatefulPartitionedCall/vae_img2spctr/xception/block5_sepconv1/separable_conv2d_weights", "StatefulPartitionedCall/vae_img2spctr/xception/block5_sepconv1/separable_conv2d_bn_offset"], "device": "/device:CPU:0", "attr": {"strides": {"list": {"i": ["1", "1", "1", "1"]}}, "dilations": {"list": {"i": ["1", "1", "1", "1"]}}, "T": {"type": "DT_FLOAT"}, "data_format": {"s": "TkhXQw=="}, "use_cudnn_on_gpu": {"b": true}, "fused_ops": {"list": {"s": ["Qmlhc0FkZA==", "UmVsdQ=="]}}, "padding": {"s": "VkFMSUQ="}, "epsilon": {"f": 0.0}, "num_args": {"i": "1"}, "explicit_paddings": {"list": {}}}}, {"name": "StatefulPartitionedCall/vae_img2spctr/xception/block5_sepconv2/separable_conv2d/depthwise", "op": "DepthwiseConv2dNative", "input": ["StatefulPartitionedCall/vae_img2spctr/xception/block5_sepconv2_act/Relu", "StatefulPartitionedCall/vae_img2spctr/xception/block5_sepconv2/separable_conv2d/ReadVariableOp"], "attr": {"padding": {"s": "U0FNRQ=="}, "strides": {"list": {"i": ["1", "1", "1", "1"]}}, "dilations": {"list": {"i": ["1", "1", "1", "1"]}}, "explicit_paddings": {"list": {}}, "data_format": {"s": "TkhXQw=="}, "T": {"type": "DT_FLOAT"}}}, {"name": "StatefulPartitionedCall/vae_img2spctr/xception/block5_sepconv3_act/Relu", "op": "_FusedConv2D", "input": ["StatefulPartitionedCall/vae_img2spctr/xception/block5_sepconv2/separable_conv2d/depthwise", "StatefulPartitionedCall/vae_img2spctr/xception/block5_sepconv2/separable_conv2d_weights", "StatefulPartitionedCall/vae_img2spctr/xception/block5_sepconv2/separable_conv2d_bn_offset"], "device": "/device:CPU:0", "attr": {"num_args": {"i": "1"}, "dilations": {"list": {"i": ["1", "1", "1", "1"]}}, "data_format": {"s": "TkhXQw=="}, "explicit_paddings": {"list": {}}, "T": {"type": "DT_FLOAT"}, "use_cudnn_on_gpu": {"b": true}, "epsilon": {"f": 0.0}, "strides": {"list": {"i": ["1", "1", "1", "1"]}}, "fused_ops": {"list": {"s": ["Qmlhc0FkZA==", "UmVsdQ=="]}}, "padding": {"s": "VkFMSUQ="}}}, {"name": "StatefulPartitionedCall/vae_img2spctr/xception/block5_sepconv3/separable_conv2d/depthwise", "op": "DepthwiseConv2dNative", "input": ["StatefulPartitionedCall/vae_img2spctr/xception/block5_sepconv3_act/Relu", "StatefulPartitionedCall/vae_img2spctr/xception/block5_sepconv3/separable_conv2d/ReadVariableOp"], "attr": {"padding": {"s": "U0FNRQ=="}, "strides": {"list": {"i": ["1", "1", "1", "1"]}}, "T": {"type": "DT_FLOAT"}, "dilations": {"list": {"i": ["1", "1", "1", "1"]}}, "explicit_paddings": {"list": {}}, "data_format": {"s": "TkhXQw=="}}}, {"name": "StatefulPartitionedCall/vae_img2spctr/xception/block5_sepconv3_bn/FusedBatchNormV3", "op": "_FusedConv2D", "input": ["StatefulPartitionedCall/vae_img2spctr/xception/block5_sepconv3/separable_conv2d/depthwise", "StatefulPartitionedCall/vae_img2spctr/xception/block5_sepconv3/separable_conv2d_weights", "StatefulPartitionedCall/vae_img2spctr/xception/block5_sepconv3/separable_conv2d_bn_offset"], "device": "/device:CPU:0", "attr": {"use_cudnn_on_gpu": {"b": true}, "padding": {"s": "VkFMSUQ="}, "epsilon": {"f": 0.0}, "strides": {"list": {"i": ["1", "1", "1", "1"]}}, "fused_ops": {"list": {"s": ["Qmlhc0FkZA=="]}}, "dilations": {"list": {"i": ["1", "1", "1", "1"]}}, "num_args": {"i": "1"}, "explicit_paddings": {"list": {}}, "data_format": {"s": "TkhXQw=="}, "T": {"type": "DT_FLOAT"}}}, {"name": "StatefulPartitionedCall/vae_img2spctr/xception/add_11/add", "op": "AddV2", "input": ["StatefulPartitionedCall/vae_img2spctr/xception/block5_sepconv3_bn/FusedBatchNormV3", "StatefulPartitionedCall/vae_img2spctr/xception/add_10/add"], "attr": {"T": {"type": "DT_FLOAT"}}}, {"name": "StatefulPartitionedCall/vae_img2spctr/xception/block6_sepconv1_act/Relu", "op": "Relu", "input": ["StatefulPartitionedCall/vae_img2spctr/xception/add_11/add"], "attr": {"T": {"type": "DT_FLOAT"}}}, {"name": "StatefulPartitionedCall/vae_img2spctr/xception/block6_sepconv1/separable_conv2d/depthwise", "op": "DepthwiseConv2dNative", "input": ["StatefulPartitionedCall/vae_img2spctr/xception/block6_sepconv1_act/Relu", "StatefulPartitionedCall/vae_img2spctr/xception/block6_sepconv1/separable_conv2d/ReadVariableOp"], "attr": {"dilations": {"list": {"i": ["1", "1", "1", "1"]}}, "data_format": {"s": "TkhXQw=="}, "explicit_paddings": {"list": {}}, "T": {"type": "DT_FLOAT"}, "strides": {"list": {"i": ["1", "1", "1", "1"]}}, "padding": {"s": "U0FNRQ=="}}}, {"name": "StatefulPartitionedCall/vae_img2spctr/xception/block6_sepconv2_act/Relu", "op": "_FusedConv2D", "input": ["StatefulPartitionedCall/vae_img2spctr/xception/block6_sepconv1/separable_conv2d/depthwise", "StatefulPartitionedCall/vae_img2spctr/xception/block6_sepconv1/separable_conv2d_weights", "StatefulPartitionedCall/vae_img2spctr/xception/block6_sepconv1/separable_conv2d_bn_offset"], "device": "/device:CPU:0", "attr": {"use_cudnn_on_gpu": {"b": true}, "padding": {"s": "VkFMSUQ="}, "epsilon": {"f": 0.0}, "strides": {"list": {"i": ["1", "1", "1", "1"]}}, "fused_ops": {"list": {"s": ["Qmlhc0FkZA==", "UmVsdQ=="]}}, "dilations": {"list": {"i": ["1", "1", "1", "1"]}}, "num_args": {"i": "1"}, "explicit_paddings": {"list": {}}, "data_format": {"s": "TkhXQw=="}, "T": {"type": "DT_FLOAT"}}}, {"name": "StatefulPartitionedCall/vae_img2spctr/xception/block6_sepconv2/separable_conv2d/depthwise", "op": "DepthwiseConv2dNative", "input": ["StatefulPartitionedCall/vae_img2spctr/xception/block6_sepconv2_act/Relu", "StatefulPartitionedCall/vae_img2spctr/xception/block6_sepconv2/separable_conv2d/ReadVariableOp"], "attr": {"padding": {"s": "U0FNRQ=="}, "explicit_paddings": {"list": {}}, "strides": {"list": {"i": ["1", "1", "1", "1"]}}, "T": {"type": "DT_FLOAT"}, "dilations": {"list": {"i": ["1", "1", "1", "1"]}}, "data_format": {"s": "TkhXQw=="}}}, {"name": "StatefulPartitionedCall/vae_img2spctr/xception/block6_sepconv3_act/Relu", "op": "_FusedConv2D", "input": ["StatefulPartitionedCall/vae_img2spctr/xception/block6_sepconv2/separable_conv2d/depthwise", "StatefulPartitionedCall/vae_img2spctr/xception/block6_sepconv2/separable_conv2d_weights", "StatefulPartitionedCall/vae_img2spctr/xception/block6_sepconv2/separable_conv2d_bn_offset"], "device": "/device:CPU:0", "attr": {"num_args": {"i": "1"}, "dilations": {"list": {"i": ["1", "1", "1", "1"]}}, "data_format": {"s": "TkhXQw=="}, "explicit_paddings": {"list": {}}, "T": {"type": "DT_FLOAT"}, "use_cudnn_on_gpu": {"b": true}, "epsilon": {"f": 0.0}, "strides": {"list": {"i": ["1", "1", "1", "1"]}}, "fused_ops": {"list": {"s": ["Qmlhc0FkZA==", "UmVsdQ=="]}}, "padding": {"s": "VkFMSUQ="}}}, {"name": "StatefulPartitionedCall/vae_img2spctr/xception/block6_sepconv3/separable_conv2d/depthwise", "op": "DepthwiseConv2dNative", "input": ["StatefulPartitionedCall/vae_img2spctr/xception/block6_sepconv3_act/Relu", "StatefulPartitionedCall/vae_img2spctr/xception/block6_sepconv3/separable_conv2d/ReadVariableOp"], "attr": {"dilations": {"list": {"i": ["1", "1", "1", "1"]}}, "data_format": {"s": "TkhXQw=="}, "explicit_paddings": {"list": {}}, "T": {"type": "DT_FLOAT"}, "strides": {"list": {"i": ["1", "1", "1", "1"]}}, "padding": {"s": "U0FNRQ=="}}}, {"name": "StatefulPartitionedCall/vae_img2spctr/xception/block6_sepconv3_bn/FusedBatchNormV3", "op": "_FusedConv2D", "input": ["StatefulPartitionedCall/vae_img2spctr/xception/block6_sepconv3/separable_conv2d/depthwise", "StatefulPartitionedCall/vae_img2spctr/xception/block6_sepconv3/separable_conv2d_weights", "StatefulPartitionedCall/vae_img2spctr/xception/block6_sepconv3/separable_conv2d_bn_offset"], "device": "/device:CPU:0", "attr": {"num_args": {"i": "1"}, "dilations": {"list": {"i": ["1", "1", "1", "1"]}}, "data_format": {"s": "TkhXQw=="}, "explicit_paddings": {"list": {}}, "T": {"type": "DT_FLOAT"}, "use_cudnn_on_gpu": {"b": true}, "epsilon": {"f": 0.0}, "strides": {"list": {"i": ["1", "1", "1", "1"]}}, "fused_ops": {"list": {"s": ["Qmlhc0FkZA=="]}}, "padding": {"s": "VkFMSUQ="}}}, {"name": "StatefulPartitionedCall/vae_img2spctr/xception/add_12/add", "op": "AddV2", "input": ["StatefulPartitionedCall/vae_img2spctr/xception/block6_sepconv3_bn/FusedBatchNormV3", "StatefulPartitionedCall/vae_img2spctr/xception/add_11/add"], "attr": {"T": {"type": "DT_FLOAT"}}}, {"name": "StatefulPartitionedCall/vae_img2spctr/xception/block7_sepconv1_act/Relu", "op": "Relu", "input": ["StatefulPartitionedCall/vae_img2spctr/xception/add_12/add"], "attr": {"T": {"type": "DT_FLOAT"}}}, {"name": "StatefulPartitionedCall/vae_img2spctr/xception/block7_sepconv1/separable_conv2d/depthwise", "op": "DepthwiseConv2dNative", "input": ["StatefulPartitionedCall/vae_img2spctr/xception/block7_sepconv1_act/Relu", "StatefulPartitionedCall/vae_img2spctr/xception/block7_sepconv1/separable_conv2d/ReadVariableOp"], "attr": {"padding": {"s": "U0FNRQ=="}, "explicit_paddings": {"list": {}}, "strides": {"list": {"i": ["1", "1", "1", "1"]}}, "T": {"type": "DT_FLOAT"}, "dilations": {"list": {"i": ["1", "1", "1", "1"]}}, "data_format": {"s": "TkhXQw=="}}}, {"name": "StatefulPartitionedCall/vae_img2spctr/xception/block7_sepconv2_act/Relu", "op": "_FusedConv2D", "input": ["StatefulPartitionedCall/vae_img2spctr/xception/block7_sepconv1/separable_conv2d/depthwise", "StatefulPartitionedCall/vae_img2spctr/xception/block7_sepconv1/separable_conv2d_weights", "StatefulPartitionedCall/vae_img2spctr/xception/block7_sepconv1/separable_conv2d_bn_offset"], "device": "/device:CPU:0", "attr": {"use_cudnn_on_gpu": {"b": true}, "padding": {"s": "VkFMSUQ="}, "epsilon": {"f": 0.0}, "strides": {"list": {"i": ["1", "1", "1", "1"]}}, "fused_ops": {"list": {"s": ["Qmlhc0FkZA==", "UmVsdQ=="]}}, "dilations": {"list": {"i": ["1", "1", "1", "1"]}}, "num_args": {"i": "1"}, "explicit_paddings": {"list": {}}, "data_format": {"s": "TkhXQw=="}, "T": {"type": "DT_FLOAT"}}}, {"name": "StatefulPartitionedCall/vae_img2spctr/xception/block7_sepconv2/separable_conv2d/depthwise", "op": "DepthwiseConv2dNative", "input": ["StatefulPartitionedCall/vae_img2spctr/xception/block7_sepconv2_act/Relu", "StatefulPartitionedCall/vae_img2spctr/xception/block7_sepconv2/separable_conv2d/ReadVariableOp"], "attr": {"dilations": {"list": {"i": ["1", "1", "1", "1"]}}, "data_format": {"s": "TkhXQw=="}, "explicit_paddings": {"list": {}}, "T": {"type": "DT_FLOAT"}, "strides": {"list": {"i": ["1", "1", "1", "1"]}}, "padding": {"s": "U0FNRQ=="}}}, {"name": "StatefulPartitionedCall/vae_img2spctr/xception/block7_sepconv3_act/Relu", "op": "_FusedConv2D", "input": ["StatefulPartitionedCall/vae_img2spctr/xception/block7_sepconv2/separable_conv2d/depthwise", "StatefulPartitionedCall/vae_img2spctr/xception/block7_sepconv2/separable_conv2d_weights", "StatefulPartitionedCall/vae_img2spctr/xception/block7_sepconv2/separable_conv2d_bn_offset"], "device": "/device:CPU:0", "attr": {"padding": {"s": "VkFMSUQ="}, "fused_ops": {"list": {"s": ["Qmlhc0FkZA==", "UmVsdQ=="]}}, "use_cudnn_on_gpu": {"b": true}, "epsilon": {"f": 0.0}, "strides": {"list": {"i": ["1", "1", "1", "1"]}}, "T": {"type": "DT_FLOAT"}, "dilations": {"list": {"i": ["1", "1", "1", "1"]}}, "num_args": {"i": "1"}, "explicit_paddings": {"list": {}}, "data_format": {"s": "TkhXQw=="}}}, {"name": "StatefulPartitionedCall/vae_img2spctr/xception/block7_sepconv3/separable_conv2d/depthwise", "op": "DepthwiseConv2dNative", "input": ["StatefulPartitionedCall/vae_img2spctr/xception/block7_sepconv3_act/Relu", "StatefulPartitionedCall/vae_img2spctr/xception/block7_sepconv3/separable_conv2d/ReadVariableOp"], "attr": {"dilations": {"list": {"i": ["1", "1", "1", "1"]}}, "data_format": {"s": "TkhXQw=="}, "explicit_paddings": {"list": {}}, "T": {"type": "DT_FLOAT"}, "strides": {"list": {"i": ["1", "1", "1", "1"]}}, "padding": {"s": "U0FNRQ=="}}}, {"name": "StatefulPartitionedCall/vae_img2spctr/xception/block7_sepconv3_bn/FusedBatchNormV3", "op": "_FusedConv2D", "input": ["StatefulPartitionedCall/vae_img2spctr/xception/block7_sepconv3/separable_conv2d/depthwise", "StatefulPartitionedCall/vae_img2spctr/xception/block7_sepconv3/separable_conv2d_weights", "StatefulPartitionedCall/vae_img2spctr/xception/block7_sepconv3/separable_conv2d_bn_offset"], "device": "/device:CPU:0", "attr": {"strides": {"list": {"i": ["1", "1", "1", "1"]}}, "dilations": {"list": {"i": ["1", "1", "1", "1"]}}, "T": {"type": "DT_FLOAT"}, "data_format": {"s": "TkhXQw=="}, "use_cudnn_on_gpu": {"b": true}, "fused_ops": {"list": {"s": ["Qmlhc0FkZA=="]}}, "padding": {"s": "VkFMSUQ="}, "epsilon": {"f": 0.0}, "num_args": {"i": "1"}, "explicit_paddings": {"list": {}}}}, {"name": "StatefulPartitionedCall/vae_img2spctr/xception/add_13/add", "op": "AddV2", "input": ["StatefulPartitionedCall/vae_img2spctr/xception/block7_sepconv3_bn/FusedBatchNormV3", "StatefulPartitionedCall/vae_img2spctr/xception/add_12/add"], "attr": {"T": {"type": "DT_FLOAT"}}}, {"name": "StatefulPartitionedCall/vae_img2spctr/xception/block8_sepconv1_act/Relu", "op": "Relu", "input": ["StatefulPartitionedCall/vae_img2spctr/xception/add_13/add"], "attr": {"T": {"type": "DT_FLOAT"}}}, {"name": "StatefulPartitionedCall/vae_img2spctr/xception/block8_sepconv1/separable_conv2d/depthwise", "op": "DepthwiseConv2dNative", "input": ["StatefulPartitionedCall/vae_img2spctr/xception/block8_sepconv1_act/Relu", "StatefulPartitionedCall/vae_img2spctr/xception/block8_sepconv1/separable_conv2d/ReadVariableOp"], "attr": {"padding": {"s": "U0FNRQ=="}, "strides": {"list": {"i": ["1", "1", "1", "1"]}}, "T": {"type": "DT_FLOAT"}, "dilations": {"list": {"i": ["1", "1", "1", "1"]}}, "explicit_paddings": {"list": {}}, "data_format": {"s": "TkhXQw=="}}}, {"name": "StatefulPartitionedCall/vae_img2spctr/xception/block8_sepconv2_act/Relu", "op": "_FusedConv2D", "input": ["StatefulPartitionedCall/vae_img2spctr/xception/block8_sepconv1/separable_conv2d/depthwise", "StatefulPartitionedCall/vae_img2spctr/xception/block8_sepconv1/separable_conv2d_weights", "StatefulPartitionedCall/vae_img2spctr/xception/block8_sepconv1/separable_conv2d_bn_offset"], "device": "/device:CPU:0", "attr": {"epsilon": {"f": 0.0}, "num_args": {"i": "1"}, "padding": {"s": "VkFMSUQ="}, "explicit_paddings": {"list": {}}, "strides": {"list": {"i": ["1", "1", "1", "1"]}}, "T": {"type": "DT_FLOAT"}, "dilations": {"list": {"i": ["1", "1", "1", "1"]}}, "data_format": {"s": "TkhXQw=="}, "fused_ops": {"list": {"s": ["Qmlhc0FkZA==", "UmVsdQ=="]}}, "use_cudnn_on_gpu": {"b": true}}}, {"name": "StatefulPartitionedCall/vae_img2spctr/xception/block8_sepconv2/separable_conv2d/depthwise", "op": "DepthwiseConv2dNative", "input": ["StatefulPartitionedCall/vae_img2spctr/xception/block8_sepconv2_act/Relu", "StatefulPartitionedCall/vae_img2spctr/xception/block8_sepconv2/separable_conv2d/ReadVariableOp"], "attr": {"padding": {"s": "U0FNRQ=="}, "strides": {"list": {"i": ["1", "1", "1", "1"]}}, "T": {"type": "DT_FLOAT"}, "dilations": {"list": {"i": ["1", "1", "1", "1"]}}, "explicit_paddings": {"list": {}}, "data_format": {"s": "TkhXQw=="}}}, {"name": "StatefulPartitionedCall/vae_img2spctr/xception/block8_sepconv3_act/Relu", "op": "_FusedConv2D", "input": ["StatefulPartitionedCall/vae_img2spctr/xception/block8_sepconv2/separable_conv2d/depthwise", "StatefulPartitionedCall/vae_img2spctr/xception/block8_sepconv2/separable_conv2d_weights", "StatefulPartitionedCall/vae_img2spctr/xception/block8_sepconv2/separable_conv2d_bn_offset"], "device": "/device:CPU:0", "attr": {"epsilon": {"f": 0.0}, "num_args": {"i": "1"}, "padding": {"s": "VkFMSUQ="}, "explicit_paddings": {"list": {}}, "strides": {"list": {"i": ["1", "1", "1", "1"]}}, "T": {"type": "DT_FLOAT"}, "dilations": {"list": {"i": ["1", "1", "1", "1"]}}, "data_format": {"s": "TkhXQw=="}, "fused_ops": {"list": {"s": ["Qmlhc0FkZA==", "UmVsdQ=="]}}, "use_cudnn_on_gpu": {"b": true}}}, {"name": "StatefulPartitionedCall/vae_img2spctr/xception/block8_sepconv3/separable_conv2d/depthwise", "op": "DepthwiseConv2dNative", "input": ["StatefulPartitionedCall/vae_img2spctr/xception/block8_sepconv3_act/Relu", "StatefulPartitionedCall/vae_img2spctr/xception/block8_sepconv3/separable_conv2d/ReadVariableOp"], "attr": {"padding": {"s": "U0FNRQ=="}, "strides": {"list": {"i": ["1", "1", "1", "1"]}}, "T": {"type": "DT_FLOAT"}, "dilations": {"list": {"i": ["1", "1", "1", "1"]}}, "explicit_paddings": {"list": {}}, "data_format": {"s": "TkhXQw=="}}}, {"name": "StatefulPartitionedCall/vae_img2spctr/xception/block8_sepconv3_bn/FusedBatchNormV3", "op": "_FusedConv2D", "input": ["StatefulPartitionedCall/vae_img2spctr/xception/block8_sepconv3/separable_conv2d/depthwise", "StatefulPartitionedCall/vae_img2spctr/xception/block8_sepconv3/separable_conv2d_weights", "StatefulPartitionedCall/vae_img2spctr/xception/block8_sepconv3/separable_conv2d_bn_offset"], "device": "/device:CPU:0", "attr": {"num_args": {"i": "1"}, "dilations": {"list": {"i": ["1", "1", "1", "1"]}}, "data_format": {"s": "TkhXQw=="}, "explicit_paddings": {"list": {}}, "T": {"type": "DT_FLOAT"}, "use_cudnn_on_gpu": {"b": true}, "epsilon": {"f": 0.0}, "strides": {"list": {"i": ["1", "1", "1", "1"]}}, "fused_ops": {"list": {"s": ["Qmlhc0FkZA=="]}}, "padding": {"s": "VkFMSUQ="}}}, {"name": "StatefulPartitionedCall/vae_img2spctr/xception/add_14/add", "op": "AddV2", "input": ["StatefulPartitionedCall/vae_img2spctr/xception/block8_sepconv3_bn/FusedBatchNormV3", "StatefulPartitionedCall/vae_img2spctr/xception/add_13/add"], "attr": {"T": {"type": "DT_FLOAT"}}}, {"name": "StatefulPartitionedCall/vae_img2spctr/xception/block9_sepconv1_act/Relu", "op": "Relu", "input": ["StatefulPartitionedCall/vae_img2spctr/xception/add_14/add"], "attr": {"T": {"type": "DT_FLOAT"}}}, {"name": "StatefulPartitionedCall/vae_img2spctr/xception/block9_sepconv1/separable_conv2d/depthwise", "op": "DepthwiseConv2dNative", "input": ["StatefulPartitionedCall/vae_img2spctr/xception/block9_sepconv1_act/Relu", "StatefulPartitionedCall/vae_img2spctr/xception/block9_sepconv1/separable_conv2d/ReadVariableOp"], "attr": {"padding": {"s": "U0FNRQ=="}, "strides": {"list": {"i": ["1", "1", "1", "1"]}}, "T": {"type": "DT_FLOAT"}, "dilations": {"list": {"i": ["1", "1", "1", "1"]}}, "explicit_paddings": {"list": {}}, "data_format": {"s": "TkhXQw=="}}}, {"name": "StatefulPartitionedCall/vae_img2spctr/xception/block9_sepconv2_act/Relu", "op": "_FusedConv2D", "input": ["StatefulPartitionedCall/vae_img2spctr/xception/block9_sepconv1/separable_conv2d/depthwise", "StatefulPartitionedCall/vae_img2spctr/xception/block9_sepconv1/separable_conv2d_weights", "StatefulPartitionedCall/vae_img2spctr/xception/block9_sepconv1/separable_conv2d_bn_offset"], "device": "/device:CPU:0", "attr": {"epsilon": {"f": 0.0}, "num_args": {"i": "1"}, "padding": {"s": "VkFMSUQ="}, "explicit_paddings": {"list": {}}, "strides": {"list": {"i": ["1", "1", "1", "1"]}}, "T": {"type": "DT_FLOAT"}, "dilations": {"list": {"i": ["1", "1", "1", "1"]}}, "data_format": {"s": "TkhXQw=="}, "fused_ops": {"list": {"s": ["Qmlhc0FkZA==", "UmVsdQ=="]}}, "use_cudnn_on_gpu": {"b": true}}}, {"name": "StatefulPartitionedCall/vae_img2spctr/xception/block9_sepconv2/separable_conv2d/depthwise", "op": "DepthwiseConv2dNative", "input": ["StatefulPartitionedCall/vae_img2spctr/xception/block9_sepconv2_act/Relu", "StatefulPartitionedCall/vae_img2spctr/xception/block9_sepconv2/separable_conv2d/ReadVariableOp"], "attr": {"padding": {"s": "U0FNRQ=="}, "explicit_paddings": {"list": {}}, "strides": {"list": {"i": ["1", "1", "1", "1"]}}, "T": {"type": "DT_FLOAT"}, "dilations": {"list": {"i": ["1", "1", "1", "1"]}}, "data_format": {"s": "TkhXQw=="}}}, {"name": "StatefulPartitionedCall/vae_img2spctr/xception/block9_sepconv3_act/Relu", "op": "_FusedConv2D", "input": ["StatefulPartitionedCall/vae_img2spctr/xception/block9_sepconv2/separable_conv2d/depthwise", "StatefulPartitionedCall/vae_img2spctr/xception/block9_sepconv2/separable_conv2d_weights", "StatefulPartitionedCall/vae_img2spctr/xception/block9_sepconv2/separable_conv2d_bn_offset"], "device": "/device:CPU:0", "attr": {"padding": {"s": "VkFMSUQ="}, "fused_ops": {"list": {"s": ["Qmlhc0FkZA==", "UmVsdQ=="]}}, "use_cudnn_on_gpu": {"b": true}, "epsilon": {"f": 0.0}, "strides": {"list": {"i": ["1", "1", "1", "1"]}}, "T": {"type": "DT_FLOAT"}, "dilations": {"list": {"i": ["1", "1", "1", "1"]}}, "num_args": {"i": "1"}, "explicit_paddings": {"list": {}}, "data_format": {"s": "TkhXQw=="}}}, {"name": "StatefulPartitionedCall/vae_img2spctr/xception/block9_sepconv3/separable_conv2d/depthwise", "op": "DepthwiseConv2dNative", "input": ["StatefulPartitionedCall/vae_img2spctr/xception/block9_sepconv3_act/Relu", "StatefulPartitionedCall/vae_img2spctr/xception/block9_sepconv3/separable_conv2d/ReadVariableOp"], "attr": {"dilations": {"list": {"i": ["1", "1", "1", "1"]}}, "data_format": {"s": "TkhXQw=="}, "explicit_paddings": {"list": {}}, "T": {"type": "DT_FLOAT"}, "strides": {"list": {"i": ["1", "1", "1", "1"]}}, "padding": {"s": "U0FNRQ=="}}}, {"name": "StatefulPartitionedCall/vae_img2spctr/xception/block9_sepconv3_bn/FusedBatchNormV3", "op": "_FusedConv2D", "input": ["StatefulPartitionedCall/vae_img2spctr/xception/block9_sepconv3/separable_conv2d/depthwise", "StatefulPartitionedCall/vae_img2spctr/xception/block9_sepconv3/separable_conv2d_weights", "StatefulPartitionedCall/vae_img2spctr/xception/block9_sepconv3/separable_conv2d_bn_offset"], "device": "/device:CPU:0", "attr": {"epsilon": {"f": 0.0}, "num_args": {"i": "1"}, "padding": {"s": "VkFMSUQ="}, "explicit_paddings": {"list": {}}, "strides": {"list": {"i": ["1", "1", "1", "1"]}}, "T": {"type": "DT_FLOAT"}, "dilations": {"list": {"i": ["1", "1", "1", "1"]}}, "data_format": {"s": "TkhXQw=="}, "fused_ops": {"list": {"s": ["Qmlhc0FkZA=="]}}, "use_cudnn_on_gpu": {"b": true}}}, {"name": "StatefulPartitionedCall/vae_img2spctr/xception/add_15/add", "op": "AddV2", "input": ["StatefulPartitionedCall/vae_img2spctr/xception/block9_sepconv3_bn/FusedBatchNormV3", "StatefulPartitionedCall/vae_img2spctr/xception/add_14/add"], "attr": {"T": {"type": "DT_FLOAT"}}}, {"name": "StatefulPartitionedCall/vae_img2spctr/xception/block10_sepconv1_act/Relu", "op": "Relu", "input": ["StatefulPartitionedCall/vae_img2spctr/xception/add_15/add"], "attr": {"T": {"type": "DT_FLOAT"}}}, {"name": "StatefulPartitionedCall/vae_img2spctr/xception/block10_sepconv1/separable_conv2d/depthwise", "op": "DepthwiseConv2dNative", "input": ["StatefulPartitionedCall/vae_img2spctr/xception/block10_sepconv1_act/Relu", "StatefulPartitionedCall/vae_img2spctr/xception/block10_sepconv1/separable_conv2d/ReadVariableOp"], "attr": {"dilations": {"list": {"i": ["1", "1", "1", "1"]}}, "data_format": {"s": "TkhXQw=="}, "explicit_paddings": {"list": {}}, "T": {"type": "DT_FLOAT"}, "strides": {"list": {"i": ["1", "1", "1", "1"]}}, "padding": {"s": "U0FNRQ=="}}}, {"name": "StatefulPartitionedCall/vae_img2spctr/xception/block10_sepconv2_act/Relu", "op": "_FusedConv2D", "input": ["StatefulPartitionedCall/vae_img2spctr/xception/block10_sepconv1/separable_conv2d/depthwise", "StatefulPartitionedCall/vae_img2spctr/xception/block10_sepconv1/separable_conv2d_weights", "StatefulPartitionedCall/vae_img2spctr/xception/block10_sepconv1/separable_conv2d_bn_offset"], "device": "/device:CPU:0", "attr": {"padding": {"s": "VkFMSUQ="}, "fused_ops": {"list": {"s": ["Qmlhc0FkZA==", "UmVsdQ=="]}}, "use_cudnn_on_gpu": {"b": true}, "epsilon": {"f": 0.0}, "strides": {"list": {"i": ["1", "1", "1", "1"]}}, "T": {"type": "DT_FLOAT"}, "dilations": {"list": {"i": ["1", "1", "1", "1"]}}, "num_args": {"i": "1"}, "explicit_paddings": {"list": {}}, "data_format": {"s": "TkhXQw=="}}}, {"name": "StatefulPartitionedCall/vae_img2spctr/xception/block10_sepconv2/separable_conv2d/depthwise", "op": "DepthwiseConv2dNative", "input": ["StatefulPartitionedCall/vae_img2spctr/xception/block10_sepconv2_act/Relu", "StatefulPartitionedCall/vae_img2spctr/xception/block10_sepconv2/separable_conv2d/ReadVariableOp"], "attr": {"padding": {"s": "U0FNRQ=="}, "explicit_paddings": {"list": {}}, "strides": {"list": {"i": ["1", "1", "1", "1"]}}, "T": {"type": "DT_FLOAT"}, "dilations": {"list": {"i": ["1", "1", "1", "1"]}}, "data_format": {"s": "TkhXQw=="}}}, {"name": "StatefulPartitionedCall/vae_img2spctr/xception/block10_sepconv3_act/Relu", "op": "_FusedConv2D", "input": ["StatefulPartitionedCall/vae_img2spctr/xception/block10_sepconv2/separable_conv2d/depthwise", "StatefulPartitionedCall/vae_img2spctr/xception/block10_sepconv2/separable_conv2d_weights", "StatefulPartitionedCall/vae_img2spctr/xception/block10_sepconv2/separable_conv2d_bn_offset"], "device": "/device:CPU:0", "attr": {"use_cudnn_on_gpu": {"b": true}, "padding": {"s": "VkFMSUQ="}, "epsilon": {"f": 0.0}, "strides": {"list": {"i": ["1", "1", "1", "1"]}}, "fused_ops": {"list": {"s": ["Qmlhc0FkZA==", "UmVsdQ=="]}}, "dilations": {"list": {"i": ["1", "1", "1", "1"]}}, "num_args": {"i": "1"}, "explicit_paddings": {"list": {}}, "data_format": {"s": "TkhXQw=="}, "T": {"type": "DT_FLOAT"}}}, {"name": "StatefulPartitionedCall/vae_img2spctr/xception/block10_sepconv3/separable_conv2d/depthwise", "op": "DepthwiseConv2dNative", "input": ["StatefulPartitionedCall/vae_img2spctr/xception/block10_sepconv3_act/Relu", "StatefulPartitionedCall/vae_img2spctr/xception/block10_sepconv3/separable_conv2d/ReadVariableOp"], "attr": {"padding": {"s": "U0FNRQ=="}, "strides": {"list": {"i": ["1", "1", "1", "1"]}}, "dilations": {"list": {"i": ["1", "1", "1", "1"]}}, "explicit_paddings": {"list": {}}, "data_format": {"s": "TkhXQw=="}, "T": {"type": "DT_FLOAT"}}}, {"name": "StatefulPartitionedCall/vae_img2spctr/xception/block10_sepconv3_bn/FusedBatchNormV3", "op": "_FusedConv2D", "input": ["StatefulPartitionedCall/vae_img2spctr/xception/block10_sepconv3/separable_conv2d/depthwise", "StatefulPartitionedCall/vae_img2spctr/xception/block10_sepconv3/separable_conv2d_weights", "StatefulPartitionedCall/vae_img2spctr/xception/block10_sepconv3/separable_conv2d_bn_offset"], "device": "/device:CPU:0", "attr": {"use_cudnn_on_gpu": {"b": true}, "padding": {"s": "VkFMSUQ="}, "epsilon": {"f": 0.0}, "strides": {"list": {"i": ["1", "1", "1", "1"]}}, "fused_ops": {"list": {"s": ["Qmlhc0FkZA=="]}}, "dilations": {"list": {"i": ["1", "1", "1", "1"]}}, "num_args": {"i": "1"}, "explicit_paddings": {"list": {}}, "data_format": {"s": "TkhXQw=="}, "T": {"type": "DT_FLOAT"}}}, {"name": "StatefulPartitionedCall/vae_img2spctr/xception/add_16/add", "op": "AddV2", "input": ["StatefulPartitionedCall/vae_img2spctr/xception/block10_sepconv3_bn/FusedBatchNormV3", "StatefulPartitionedCall/vae_img2spctr/xception/add_15/add"], "attr": {"T": {"type": "DT_FLOAT"}}}, {"name": "StatefulPartitionedCall/vae_img2spctr/xception/block11_sepconv1_act/Relu", "op": "Relu", "input": ["StatefulPartitionedCall/vae_img2spctr/xception/add_16/add"], "attr": {"T": {"type": "DT_FLOAT"}}}, {"name": "StatefulPartitionedCall/vae_img2spctr/xception/block11_sepconv1/separable_conv2d/depthwise", "op": "DepthwiseConv2dNative", "input": ["StatefulPartitionedCall/vae_img2spctr/xception/block11_sepconv1_act/Relu", "StatefulPartitionedCall/vae_img2spctr/xception/block11_sepconv1/separable_conv2d/ReadVariableOp"], "attr": {"padding": {"s": "U0FNRQ=="}, "strides": {"list": {"i": ["1", "1", "1", "1"]}}, "T": {"type": "DT_FLOAT"}, "dilations": {"list": {"i": ["1", "1", "1", "1"]}}, "explicit_paddings": {"list": {}}, "data_format": {"s": "TkhXQw=="}}}, {"name": "StatefulPartitionedCall/vae_img2spctr/xception/block11_sepconv2_act/Relu", "op": "_FusedConv2D", "input": ["StatefulPartitionedCall/vae_img2spctr/xception/block11_sepconv1/separable_conv2d/depthwise", "StatefulPartitionedCall/vae_img2spctr/xception/block11_sepconv1/separable_conv2d_weights", "StatefulPartitionedCall/vae_img2spctr/xception/block11_sepconv1/separable_conv2d_bn_offset"], "device": "/device:CPU:0", "attr": {"T": {"type": "DT_FLOAT"}, "num_args": {"i": "1"}, "dilations": {"list": {"i": ["1", "1", "1", "1"]}}, "data_format": {"s": "TkhXQw=="}, "explicit_paddings": {"list": {}}, "fused_ops": {"list": {"s": ["Qmlhc0FkZA==", "UmVsdQ=="]}}, "padding": {"s": "VkFMSUQ="}, "use_cudnn_on_gpu": {"b": true}, "epsilon": {"f": 0.0}, "strides": {"list": {"i": ["1", "1", "1", "1"]}}}}, {"name": "StatefulPartitionedCall/vae_img2spctr/xception/block11_sepconv2/separable_conv2d/depthwise", "op": "DepthwiseConv2dNative", "input": ["StatefulPartitionedCall/vae_img2spctr/xception/block11_sepconv2_act/Relu", "StatefulPartitionedCall/vae_img2spctr/xception/block11_sepconv2/separable_conv2d/ReadVariableOp"], "attr": {"strides": {"list": {"i": ["1", "1", "1", "1"]}}, "padding": {"s": "U0FNRQ=="}, "explicit_paddings": {"list": {}}, "T": {"type": "DT_FLOAT"}, "dilations": {"list": {"i": ["1", "1", "1", "1"]}}, "data_format": {"s": "TkhXQw=="}}}, {"name": "StatefulPartitionedCall/vae_img2spctr/xception/block11_sepconv3_act/Relu", "op": "_FusedConv2D", "input": ["StatefulPartitionedCall/vae_img2spctr/xception/block11_sepconv2/separable_conv2d/depthwise", "StatefulPartitionedCall/vae_img2spctr/xception/block11_sepconv2/separable_conv2d_weights", "StatefulPartitionedCall/vae_img2spctr/xception/block11_sepconv2/separable_conv2d_bn_offset"], "device": "/device:CPU:0", "attr": {"T": {"type": "DT_FLOAT"}, "num_args": {"i": "1"}, "dilations": {"list": {"i": ["1", "1", "1", "1"]}}, "data_format": {"s": "TkhXQw=="}, "explicit_paddings": {"list": {}}, "fused_ops": {"list": {"s": ["Qmlhc0FkZA==", "UmVsdQ=="]}}, "padding": {"s": "VkFMSUQ="}, "use_cudnn_on_gpu": {"b": true}, "epsilon": {"f": 0.0}, "strides": {"list": {"i": ["1", "1", "1", "1"]}}}}, {"name": "StatefulPartitionedCall/vae_img2spctr/xception/block11_sepconv3/separable_conv2d/depthwise", "op": "DepthwiseConv2dNative", "input": ["StatefulPartitionedCall/vae_img2spctr/xception/block11_sepconv3_act/Relu", "StatefulPartitionedCall/vae_img2spctr/xception/block11_sepconv3/separable_conv2d/ReadVariableOp"], "attr": {"strides": {"list": {"i": ["1", "1", "1", "1"]}}, "padding": {"s": "U0FNRQ=="}, "explicit_paddings": {"list": {}}, "T": {"type": "DT_FLOAT"}, "dilations": {"list": {"i": ["1", "1", "1", "1"]}}, "data_format": {"s": "TkhXQw=="}}}, {"name": "StatefulPartitionedCall/vae_img2spctr/xception/block11_sepconv3_bn/FusedBatchNormV3", "op": "_FusedConv2D", "input": ["StatefulPartitionedCall/vae_img2spctr/xception/block11_sepconv3/separable_conv2d/depthwise", "StatefulPartitionedCall/vae_img2spctr/xception/block11_sepconv3/separable_conv2d_weights", "StatefulPartitionedCall/vae_img2spctr/xception/block11_sepconv3/separable_conv2d_bn_offset"], "device": "/device:CPU:0", "attr": {"use_cudnn_on_gpu": {"b": true}, "strides": {"list": {"i": ["1", "1", "1", "1"]}}, "epsilon": {"f": 0.0}, "fused_ops": {"list": {"s": ["Qmlhc0FkZA=="]}}, "padding": {"s": "VkFMSUQ="}, "num_args": {"i": "1"}, "explicit_paddings": {"list": {}}, "T": {"type": "DT_FLOAT"}, "dilations": {"list": {"i": ["1", "1", "1", "1"]}}, "data_format": {"s": "TkhXQw=="}}}, {"name": "StatefulPartitionedCall/vae_img2spctr/xception/add_17/add", "op": "AddV2", "input": ["StatefulPartitionedCall/vae_img2spctr/xception/block11_sepconv3_bn/FusedBatchNormV3", "StatefulPartitionedCall/vae_img2spctr/xception/add_16/add"], "attr": {"T": {"type": "DT_FLOAT"}}}, {"name": "StatefulPartitionedCall/vae_img2spctr/xception/block12_sepconv1_act/Relu", "op": "Relu", "input": ["StatefulPartitionedCall/vae_img2spctr/xception/add_17/add"], "attr": {"T": {"type": "DT_FLOAT"}}}, {"name": "StatefulPartitionedCall/vae_img2spctr/xception/block12_sepconv1/separable_conv2d/depthwise", "op": "DepthwiseConv2dNative", "input": ["StatefulPartitionedCall/vae_img2spctr/xception/block12_sepconv1_act/Relu", "StatefulPartitionedCall/vae_img2spctr/xception/block12_sepconv1/separable_conv2d/ReadVariableOp"], "attr": {"T": {"type": "DT_FLOAT"}, "dilations": {"list": {"i": ["1", "1", "1", "1"]}}, "data_format": {"s": "TkhXQw=="}, "explicit_paddings": {"list": {}}, "padding": {"s": "U0FNRQ=="}, "strides": {"list": {"i": ["1", "1", "1", "1"]}}}}, {"name": "StatefulPartitionedCall/vae_img2spctr/xception/block12_sepconv2_act/Relu", "op": "_FusedConv2D", "input": ["StatefulPartitionedCall/vae_img2spctr/xception/block12_sepconv1/separable_conv2d/depthwise", "StatefulPartitionedCall/vae_img2spctr/xception/block12_sepconv1/separable_conv2d_weights", "StatefulPartitionedCall/vae_img2spctr/xception/block12_sepconv1/separable_conv2d_bn_offset"], "device": "/device:CPU:0", "attr": {"T": {"type": "DT_FLOAT"}, "num_args": {"i": "1"}, "dilations": {"list": {"i": ["1", "1", "1", "1"]}}, "data_format": {"s": "TkhXQw=="}, "explicit_paddings": {"list": {}}, "fused_ops": {"list": {"s": ["Qmlhc0FkZA==", "UmVsdQ=="]}}, "padding": {"s": "VkFMSUQ="}, "use_cudnn_on_gpu": {"b": true}, "epsilon": {"f": 0.0}, "strides": {"list": {"i": ["1", "1", "1", "1"]}}}}, {"name": "StatefulPartitionedCall/vae_img2spctr/xception/block12_sepconv2/separable_conv2d/depthwise", "op": "DepthwiseConv2dNative", "input": ["StatefulPartitionedCall/vae_img2spctr/xception/block12_sepconv2_act/Relu", "StatefulPartitionedCall/vae_img2spctr/xception/block12_sepconv2/separable_conv2d/ReadVariableOp"], "attr": {"T": {"type": "DT_FLOAT"}, "dilations": {"list": {"i": ["1", "1", "1", "1"]}}, "data_format": {"s": "TkhXQw=="}, "explicit_paddings": {"list": {}}, "padding": {"s": "U0FNRQ=="}, "strides": {"list": {"i": ["1", "1", "1", "1"]}}}}, {"name": "StatefulPartitionedCall/vae_img2spctr/xception/block12_sepconv3_act/Relu", "op": "_FusedConv2D", "input": ["StatefulPartitionedCall/vae_img2spctr/xception/block12_sepconv2/separable_conv2d/depthwise", "StatefulPartitionedCall/vae_img2spctr/xception/block12_sepconv2/separable_conv2d_weights", "StatefulPartitionedCall/vae_img2spctr/xception/block12_sepconv2/separable_conv2d_bn_offset"], "device": "/device:CPU:0", "attr": {"fused_ops": {"list": {"s": ["Qmlhc0FkZA==", "UmVsdQ=="]}}, "dilations": {"list": {"i": ["1", "1", "1", "1"]}}, "T": {"type": "DT_FLOAT"}, "data_format": {"s": "TkhXQw=="}, "use_cudnn_on_gpu": {"b": true}, "strides": {"list": {"i": ["1", "1", "1", "1"]}}, "padding": {"s": "VkFMSUQ="}, "epsilon": {"f": 0.0}, "num_args": {"i": "1"}, "explicit_paddings": {"list": {}}}}, {"name": "StatefulPartitionedCall/vae_img2spctr/xception/block12_sepconv3/separable_conv2d/depthwise", "op": "DepthwiseConv2dNative", "input": ["StatefulPartitionedCall/vae_img2spctr/xception/block12_sepconv3_act/Relu", "StatefulPartitionedCall/vae_img2spctr/xception/block12_sepconv3/separable_conv2d/ReadVariableOp"], "attr": {"strides": {"list": {"i": ["1", "1", "1", "1"]}}, "padding": {"s": "U0FNRQ=="}, "explicit_paddings": {"list": {}}, "T": {"type": "DT_FLOAT"}, "dilations": {"list": {"i": ["1", "1", "1", "1"]}}, "data_format": {"s": "TkhXQw=="}}}, {"name": "StatefulPartitionedCall/vae_img2spctr/xception/block12_sepconv3_bn/FusedBatchNormV3", "op": "_FusedConv2D", "input": ["StatefulPartitionedCall/vae_img2spctr/xception/block12_sepconv3/separable_conv2d/depthwise", "StatefulPartitionedCall/vae_img2spctr/xception/block12_sepconv3/separable_conv2d_weights", "StatefulPartitionedCall/vae_img2spctr/xception/block12_sepconv3/separable_conv2d_bn_offset"], "device": "/device:CPU:0", "attr": {"use_cudnn_on_gpu": {"b": true}, "strides": {"list": {"i": ["1", "1", "1", "1"]}}, "epsilon": {"f": 0.0}, "fused_ops": {"list": {"s": ["Qmlhc0FkZA=="]}}, "padding": {"s": "VkFMSUQ="}, "num_args": {"i": "1"}, "explicit_paddings": {"list": {}}, "T": {"type": "DT_FLOAT"}, "dilations": {"list": {"i": ["1", "1", "1", "1"]}}, "data_format": {"s": "TkhXQw=="}}}, {"name": "StatefulPartitionedCall/vae_img2spctr/xception/add_18/add", "op": "AddV2", "input": ["StatefulPartitionedCall/vae_img2spctr/xception/block12_sepconv3_bn/FusedBatchNormV3", "StatefulPartitionedCall/vae_img2spctr/xception/add_17/add"], "attr": {"T": {"type": "DT_FLOAT"}}}, {"name": "StatefulPartitionedCall/vae_img2spctr/xception/block13_sepconv1_act/Relu", "op": "Relu", "input": ["StatefulPartitionedCall/vae_img2spctr/xception/add_18/add"], "attr": {"T": {"type": "DT_FLOAT"}}}, {"name": "StatefulPartitionedCall/vae_img2spctr/xception/batch_normalization_9/FusedBatchNormV3", "op": "_FusedConv2D", "input": ["StatefulPartitionedCall/vae_img2spctr/xception/add_18/add", "StatefulPartitionedCall/vae_img2spctr/xception/conv2d_3/Conv2D_weights", "StatefulPartitionedCall/vae_img2spctr/xception/conv2d_3/Conv2D_bn_offset"], "device": "/device:CPU:0", "attr": {"T": {"type": "DT_FLOAT"}, "epsilon": {"f": 0.0}, "num_args": {"i": "1"}, "explicit_paddings": {"list": {}}, "dilations": {"list": {"i": ["1", "1", "1", "1"]}}, "data_format": {"s": "TkhXQw=="}, "padding": {"s": "U0FNRQ=="}, "use_cudnn_on_gpu": {"b": true}, "fused_ops": {"list": {"s": ["Qmlhc0FkZA=="]}}, "strides": {"list": {"i": ["1", "2", "2", "1"]}}}}, {"name": "StatefulPartitionedCall/vae_img2spctr/xception/block13_sepconv1/separable_conv2d/depthwise", "op": "DepthwiseConv2dNative", "input": ["StatefulPartitionedCall/vae_img2spctr/xception/block13_sepconv1_act/Relu", "StatefulPartitionedCall/vae_img2spctr/xception/block13_sepconv1/separable_conv2d/ReadVariableOp"], "attr": {"dilations": {"list": {"i": ["1", "1", "1", "1"]}}, "T": {"type": "DT_FLOAT"}, "data_format": {"s": "TkhXQw=="}, "strides": {"list": {"i": ["1", "1", "1", "1"]}}, "padding": {"s": "U0FNRQ=="}, "explicit_paddings": {"list": {}}}}, {"name": "StatefulPartitionedCall/vae_img2spctr/xception/block13_sepconv2_act/Relu", "op": "_FusedConv2D", "input": ["StatefulPartitionedCall/vae_img2spctr/xception/block13_sepconv1/separable_conv2d/depthwise", "StatefulPartitionedCall/vae_img2spctr/xception/block13_sepconv1/separable_conv2d_weights", "StatefulPartitionedCall/vae_img2spctr/xception/block13_sepconv1/separable_conv2d_bn_offset"], "device": "/device:CPU:0", "attr": {"fused_ops": {"list": {"s": ["Qmlhc0FkZA==", "UmVsdQ=="]}}, "dilations": {"list": {"i": ["1", "1", "1", "1"]}}, "T": {"type": "DT_FLOAT"}, "data_format": {"s": "TkhXQw=="}, "use_cudnn_on_gpu": {"b": true}, "strides": {"list": {"i": ["1", "1", "1", "1"]}}, "padding": {"s": "VkFMSUQ="}, "epsilon": {"f": 0.0}, "num_args": {"i": "1"}, "explicit_paddings": {"list": {}}}}, {"name": "StatefulPartitionedCall/vae_img2spctr/xception/block13_sepconv2/separable_conv2d/depthwise", "op": "DepthwiseConv2dNative", "input": ["StatefulPartitionedCall/vae_img2spctr/xception/block13_sepconv2_act/Relu", "StatefulPartitionedCall/vae_img2spctr/xception/block13_sepconv2/separable_conv2d/ReadVariableOp"], "attr": {"dilations": {"list": {"i": ["1", "1", "1", "1"]}}, "T": {"type": "DT_FLOAT"}, "data_format": {"s": "TkhXQw=="}, "strides": {"list": {"i": ["1", "1", "1", "1"]}}, "padding": {"s": "U0FNRQ=="}, "explicit_paddings": {"list": {}}}}, {"name": "StatefulPartitionedCall/vae_img2spctr/xception/block13_sepconv2_bn/FusedBatchNormV3", "op": "_FusedConv2D", "input": ["StatefulPartitionedCall/vae_img2spctr/xception/block13_sepconv2/separable_conv2d/depthwise", "StatefulPartitionedCall/vae_img2spctr/xception/block13_sepconv2/separable_conv2d_weights", "StatefulPartitionedCall/vae_img2spctr/xception/block13_sepconv2/separable_conv2d_bn_offset"], "device": "/device:CPU:0", "attr": {"use_cudnn_on_gpu": {"b": true}, "strides": {"list": {"i": ["1", "1", "1", "1"]}}, "epsilon": {"f": 0.0}, "fused_ops": {"list": {"s": ["Qmlhc0FkZA=="]}}, "padding": {"s": "VkFMSUQ="}, "num_args": {"i": "1"}, "explicit_paddings": {"list": {}}, "T": {"type": "DT_FLOAT"}, "dilations": {"list": {"i": ["1", "1", "1", "1"]}}, "data_format": {"s": "TkhXQw=="}}}, {"name": "StatefulPartitionedCall/vae_img2spctr/xception/block13_pool/MaxPool", "op": "MaxPool", "input": ["StatefulPartitionedCall/vae_img2spctr/xception/block13_sepconv2_bn/FusedBatchNormV3"], "attr": {"strides": {"list": {"i": ["1", "2", "2", "1"]}}, "ksize": {"list": {"i": ["1", "3", "3", "1"]}}, "padding": {"s": "U0FNRQ=="}, "explicit_paddings": {"list": {}}, "T": {"type": "DT_FLOAT"}, "data_format": {"s": "TkhXQw=="}}}, {"name": "StatefulPartitionedCall/vae_img2spctr/xception/add_19/add", "op": "AddV2", "input": ["StatefulPartitionedCall/vae_img2spctr/xception/block13_pool/MaxPool", "StatefulPartitionedCall/vae_img2spctr/xception/batch_normalization_9/FusedBatchNormV3"], "attr": {"T": {"type": "DT_FLOAT"}}}, {"name": "StatefulPartitionedCall/vae_img2spctr/xception/block14_sepconv1/separable_conv2d/depthwise", "op": "DepthwiseConv2dNative", "input": ["StatefulPartitionedCall/vae_img2spctr/xception/add_19/add", "StatefulPartitionedCall/vae_img2spctr/xception/block14_sepconv1/separable_conv2d/ReadVariableOp"], "attr": {"T": {"type": "DT_FLOAT"}, "explicit_paddings": {"list": {}}, "dilations": {"list": {"i": ["1", "1", "1", "1"]}}, "data_format": {"s": "TkhXQw=="}, "padding": {"s": "U0FNRQ=="}, "strides": {"list": {"i": ["1", "1", "1", "1"]}}}}, {"name": "StatefulPartitionedCall/vae_img2spctr/xception/block14_sepconv1_act/Relu", "op": "_FusedConv2D", "input": ["StatefulPartitionedCall/vae_img2spctr/xception/block14_sepconv1/separable_conv2d/depthwise", "StatefulPartitionedCall/vae_img2spctr/xception/block14_sepconv1/separable_conv2d_weights", "StatefulPartitionedCall/vae_img2spctr/xception/block14_sepconv1/separable_conv2d_bn_offset"], "device": "/device:CPU:0", "attr": {"T": {"type": "DT_FLOAT"}, "num_args": {"i": "1"}, "dilations": {"list": {"i": ["1", "1", "1", "1"]}}, "data_format": {"s": "TkhXQw=="}, "explicit_paddings": {"list": {}}, "fused_ops": {"list": {"s": ["Qmlhc0FkZA==", "UmVsdQ=="]}}, "padding": {"s": "VkFMSUQ="}, "use_cudnn_on_gpu": {"b": true}, "epsilon": {"f": 0.0}, "strides": {"list": {"i": ["1", "1", "1", "1"]}}}}, {"name": "StatefulPartitionedCall/vae_img2spctr/xception/block14_sepconv2/separable_conv2d/depthwise", "op": "DepthwiseConv2dNative", "input": ["StatefulPartitionedCall/vae_img2spctr/xception/block14_sepconv1_act/Relu", "StatefulPartitionedCall/vae_img2spctr/xception/block14_sepconv2/separable_conv2d/ReadVariableOp"], "attr": {"padding": {"s": "U0FNRQ=="}, "strides": {"list": {"i": ["1", "1", "1", "1"]}}, "T": {"type": "DT_FLOAT"}, "dilations": {"list": {"i": ["1", "1", "1", "1"]}}, "explicit_paddings": {"list": {}}, "data_format": {"s": "TkhXQw=="}}}, {"name": "StatefulPartitionedCall/vae_img2spctr/xception/block14_sepconv2_act/Relu", "op": "_FusedConv2D", "input": ["StatefulPartitionedCall/vae_img2spctr/xception/block14_sepconv2/separable_conv2d/depthwise", "StatefulPartitionedCall/vae_img2spctr/xception/block14_sepconv2/separable_conv2d_weights", "StatefulPartitionedCall/vae_img2spctr/xception/block14_sepconv2/separable_conv2d_bn_offset"], "device": "/device:CPU:0", "attr": {"T": {"type": "DT_FLOAT"}, "epsilon": {"f": 0.0}, "num_args": {"i": "1"}, "explicit_paddings": {"list": {}}, "dilations": {"list": {"i": ["1", "1", "1", "1"]}}, "data_format": {"s": "TkhXQw=="}, "padding": {"s": "VkFMSUQ="}, "use_cudnn_on_gpu": {"b": true}, "fused_ops": {"list": {"s": ["Qmlhc0FkZA==", "UmVsdQ=="]}}, "strides": {"list": {"i": ["1", "1", "1", "1"]}}}}, {"name": "StatefulPartitionedCall/vae_img2spctr/global_average_pooling2d/Mean", "op": "Mean", "input": ["StatefulPartitionedCall/vae_img2spctr/xception/block14_sepconv2_act/Relu", "StatefulPartitionedCall/vae_img2spctr/global_average_pooling2d/Mean/reduction_indices"], "attr": {"T": {"type": "DT_FLOAT"}, "Tidx": {"type": "DT_INT32"}, "keep_dims": {"b": false}}}, {"name": "StatefulPartitionedCall/vae_img2spctr/mu/BiasAdd", "op": "_FusedMatMul", "input": ["StatefulPartitionedCall/vae_img2spctr/global_average_pooling2d/Mean", "StatefulPartitionedCall/vae_img2spctr/mu/MatMul/ReadVariableOp", "StatefulPartitionedCall/vae_img2spctr/mu/BiasAdd/ReadVariableOp"], "device": "/device:CPU:0", "attr": {"T": {"type": "DT_FLOAT"}, "num_args": {"i": "1"}, "fused_ops": {"list": {"s": ["Qmlhc0FkZA=="]}}, "transpose_b": {"b": false}, "transpose_a": {"b": false}, "epsilon": {"f": 0.0}}}, {"name": "StatefulPartitionedCall/vae_img2spctr/log_var/BiasAdd", "op": "_FusedMatMul", "input": ["StatefulPartitionedCall/vae_img2spctr/global_average_pooling2d/Mean", "StatefulPartitionedCall/vae_img2spctr/log_var/MatMul/ReadVariableOp", "StatefulPartitionedCall/vae_img2spctr/log_var/BiasAdd/ReadVariableOp"], "device": "/device:CPU:0", "attr": {"fused_ops": {"list": {"s": ["Qmlhc0FkZA=="]}}, "transpose_b": {"b": false}, "T": {"type": "DT_FLOAT"}, "transpose_a": {"b": false}, "epsilon": {"f": 0.0}, "num_args": {"i": "1"}}}, {"name": "StatefulPartitionedCall/vae_img2spctr/sampling_tf_lite/mul", "op": "Mul", "input": ["StatefulPartitionedCall/vae_img2spctr/sampling_tf_lite/mul/x", "StatefulPartitionedCall/vae_img2spctr/log_var/BiasAdd"], "attr": {"T": {"type": "DT_FLOAT"}}}, {"name": "StatefulPartitionedCall/vae_img2spctr/sampling_tf_lite/Exp", "op": "Exp", "input": ["StatefulPartitionedCall/vae_img2spctr/sampling_tf_lite/mul"], "attr": {"T": {"type": "DT_FLOAT"}}}, {"name": "StatefulPartitionedCall/vae_img2spctr/sampling_tf_lite/mul_1", "op": "Mul", "input": ["StatefulPartitionedCall/vae_img2spctr/sampling_tf_lite/Exp", "StatefulPartitionedCall/vae_img2spctr/sampling_tf_lite/random_normal/RandomStandardNormal"], "attr": {"T": {"type": "DT_FLOAT"}}}, {"name": "StatefulPartitionedCall/vae_img2spctr/sampling_tf_lite/add", "op": "AddV2", "input": ["StatefulPartitionedCall/vae_img2spctr/mu/BiasAdd", "StatefulPartitionedCall/vae_img2spctr/sampling_tf_lite/mul_1"], "attr": {"T": {"type": "DT_FLOAT"}}}, {"name": "StatefulPartitionedCall/vae_img2spctr/spec_decoder/dense/BiasAdd", "op": "_FusedMatMul", "input": ["StatefulPartitionedCall/vae_img2spctr/sampling_tf_lite/add", "StatefulPartitionedCall/vae_img2spctr/spec_decoder/dense/MatMul/ReadVariableOp", "StatefulPartitionedCall/vae_img2spctr/spec_decoder/dense/BiasAdd/ReadVariableOp"], "device": "/device:CPU:0", "attr": {"fused_ops": {"list": {"s": ["Qmlhc0FkZA=="]}}, "T": {"type": "DT_FLOAT"}, "transpose_a": {"b": false}, "transpose_b": {"b": false}, "num_args": {"i": "1"}, "epsilon": {"f": 0.0}}}, {"name": "StatefulPartitionedCall/vae_img2spctr/spec_decoder/reshape_tf_lite/Reshape", "op": "Reshape", "input": ["StatefulPartitionedCall/vae_img2spctr/spec_decoder/dense/BiasAdd", "StatefulPartitionedCall/vae_img2spctr/spec_decoder/reshape_tf_lite/Reshape/shape"], "attr": {"T": {"type": "DT_FLOAT"}, "Tshape": {"type": "DT_INT32"}}}, {"name": "StatefulPartitionedCall/vae_img2spctr/spec_decoder/conv1d_transpose_2/conv1d_transpose/ExpandDims", "op": "ExpandDims", "input": ["StatefulPartitionedCall/vae_img2spctr/spec_decoder/reshape_tf_lite/Reshape", "StatefulPartitionedCall/vae_img2spctr/spec_decoder/conv1d_transpose_2/conv1d_transpose/ExpandDims/dim"], "attr": {"T": {"type": "DT_FLOAT"}, "Tdim": {"type": "DT_INT32"}}}, {"name": "StatefulPartitionedCall/vae_img2spctr/spec_decoder/re_lu_10/Relu", "op": "Relu", "input": ["StatefulPartitionedCall/vae_img2spctr/spec_decoder/reshape_tf_lite/Reshape"], "attr": {"T": {"type": "DT_FLOAT"}}}, {"name": "StatefulPartitionedCall/vae_img2spctr/spec_decoder/conv1d_transpose_2/conv1d_transpose", "op": "Conv2DBackpropInput", "input": ["StatefulPartitionedCall/vae_img2spctr/spec_decoder/conv1d_transpose_2/conv1d_transpose/concat", "StatefulPartitionedCall/vae_img2spctr/spec_decoder/conv1d_transpose_2/conv1d_transpose/ExpandDims_1", "StatefulPartitionedCall/vae_img2spctr/spec_decoder/conv1d_transpose_2/conv1d_transpose/ExpandDims"], "attr": {"T": {"type": "DT_FLOAT"}, "explicit_paddings": {"list": {}}, "dilations": {"list": {"i": ["1", "1", "1", "1"]}}, "data_format": {"s": "TkhXQw=="}, "padding": {"s": "U0FNRQ=="}, "use_cudnn_on_gpu": {"b": true}, "strides": {"list": {"i": ["1", "1", "2", "1"]}}}}, {"name": "StatefulPartitionedCall/vae_img2spctr/spec_decoder/conv1d_transpose/conv1d_transpose/ExpandDims", "op": "ExpandDims", "input": ["StatefulPartitionedCall/vae_img2spctr/spec_decoder/re_lu_10/Relu", "StatefulPartitionedCall/vae_img2spctr/spec_decoder/conv1d_transpose/conv1d_transpose/ExpandDims/dim"], "attr": {"T": {"type": "DT_FLOAT"}, "Tdim": {"type": "DT_INT32"}}}, {"name": "StatefulPartitionedCall/vae_img2spctr/spec_decoder/conv1d_transpose_2/conv1d_transpose/Squeeze", "op": "Squeeze", "input": ["StatefulPartitionedCall/vae_img2spctr/spec_decoder/conv1d_transpose_2/conv1d_transpose"], "attr": {"T": {"type": "DT_FLOAT"}, "squeeze_dims": {"list": {"i": ["1"]}}}}, {"name": "StatefulPartitionedCall/vae_img2spctr/spec_decoder/conv1d_transpose/conv1d_transpose", "op": "Conv2DBackpropInput", "input": ["StatefulPartitionedCall/vae_img2spctr/spec_decoder/conv1d_transpose/conv1d_transpose/concat", "StatefulPartitionedCall/vae_img2spctr/spec_decoder/conv1d_transpose/conv1d_transpose/ExpandDims_1", "StatefulPartitionedCall/vae_img2spctr/spec_decoder/conv1d_transpose/conv1d_transpose/ExpandDims"], "attr": {"dilations": {"list": {"i": ["1", "1", "1", "1"]}}, "T": {"type": "DT_FLOAT"}, "data_format": {"s": "TkhXQw=="}, "use_cudnn_on_gpu": {"b": true}, "strides": {"list": {"i": ["1", "1", "2", "1"]}}, "padding": {"s": "U0FNRQ=="}, "explicit_paddings": {"list": {}}}}, {"name": "StatefulPartitionedCall/vae_img2spctr/spec_decoder/conv1d_transpose_2/BiasAdd", "op": "BiasAdd", "input": ["StatefulPartitionedCall/vae_img2spctr/spec_decoder/conv1d_transpose_2/conv1d_transpose/Squeeze", "StatefulPartitionedCall/vae_img2spctr/spec_decoder/conv1d_transpose_2/BiasAdd/ReadVariableOp"], "attr": {"T": {"type": "DT_FLOAT"}, "data_format": {"s": "TkhXQw=="}}}, {"name": "StatefulPartitionedCall/vae_img2spctr/spec_decoder/conv1d_transpose/conv1d_transpose/Squeeze", "op": "Squeeze", "input": ["StatefulPartitionedCall/vae_img2spctr/spec_decoder/conv1d_transpose/conv1d_transpose"], "attr": {"T": {"type": "DT_FLOAT"}, "squeeze_dims": {"list": {"i": ["1"]}}}}, {"name": "StatefulPartitionedCall/vae_img2spctr/spec_decoder/conv1d_transpose/BiasAdd", "op": "BiasAdd", "input": ["StatefulPartitionedCall/vae_img2spctr/spec_decoder/conv1d_transpose/conv1d_transpose/Squeeze", "StatefulPartitionedCall/vae_img2spctr/spec_decoder/conv1d_transpose/BiasAdd/ReadVariableOp"], "attr": {"T": {"type": "DT_FLOAT"}, "data_format": {"s": "TkhXQw=="}}}, {"name": "StatefulPartitionedCall/vae_img2spctr/spec_decoder/batch_normalization/batchnorm/mul_1", "op": "Mul", "input": ["StatefulPartitionedCall/vae_img2spctr/spec_decoder/conv1d_transpose/BiasAdd", "StatefulPartitionedCall/vae_img2spctr/spec_decoder/batch_normalization/batchnorm/mul"], "attr": {"T": {"type": "DT_FLOAT"}}}, {"name": "StatefulPartitionedCall/vae_img2spctr/spec_decoder/batch_normalization/batchnorm/add_1", "op": "AddV2", "input": ["StatefulPartitionedCall/vae_img2spctr/spec_decoder/batch_normalization/batchnorm/mul_1", "StatefulPartitionedCall/vae_img2spctr/spec_decoder/batch_normalization/batchnorm/sub"], "attr": {"T": {"type": "DT_FLOAT"}}}, {"name": "StatefulPartitionedCall/vae_img2spctr/spec_decoder/leaky_re_lu_11/LeakyRelu", "op": "LeakyRelu", "input": ["StatefulPartitionedCall/vae_img2spctr/spec_decoder/batch_normalization/batchnorm/add_1"], "attr": {"T": {"type": "DT_FLOAT"}, "alpha": {"f": 0.4}}}, {"name": "StatefulPartitionedCall/vae_img2spctr/spec_decoder/conv1d_transpose_1/conv1d_transpose/ExpandDims", "op": "ExpandDims", "input": ["StatefulPartitionedCall/vae_img2spctr/spec_decoder/leaky_re_lu_11/LeakyRelu", "StatefulPartitionedCall/vae_img2spctr/spec_decoder/conv1d_transpose_1/conv1d_transpose/ExpandDims/dim"], "attr": {"T": {"type": "DT_FLOAT"}, "Tdim": {"type": "DT_INT32"}}}, {"name": "StatefulPartitionedCall/vae_img2spctr/spec_decoder/conv1d_transpose_1/conv1d_transpose", "op": "Conv2DBackpropInput", "input": ["StatefulPartitionedCall/vae_img2spctr/spec_decoder/conv1d_transpose_1/conv1d_transpose/concat", "StatefulPartitionedCall/vae_img2spctr/spec_decoder/conv1d_transpose_1/conv1d_transpose/ExpandDims_1", "StatefulPartitionedCall/vae_img2spctr/spec_decoder/conv1d_transpose_1/conv1d_transpose/ExpandDims"], "attr": {"dilations": {"list": {"i": ["1", "1", "1", "1"]}}, "T": {"type": "DT_FLOAT"}, "data_format": {"s": "TkhXQw=="}, "use_cudnn_on_gpu": {"b": true}, "strides": {"list": {"i": ["1", "1", "1", "1"]}}, "padding": {"s": "U0FNRQ=="}, "explicit_paddings": {"list": {}}}}, {"name": "StatefulPartitionedCall/vae_img2spctr/spec_decoder/conv1d_transpose_1/conv1d_transpose/Squeeze", "op": "Squeeze", "input": ["StatefulPartitionedCall/vae_img2spctr/spec_decoder/conv1d_transpose_1/conv1d_transpose"], "attr": {"T": {"type": "DT_FLOAT"}, "squeeze_dims": {"list": {"i": ["1"]}}}}, {"name": "StatefulPartitionedCall/vae_img2spctr/spec_decoder/conv1d_transpose_1/BiasAdd", "op": "BiasAdd", "input": ["StatefulPartitionedCall/vae_img2spctr/spec_decoder/conv1d_transpose_1/conv1d_transpose/Squeeze", "StatefulPartitionedCall/vae_img2spctr/spec_decoder/conv1d_transpose_1/BiasAdd/ReadVariableOp"], "attr": {"T": {"type": "DT_FLOAT"}, "data_format": {"s": "TkhXQw=="}}}, {"name": "StatefulPartitionedCall/vae_img2spctr/spec_decoder/batch_normalization_1/batchnorm/mul_1", "op": "Mul", "input": ["StatefulPartitionedCall/vae_img2spctr/spec_decoder/conv1d_transpose_1/BiasAdd", "StatefulPartitionedCall/vae_img2spctr/spec_decoder/batch_normalization_1/batchnorm/mul"], "attr": {"T": {"type": "DT_FLOAT"}}}, {"name": "StatefulPartitionedCall/vae_img2spctr/spec_decoder/batch_normalization_1/batchnorm/add_1", "op": "AddV2", "input": ["StatefulPartitionedCall/vae_img2spctr/spec_decoder/batch_normalization_1/batchnorm/mul_1", "StatefulPartitionedCall/vae_img2spctr/spec_decoder/batch_normalization_1/batchnorm/sub"], "attr": {"T": {"type": "DT_FLOAT"}}}, {"name": "StatefulPartitionedCall/vae_img2spctr/spec_decoder/leaky_re_lu_12/LeakyRelu", "op": "LeakyRelu", "input": ["StatefulPartitionedCall/vae_img2spctr/spec_decoder/batch_normalization_1/batchnorm/add_1"], "attr": {"alpha": {"f": 0.4}, "T": {"type": "DT_FLOAT"}}}, {"name": "StatefulPartitionedCall/vae_img2spctr/spec_decoder/add_5/add", "op": "AddV2", "input": ["StatefulPartitionedCall/vae_img2spctr/spec_decoder/leaky_re_lu_12/LeakyRelu", "StatefulPartitionedCall/vae_img2spctr/spec_decoder/conv1d_transpose_2/BiasAdd"], "attr": {"T": {"type": "DT_FLOAT"}}}, {"name": "StatefulPartitionedCall/vae_img2spctr/spec_decoder/re_lu_11/Relu", "op": "Relu", "input": ["StatefulPartitionedCall/vae_img2spctr/spec_decoder/add_5/add"], "attr": {"T": {"type": "DT_FLOAT"}}}, {"name": "StatefulPartitionedCall/vae_img2spctr/spec_decoder/re_lu_12/Relu", "op": "Relu", "input": ["StatefulPartitionedCall/vae_img2spctr/spec_decoder/re_lu_11/Relu"], "attr": {"T": {"type": "DT_FLOAT"}}}, {"name": "StatefulPartitionedCall/vae_img2spctr/spec_decoder/conv1d_transpose_5/conv1d_transpose/ExpandDims", "op": "ExpandDims", "input": ["StatefulPartitionedCall/vae_img2spctr/spec_decoder/re_lu_11/Relu", "StatefulPartitionedCall/vae_img2spctr/spec_decoder/conv1d_transpose_5/conv1d_transpose/ExpandDims/dim"], "attr": {"T": {"type": "DT_FLOAT"}, "Tdim": {"type": "DT_INT32"}}}, {"name": "StatefulPartitionedCall/vae_img2spctr/spec_decoder/conv1d_transpose_3/conv1d_transpose/ExpandDims", "op": "ExpandDims", "input": ["StatefulPartitionedCall/vae_img2spctr/spec_decoder/re_lu_12/Relu", "StatefulPartitionedCall/vae_img2spctr/spec_decoder/conv1d_transpose_3/conv1d_transpose/ExpandDims/dim"], "attr": {"T": {"type": "DT_FLOAT"}, "Tdim": {"type": "DT_INT32"}}}, {"name": "StatefulPartitionedCall/vae_img2spctr/spec_decoder/conv1d_transpose_5/conv1d_transpose", "op": "Conv2DBackpropInput", "input": ["StatefulPartitionedCall/vae_img2spctr/spec_decoder/conv1d_transpose_5/conv1d_transpose/concat", "StatefulPartitionedCall/vae_img2spctr/spec_decoder/conv1d_transpose_5/conv1d_transpose/ExpandDims_1", "StatefulPartitionedCall/vae_img2spctr/spec_decoder/conv1d_transpose_5/conv1d_transpose/ExpandDims"], "attr": {"use_cudnn_on_gpu": {"b": true}, "strides": {"list": {"i": ["1", "1", "2", "1"]}}, "padding": {"s": "U0FNRQ=="}, "explicit_paddings": {"list": {}}, "T": {"type": "DT_FLOAT"}, "dilations": {"list": {"i": ["1", "1", "1", "1"]}}, "data_format": {"s": "TkhXQw=="}}}, {"name": "StatefulPartitionedCall/vae_img2spctr/spec_decoder/conv1d_transpose_3/conv1d_transpose", "op": "Conv2DBackpropInput", "input": ["StatefulPartitionedCall/vae_img2spctr/spec_decoder/conv1d_transpose_3/conv1d_transpose/concat", "StatefulPartitionedCall/vae_img2spctr/spec_decoder/conv1d_transpose_3/conv1d_transpose/ExpandDims_1", "StatefulPartitionedCall/vae_img2spctr/spec_decoder/conv1d_transpose_3/conv1d_transpose/ExpandDims"], "attr": {"T": {"type": "DT_FLOAT"}, "explicit_paddings": {"list": {}}, "dilations": {"list": {"i": ["1", "1", "1", "1"]}}, "data_format": {"s": "TkhXQw=="}, "padding": {"s": "U0FNRQ=="}, "use_cudnn_on_gpu": {"b": true}, "strides": {"list": {"i": ["1", "1", "2", "1"]}}}}, {"name": "StatefulPartitionedCall/vae_img2spctr/spec_decoder/conv1d_transpose_5/conv1d_transpose/Squeeze", "op": "Squeeze", "input": ["StatefulPartitionedCall/vae_img2spctr/spec_decoder/conv1d_transpose_5/conv1d_transpose"], "attr": {"T": {"type": "DT_FLOAT"}, "squeeze_dims": {"list": {"i": ["1"]}}}}, {"name": "StatefulPartitionedCall/vae_img2spctr/spec_decoder/conv1d_transpose_3/conv1d_transpose/Squeeze", "op": "Squeeze", "input": ["StatefulPartitionedCall/vae_img2spctr/spec_decoder/conv1d_transpose_3/conv1d_transpose"], "attr": {"T": {"type": "DT_FLOAT"}, "squeeze_dims": {"list": {"i": ["1"]}}}}, {"name": "StatefulPartitionedCall/vae_img2spctr/spec_decoder/conv1d_transpose_5/BiasAdd", "op": "BiasAdd", "input": ["StatefulPartitionedCall/vae_img2spctr/spec_decoder/conv1d_transpose_5/conv1d_transpose/Squeeze", "StatefulPartitionedCall/vae_img2spctr/spec_decoder/conv1d_transpose_5/BiasAdd/ReadVariableOp"], "attr": {"data_format": {"s": "TkhXQw=="}, "T": {"type": "DT_FLOAT"}}}, {"name": "StatefulPartitionedCall/vae_img2spctr/spec_decoder/conv1d_transpose_3/BiasAdd", "op": "BiasAdd", "input": ["StatefulPartitionedCall/vae_img2spctr/spec_decoder/conv1d_transpose_3/conv1d_transpose/Squeeze", "StatefulPartitionedCall/vae_img2spctr/spec_decoder/conv1d_transpose_3/BiasAdd/ReadVariableOp"], "attr": {"T": {"type": "DT_FLOAT"}, "data_format": {"s": "TkhXQw=="}}}, {"name": "StatefulPartitionedCall/vae_img2spctr/spec_decoder/batch_normalization_2/batchnorm/mul_1", "op": "Mul", "input": ["StatefulPartitionedCall/vae_img2spctr/spec_decoder/conv1d_transpose_3/BiasAdd", "StatefulPartitionedCall/vae_img2spctr/spec_decoder/batch_normalization_2/batchnorm/mul"], "attr": {"T": {"type": "DT_FLOAT"}}}, {"name": "StatefulPartitionedCall/vae_img2spctr/spec_decoder/batch_normalization_2/batchnorm/add_1", "op": "AddV2", "input": ["StatefulPartitionedCall/vae_img2spctr/spec_decoder/batch_normalization_2/batchnorm/mul_1", "StatefulPartitionedCall/vae_img2spctr/spec_decoder/batch_normalization_2/batchnorm/sub"], "attr": {"T": {"type": "DT_FLOAT"}}}, {"name": "StatefulPartitionedCall/vae_img2spctr/spec_decoder/leaky_re_lu_13/LeakyRelu", "op": "LeakyRelu", "input": ["StatefulPartitionedCall/vae_img2spctr/spec_decoder/batch_normalization_2/batchnorm/add_1"], "attr": {"alpha": {"f": 0.4}, "T": {"type": "DT_FLOAT"}}}, {"name": "StatefulPartitionedCall/vae_img2spctr/spec_decoder/conv1d_transpose_4/conv1d_transpose/ExpandDims", "op": "ExpandDims", "input": ["StatefulPartitionedCall/vae_img2spctr/spec_decoder/leaky_re_lu_13/LeakyRelu", "StatefulPartitionedCall/vae_img2spctr/spec_decoder/conv1d_transpose_4/conv1d_transpose/ExpandDims/dim"], "attr": {"Tdim": {"type": "DT_INT32"}, "T": {"type": "DT_FLOAT"}}}, {"name": "StatefulPartitionedCall/vae_img2spctr/spec_decoder/conv1d_transpose_4/conv1d_transpose", "op": "Conv2DBackpropInput", "input": ["StatefulPartitionedCall/vae_img2spctr/spec_decoder/conv1d_transpose_4/conv1d_transpose/concat", "StatefulPartitionedCall/vae_img2spctr/spec_decoder/conv1d_transpose_4/conv1d_transpose/ExpandDims_1", "StatefulPartitionedCall/vae_img2spctr/spec_decoder/conv1d_transpose_4/conv1d_transpose/ExpandDims"], "attr": {"padding": {"s": "U0FNRQ=="}, "use_cudnn_on_gpu": {"b": true}, "strides": {"list": {"i": ["1", "1", "1", "1"]}}, "T": {"type": "DT_FLOAT"}, "explicit_paddings": {"list": {}}, "dilations": {"list": {"i": ["1", "1", "1", "1"]}}, "data_format": {"s": "TkhXQw=="}}}, {"name": "StatefulPartitionedCall/vae_img2spctr/spec_decoder/conv1d_transpose_4/conv1d_transpose/Squeeze", "op": "Squeeze", "input": ["StatefulPartitionedCall/vae_img2spctr/spec_decoder/conv1d_transpose_4/conv1d_transpose"], "attr": {"squeeze_dims": {"list": {"i": ["1"]}}, "T": {"type": "DT_FLOAT"}}}, {"name": "StatefulPartitionedCall/vae_img2spctr/spec_decoder/conv1d_transpose_4/BiasAdd", "op": "BiasAdd", "input": ["StatefulPartitionedCall/vae_img2spctr/spec_decoder/conv1d_transpose_4/conv1d_transpose/Squeeze", "StatefulPartitionedCall/vae_img2spctr/spec_decoder/conv1d_transpose_4/BiasAdd/ReadVariableOp"], "attr": {"T": {"type": "DT_FLOAT"}, "data_format": {"s": "TkhXQw=="}}}, {"name": "StatefulPartitionedCall/vae_img2spctr/spec_decoder/batch_normalization_3/batchnorm/mul_1", "op": "Mul", "input": ["StatefulPartitionedCall/vae_img2spctr/spec_decoder/conv1d_transpose_4/BiasAdd", "StatefulPartitionedCall/vae_img2spctr/spec_decoder/batch_normalization_3/batchnorm/mul"], "attr": {"T": {"type": "DT_FLOAT"}}}, {"name": "StatefulPartitionedCall/vae_img2spctr/spec_decoder/batch_normalization_3/batchnorm/add_1", "op": "AddV2", "input": ["StatefulPartitionedCall/vae_img2spctr/spec_decoder/batch_normalization_3/batchnorm/mul_1", "StatefulPartitionedCall/vae_img2spctr/spec_decoder/batch_normalization_3/batchnorm/sub"], "attr": {"T": {"type": "DT_FLOAT"}}}, {"name": "StatefulPartitionedCall/vae_img2spctr/spec_decoder/leaky_re_lu_14/LeakyRelu", "op": "LeakyRelu", "input": ["StatefulPartitionedCall/vae_img2spctr/spec_decoder/batch_normalization_3/batchnorm/add_1"], "attr": {"alpha": {"f": 0.4}, "T": {"type": "DT_FLOAT"}}}, {"name": "StatefulPartitionedCall/vae_img2spctr/spec_decoder/add_6/add", "op": "AddV2", "input": ["StatefulPartitionedCall/vae_img2spctr/spec_decoder/leaky_re_lu_14/LeakyRelu", "StatefulPartitionedCall/vae_img2spctr/spec_decoder/conv1d_transpose_5/BiasAdd"], "attr": {"T": {"type": "DT_FLOAT"}}}, {"name": "StatefulPartitionedCall/vae_img2spctr/spec_decoder/re_lu_13/Relu", "op": "Relu", "input": ["StatefulPartitionedCall/vae_img2spctr/spec_decoder/add_6/add"], "attr": {"T": {"type": "DT_FLOAT"}}}, {"name": "StatefulPartitionedCall/vae_img2spctr/spec_decoder/re_lu_14/Relu", "op": "Relu", "input": ["StatefulPartitionedCall/vae_img2spctr/spec_decoder/re_lu_13/Relu"], "attr": {"T": {"type": "DT_FLOAT"}}}, {"name": "StatefulPartitionedCall/vae_img2spctr/spec_decoder/conv1d_transpose_8/conv1d_transpose/ExpandDims", "op": "ExpandDims", "input": ["StatefulPartitionedCall/vae_img2spctr/spec_decoder/re_lu_13/Relu", "StatefulPartitionedCall/vae_img2spctr/spec_decoder/conv1d_transpose_8/conv1d_transpose/ExpandDims/dim"], "attr": {"T": {"type": "DT_FLOAT"}, "Tdim": {"type": "DT_INT32"}}}, {"name": "StatefulPartitionedCall/vae_img2spctr/spec_decoder/conv1d_transpose_6/conv1d_transpose/ExpandDims", "op": "ExpandDims", "input": ["StatefulPartitionedCall/vae_img2spctr/spec_decoder/re_lu_14/Relu", "StatefulPartitionedCall/vae_img2spctr/spec_decoder/conv1d_transpose_6/conv1d_transpose/ExpandDims/dim"], "attr": {"Tdim": {"type": "DT_INT32"}, "T": {"type": "DT_FLOAT"}}}, {"name": "StatefulPartitionedCall/vae_img2spctr/spec_decoder/conv1d_transpose_8/conv1d_transpose", "op": "Conv2DBackpropInput", "input": ["StatefulPartitionedCall/vae_img2spctr/spec_decoder/conv1d_transpose_8/conv1d_transpose/concat", "StatefulPartitionedCall/vae_img2spctr/spec_decoder/conv1d_transpose_8/conv1d_transpose/ExpandDims_1", "StatefulPartitionedCall/vae_img2spctr/spec_decoder/conv1d_transpose_8/conv1d_transpose/ExpandDims"], "attr": {"dilations": {"list": {"i": ["1", "1", "1", "1"]}}, "data_format": {"s": "TkhXQw=="}, "explicit_paddings": {"list": {}}, "strides": {"list": {"i": ["1", "1", "2", "1"]}}, "padding": {"s": "U0FNRQ=="}, "use_cudnn_on_gpu": {"b": true}, "T": {"type": "DT_FLOAT"}}}, {"name": "StatefulPartitionedCall/vae_img2spctr/spec_decoder/conv1d_transpose_6/conv1d_transpose", "op": "Conv2DBackpropInput", "input": ["StatefulPartitionedCall/vae_img2spctr/spec_decoder/conv1d_transpose_6/conv1d_transpose/concat", "StatefulPartitionedCall/vae_img2spctr/spec_decoder/conv1d_transpose_6/conv1d_transpose/ExpandDims_1", "StatefulPartitionedCall/vae_img2spctr/spec_decoder/conv1d_transpose_6/conv1d_transpose/ExpandDims"], "attr": {"padding": {"s": "U0FNRQ=="}, "use_cudnn_on_gpu": {"b": true}, "strides": {"list": {"i": ["1", "1", "2", "1"]}}, "T": {"type": "DT_FLOAT"}, "explicit_paddings": {"list": {}}, "dilations": {"list": {"i": ["1", "1", "1", "1"]}}, "data_format": {"s": "TkhXQw=="}}}, {"name": "StatefulPartitionedCall/vae_img2spctr/spec_decoder/conv1d_transpose_8/conv1d_transpose/Squeeze", "op": "Squeeze", "input": ["StatefulPartitionedCall/vae_img2spctr/spec_decoder/conv1d_transpose_8/conv1d_transpose"], "attr": {"T": {"type": "DT_FLOAT"}, "squeeze_dims": {"list": {"i": ["1"]}}}}, {"name": "StatefulPartitionedCall/vae_img2spctr/spec_decoder/conv1d_transpose_6/conv1d_transpose/Squeeze", "op": "Squeeze", "input": ["StatefulPartitionedCall/vae_img2spctr/spec_decoder/conv1d_transpose_6/conv1d_transpose"], "attr": {"squeeze_dims": {"list": {"i": ["1"]}}, "T": {"type": "DT_FLOAT"}}}, {"name": "StatefulPartitionedCall/vae_img2spctr/spec_decoder/conv1d_transpose_8/BiasAdd", "op": "BiasAdd", "input": ["StatefulPartitionedCall/vae_img2spctr/spec_decoder/conv1d_transpose_8/conv1d_transpose/Squeeze", "StatefulPartitionedCall/vae_img2spctr/spec_decoder/conv1d_transpose_8/BiasAdd/ReadVariableOp"], "attr": {"data_format": {"s": "TkhXQw=="}, "T": {"type": "DT_FLOAT"}}}, {"name": "StatefulPartitionedCall/vae_img2spctr/spec_decoder/conv1d_transpose_6/BiasAdd", "op": "BiasAdd", "input": ["StatefulPartitionedCall/vae_img2spctr/spec_decoder/conv1d_transpose_6/conv1d_transpose/Squeeze", "StatefulPartitionedCall/vae_img2spctr/spec_decoder/conv1d_transpose_6/BiasAdd/ReadVariableOp"], "attr": {"data_format": {"s": "TkhXQw=="}, "T": {"type": "DT_FLOAT"}}}, {"name": "StatefulPartitionedCall/vae_img2spctr/spec_decoder/batch_normalization_4/batchnorm/mul_1", "op": "Mul", "input": ["StatefulPartitionedCall/vae_img2spctr/spec_decoder/conv1d_transpose_6/BiasAdd", "StatefulPartitionedCall/vae_img2spctr/spec_decoder/batch_normalization_4/batchnorm/mul"], "attr": {"T": {"type": "DT_FLOAT"}}}, {"name": "StatefulPartitionedCall/vae_img2spctr/spec_decoder/batch_normalization_4/batchnorm/add_1", "op": "AddV2", "input": ["StatefulPartitionedCall/vae_img2spctr/spec_decoder/batch_normalization_4/batchnorm/mul_1", "StatefulPartitionedCall/vae_img2spctr/spec_decoder/batch_normalization_4/batchnorm/sub"], "attr": {"T": {"type": "DT_FLOAT"}}}, {"name": "StatefulPartitionedCall/vae_img2spctr/spec_decoder/leaky_re_lu_15/LeakyRelu", "op": "LeakyRelu", "input": ["StatefulPartitionedCall/vae_img2spctr/spec_decoder/batch_normalization_4/batchnorm/add_1"], "attr": {"T": {"type": "DT_FLOAT"}, "alpha": {"f": 0.4}}}, {"name": "StatefulPartitionedCall/vae_img2spctr/spec_decoder/conv1d_transpose_7/conv1d_transpose/ExpandDims", "op": "ExpandDims", "input": ["StatefulPartitionedCall/vae_img2spctr/spec_decoder/leaky_re_lu_15/LeakyRelu", "StatefulPartitionedCall/vae_img2spctr/spec_decoder/conv1d_transpose_7/conv1d_transpose/ExpandDims/dim"], "attr": {"T": {"type": "DT_FLOAT"}, "Tdim": {"type": "DT_INT32"}}}, {"name": "StatefulPartitionedCall/vae_img2spctr/spec_decoder/conv1d_transpose_7/conv1d_transpose", "op": "Conv2DBackpropInput", "input": ["StatefulPartitionedCall/vae_img2spctr/spec_decoder/conv1d_transpose_7/conv1d_transpose/concat", "StatefulPartitionedCall/vae_img2spctr/spec_decoder/conv1d_transpose_7/conv1d_transpose/ExpandDims_1", "StatefulPartitionedCall/vae_img2spctr/spec_decoder/conv1d_transpose_7/conv1d_transpose/ExpandDims"], "attr": {"padding": {"s": "U0FNRQ=="}, "use_cudnn_on_gpu": {"b": true}, "strides": {"list": {"i": ["1", "1", "1", "1"]}}, "T": {"type": "DT_FLOAT"}, "explicit_paddings": {"list": {}}, "dilations": {"list": {"i": ["1", "1", "1", "1"]}}, "data_format": {"s": "TkhXQw=="}}}, {"name": "StatefulPartitionedCall/vae_img2spctr/spec_decoder/conv1d_transpose_7/conv1d_transpose/Squeeze", "op": "Squeeze", "input": ["StatefulPartitionedCall/vae_img2spctr/spec_decoder/conv1d_transpose_7/conv1d_transpose"], "attr": {"squeeze_dims": {"list": {"i": ["1"]}}, "T": {"type": "DT_FLOAT"}}}, {"name": "StatefulPartitionedCall/vae_img2spctr/spec_decoder/conv1d_transpose_7/BiasAdd", "op": "BiasAdd", "input": ["StatefulPartitionedCall/vae_img2spctr/spec_decoder/conv1d_transpose_7/conv1d_transpose/Squeeze", "StatefulPartitionedCall/vae_img2spctr/spec_decoder/conv1d_transpose_7/BiasAdd/ReadVariableOp"], "attr": {"data_format": {"s": "TkhXQw=="}, "T": {"type": "DT_FLOAT"}}}, {"name": "StatefulPartitionedCall/vae_img2spctr/spec_decoder/batch_normalization_5/batchnorm/mul_1", "op": "Mul", "input": ["StatefulPartitionedCall/vae_img2spctr/spec_decoder/conv1d_transpose_7/BiasAdd", "StatefulPartitionedCall/vae_img2spctr/spec_decoder/batch_normalization_5/batchnorm/mul"], "attr": {"T": {"type": "DT_FLOAT"}}}, {"name": "StatefulPartitionedCall/vae_img2spctr/spec_decoder/batch_normalization_5/batchnorm/add_1", "op": "AddV2", "input": ["StatefulPartitionedCall/vae_img2spctr/spec_decoder/batch_normalization_5/batchnorm/mul_1", "StatefulPartitionedCall/vae_img2spctr/spec_decoder/batch_normalization_5/batchnorm/sub"], "attr": {"T": {"type": "DT_FLOAT"}}}, {"name": "StatefulPartitionedCall/vae_img2spctr/spec_decoder/leaky_re_lu_16/LeakyRelu", "op": "LeakyRelu", "input": ["StatefulPartitionedCall/vae_img2spctr/spec_decoder/batch_normalization_5/batchnorm/add_1"], "attr": {"alpha": {"f": 0.4}, "T": {"type": "DT_FLOAT"}}}, {"name": "StatefulPartitionedCall/vae_img2spctr/spec_decoder/add_7/add", "op": "AddV2", "input": ["StatefulPartitionedCall/vae_img2spctr/spec_decoder/leaky_re_lu_16/LeakyRelu", "StatefulPartitionedCall/vae_img2spctr/spec_decoder/conv1d_transpose_8/BiasAdd"], "attr": {"T": {"type": "DT_FLOAT"}}}, {"name": "StatefulPartitionedCall/vae_img2spctr/spec_decoder/re_lu_15/Relu", "op": "Relu", "input": ["StatefulPartitionedCall/vae_img2spctr/spec_decoder/add_7/add"], "attr": {"T": {"type": "DT_FLOAT"}}}, {"name": "StatefulPartitionedCall/vae_img2spctr/spec_decoder/conv1d_transpose_9/conv1d_transpose/ExpandDims", "op": "ExpandDims", "input": ["StatefulPartitionedCall/vae_img2spctr/spec_decoder/re_lu_15/Relu", "StatefulPartitionedCall/vae_img2spctr/spec_decoder/conv1d_transpose_9/conv1d_transpose/ExpandDims/dim"], "attr": {"Tdim": {"type": "DT_INT32"}, "T": {"type": "DT_FLOAT"}}}, {"name": "StatefulPartitionedCall/vae_img2spctr/spec_decoder/conv1d_transpose_9/conv1d_transpose", "op": "Conv2DBackpropInput", "input": ["StatefulPartitionedCall/vae_img2spctr/spec_decoder/conv1d_transpose_9/conv1d_transpose/concat", "StatefulPartitionedCall/vae_img2spctr/spec_decoder/conv1d_transpose_9/conv1d_transpose/ExpandDims_1", "StatefulPartitionedCall/vae_img2spctr/spec_decoder/conv1d_transpose_9/conv1d_transpose/ExpandDims"], "attr": {"padding": {"s": "U0FNRQ=="}, "use_cudnn_on_gpu": {"b": true}, "strides": {"list": {"i": ["1", "1", "2", "1"]}}, "T": {"type": "DT_FLOAT"}, "explicit_paddings": {"list": {}}, "dilations": {"list": {"i": ["1", "1", "1", "1"]}}, "data_format": {"s": "TkhXQw=="}}}, {"name": "StatefulPartitionedCall/vae_img2spctr/spec_decoder/conv1d_transpose_9/conv1d_transpose/Squeeze", "op": "Squeeze", "input": ["StatefulPartitionedCall/vae_img2spctr/spec_decoder/conv1d_transpose_9/conv1d_transpose"], "attr": {"T": {"type": "DT_FLOAT"}, "squeeze_dims": {"list": {"i": ["1"]}}}}, {"name": "StatefulPartitionedCall/vae_img2spctr/spec_decoder/conv1d_transpose_9/BiasAdd", "op": "BiasAdd", "input": ["StatefulPartitionedCall/vae_img2spctr/spec_decoder/conv1d_transpose_9/conv1d_transpose/Squeeze", "StatefulPartitionedCall/vae_img2spctr/spec_decoder/conv1d_transpose_9/BiasAdd/ReadVariableOp"], "attr": {"data_format": {"s": "TkhXQw=="}, "T": {"type": "DT_FLOAT"}}}, {"name": "StatefulPartitionedCall/vae_img2spctr/spec_decoder/my_up_sampling1d/ExpandDims", "op": "ExpandDims", "input": ["StatefulPartitionedCall/vae_img2spctr/spec_decoder/conv1d_transpose_9/BiasAdd", "StatefulPartitionedCall/vae_img2spctr/spec_decoder/my_up_sampling1d/ExpandDims/dim"], "attr": {"Tdim": {"type": "DT_INT32"}, "T": {"type": "DT_FLOAT"}}}, {"name": "StatefulPartitionedCall/vae_img2spctr/spec_decoder/my_up_sampling1d/resize/ResizeBilinear", "op": "ResizeBilinear", "input": ["StatefulPartitionedCall/vae_img2spctr/spec_decoder/my_up_sampling1d/ExpandDims", "StatefulPartitionedCall/vae_img2spctr/spec_decoder/my_up_sampling1d/resize/size"], "attr": {"half_pixel_centers": {"b": true}, "align_corners": {"b": false}, "T": {"type": "DT_FLOAT"}}}, {"name": "StatefulPartitionedCall/vae_img2spctr/spec_decoder/my_up_sampling1d/Squeeze", "op": "Squeeze", "input": ["StatefulPartitionedCall/vae_img2spctr/spec_decoder/my_up_sampling1d/resize/ResizeBilinear"], "attr": {"T": {"type": "DT_FLOAT"}, "squeeze_dims": {"list": {"i": ["1"]}}}}, {"name": "StatefulPartitionedCall/vae_img2spctr/spec_decoder/spec_mask/SelectV2", "op": "SelectV2", "input": ["unknown_283", "StatefulPartitionedCall/vae_img2spctr/spec_decoder/spec_mask/SelectV2/t", "StatefulPartitionedCall/vae_img2spctr/spec_decoder/my_up_sampling1d/Squeeze"], "attr": {"T": {"type": "DT_FLOAT"}}}, {"name": "Identity", "op": "Identity", "input": ["StatefulPartitionedCall/vae_img2spctr/spec_decoder/spec_mask/SelectV2"], "attr": {"T": {"type": "DT_FLOAT"}}}], "library": {}, "versions": {"producer": 808}}, "weightsManifest": [{"paths": ["group1-shard1of1.bin"], "weights": [{"name": "unknown_283", "shape": [512, 1], "dtype": "bool"}, {"name": "StatefulPartitionedCall/vae_img2spctr/spec_decoder/spec_mask/SelectV2/t", "shape": [], "dtype": "float32", "quantization": {"dtype": "uint8", "min": 0.0, "scale": 1.0, "original_dtype": "float32"}}, {"name": "StatefulPartitionedCall/vae_img2spctr/spec_decoder/conv1d_transpose_9/conv1d_transpose/concat", "shape": [4], "dtype": "int32"}, {"name": "StatefulPartitionedCall/vae_img2spctr/spec_decoder/conv1d_transpose_9/conv1d_transpose/ExpandDims_1", "shape": [1, 3, 1, 32], "dtype": "float32", "quantization": {"dtype": "uint8", "min": -0.272105793391957, "scale": 0.0018020251218010398, "original_dtype": "float32"}}, {"name": "StatefulPartitionedCall/vae_img2spctr/spec_decoder/conv1d_transpose_7/conv1d_transpose/concat", "shape": [4], "dtype": "int32"}, {"name": "StatefulPartitionedCall/vae_img2spctr/spec_decoder/conv1d_transpose_7/conv1d_transpose/ExpandDims_1", "shape": [1, 3, 32, 32], "dtype": "float32", "quantization": {"dtype": "uint8", "min": -0.2993818717844346, "scale": 0.0023760466014637665, "original_dtype": "float32"}}, {"name": "StatefulPartitionedCall/vae_img2spctr/spec_decoder/conv1d_transpose_6/conv1d_transpose/concat", "shape": [4], "dtype": "int32"}, {"name": "StatefulPartitionedCall/vae_img2spctr/spec_decoder/conv1d_transpose_6/conv1d_transpose/ExpandDims_1", "shape": [1, 3, 32, 64], "dtype": "float32", "quantization": {"dtype": "uint8", "min": -0.2565615492708543, "scale": 0.002036202771990907, "original_dtype": "float32"}}, {"name": "StatefulPartitionedCall/vae_img2spctr/spec_decoder/conv1d_transpose_6/conv1d_transpose/ExpandDims/dim", "shape": [], "dtype": "int32"}, {"name": "StatefulPartitionedCall/vae_img2spctr/spec_decoder/conv1d_transpose_6/BiasAdd/ReadVariableOp", "shape": [32], "dtype": "float32", "quantization": {"dtype": "uint8", "min": -9.293462259366231e-05, "scale": 8.605057647561326e-07, "original_dtype": "float32"}}, {"name": "StatefulPartitionedCall/vae_img2spctr/spec_decoder/batch_normalization_4/batchnorm/mul", "shape": [32], "dtype": "float32", "quantization": {"dtype": "uint8", "min": 0.530127227306366, "scale": 0.0013891079846550436, "original_dtype": "float32"}}, {"name": "StatefulPartitionedCall/vae_img2spctr/spec_decoder/batch_normalization_4/batchnorm/sub", "shape": [32], "dtype": "float32", "quantization": {"dtype": "uint8", "min": -0.8884900100090924, "scale": 0.0072234960163340845, "original_dtype": "float32"}}, {"name": "StatefulPartitionedCall/vae_img2spctr/spec_decoder/conv1d_transpose_7/conv1d_transpose/ExpandDims/dim", "shape": [], "dtype": "int32"}, {"name": "StatefulPartitionedCall/vae_img2spctr/spec_decoder/conv1d_transpose_7/BiasAdd/ReadVariableOp", "shape": [32], "dtype": "float32", "quantization": {"dtype": "uint8", "min": -0.0001481344801255082, "scale": 1.5271595889227648e-06, "original_dtype": "float32"}}, {"name": "StatefulPartitionedCall/vae_img2spctr/spec_decoder/batch_normalization_5/batchnorm/mul", "shape": [32], "dtype": "float32", "quantization": {"dtype": "uint8", "min": 0.45284464955329895, "scale": 0.002342744785196641, "original_dtype": "float32"}}, {"name": "StatefulPartitionedCall/vae_img2spctr/spec_decoder/batch_normalization_5/batchnorm/sub", "shape": [32], "dtype": "float32", "quantization": {"dtype": "uint8", "min": -0.5867597757601271, "scale": 0.0035135315913780063, "original_dtype": "float32"}}, {"name": "StatefulPartitionedCall/vae_img2spctr/spec_decoder/conv1d_transpose_8/conv1d_transpose/concat", "shape": [4], "dtype": "int32"}, {"name": "StatefulPartitionedCall/vae_img2spctr/spec_decoder/conv1d_transpose_8/conv1d_transpose/ExpandDims_1", "shape": [1, 1, 32, 64], "dtype": "float32", "quantization": {"dtype": "uint8", "min": -0.445770138502121, "scale": 0.0029135303170073268, "original_dtype": "float32"}}, {"name": "StatefulPartitionedCall/vae_img2spctr/spec_decoder/conv1d_transpose_4/conv1d_transpose/concat", "shape": [4], "dtype": "int32"}, {"name": "StatefulPartitionedCall/vae_img2spctr/spec_decoder/conv1d_transpose_4/conv1d_transpose/ExpandDims_1", "shape": [1, 3, 64, 64], "dtype": "float32", "quantization": {"dtype": "uint8", "min": -0.2566301162336387, "scale": 0.0022315662281185973, "original_dtype": "float32"}}, {"name": "StatefulPartitionedCall/vae_img2spctr/spec_decoder/conv1d_transpose_3/conv1d_transpose/concat", "shape": [4], "dtype": "int32"}, {"name": "StatefulPartitionedCall/vae_img2spctr/spec_decoder/conv1d_transpose_3/conv1d_transpose/ExpandDims_1", "shape": [1, 3, 64, 128], "dtype": "float32", "quantization": {"dtype": "uint8", "min": -0.2509456639196358, "scale": 0.0020075653113570866, "original_dtype": "float32"}}, {"name": "StatefulPartitionedCall/vae_img2spctr/spec_decoder/conv1d_transpose_3/conv1d_transpose/ExpandDims/dim", "shape": [], "dtype": "int32"}, {"name": "StatefulPartitionedCall/vae_img2spctr/spec_decoder/conv1d_transpose_3/BiasAdd/ReadVariableOp", "shape": [64], "dtype": "float32", "quantization": {"dtype": "uint8", "min": -2.1553593871752073e-05, "scale": 1.84218751040616e-07, "original_dtype": "float32"}}, {"name": "StatefulPartitionedCall/vae_img2spctr/spec_decoder/batch_normalization_2/batchnorm/mul", "shape": [64], "dtype": "float32", "quantization": {"dtype": "uint8", "min": 0.18704847991466522, "scale": 0.0013669145457884844, "original_dtype": "float32"}}, {"name": "StatefulPartitionedCall/vae_img2spctr/spec_decoder/batch_normalization_2/batchnorm/sub", "shape": [64], "dtype": "float32", "quantization": {"dtype": "uint8", "min": -1.78280974743413, "scale": 0.01392820115182914, "original_dtype": "float32"}}, {"name": "StatefulPartitionedCall/vae_img2spctr/spec_decoder/conv1d_transpose_4/conv1d_transpose/ExpandDims/dim", "shape": [], "dtype": "int32"}, {"name": "StatefulPartitionedCall/vae_img2spctr/spec_decoder/conv1d_transpose_4/BiasAdd/ReadVariableOp", "shape": [64], "dtype": "float32", "quantization": {"dtype": "uint8", "min": -9.502823243155053e-05, "scale": 7.25406354439317e-07, "original_dtype": "float32"}}, {"name": "StatefulPartitionedCall/vae_img2spctr/spec_decoder/batch_normalization_3/batchnorm/mul", "shape": [64], "dtype": "float32", "quantization": {"dtype": "uint8", "min": 0.3579584062099457, "scale": 0.0025727642517463832, "original_dtype": "float32"}}, {"name": "StatefulPartitionedCall/vae_img2spctr/spec_decoder/batch_normalization_3/batchnorm/sub", "shape": [64], "dtype": "float32", "quantization": {"dtype": "uint8", "min": -0.4261574236785664, "scale": 0.004058642130272061, "original_dtype": "float32"}}, {"name": "StatefulPartitionedCall/vae_img2spctr/spec_decoder/conv1d_transpose_5/conv1d_transpose/concat", "shape": [4], "dtype": "int32"}, {"name": "StatefulPartitionedCall/vae_img2spctr/spec_decoder/conv1d_transpose_5/conv1d_transpose/ExpandDims_1", "shape": [1, 1, 64, 128], "dtype": "float32", "quantization": {"dtype": "uint8", "min": -0.31469150436859505, "scale": 0.002200639890689476, "original_dtype": "float32"}}, {"name": "StatefulPartitionedCall/vae_img2spctr/spec_decoder/conv1d_transpose_1/conv1d_transpose/concat", "shape": [4], "dtype": "int32"}, {"name": "StatefulPartitionedCall/vae_img2spctr/spec_decoder/conv1d_transpose_1/conv1d_transpose/ExpandDims_1", "shape": [1, 3, 128, 128], "dtype": "float32", "quantization": {"dtype": "uint8", "min": -0.2322273264328639, "scale": 0.0019514901380912931, "original_dtype": "float32"}}, {"name": "StatefulPartitionedCall/vae_img2spctr/spec_decoder/conv1d_transpose/conv1d_transpose/concat", "shape": [4], "dtype": "int32"}, {"name": "StatefulPartitionedCall/vae_img2spctr/spec_decoder/conv1d_transpose/conv1d_transpose/ExpandDims_1", "shape": [1, 3, 128, 1024], "dtype": "float32", "quantization": {"dtype": "uint8", "min": -0.24482265547210094, "scale": 0.0019126769958757886, "original_dtype": "float32"}}, {"name": "StatefulPartitionedCall/vae_img2spctr/spec_decoder/conv1d_transpose/conv1d_transpose/ExpandDims/dim", "shape": [], "dtype": "int32"}, {"name": "StatefulPartitionedCall/vae_img2spctr/spec_decoder/conv1d_transpose/BiasAdd/ReadVariableOp", "shape": [128], "dtype": "float32", "quantization": {"dtype": "uint8", "min": -4.176009793345835e-05, "scale": 5.220012241682294e-07, "original_dtype": "float32"}}, {"name": "StatefulPartitionedCall/vae_img2spctr/spec_decoder/batch_normalization/batchnorm/mul", "shape": [128], "dtype": "float32", "quantization": {"dtype": "uint8", "min": 0.10551980137825012, "scale": 0.0009854760824465284, "original_dtype": "float32"}}, {"name": "StatefulPartitionedCall/vae_img2spctr/spec_decoder/batch_normalization/batchnorm/sub", "shape": [128], "dtype": "float32", "quantization": {"dtype": "uint8", "min": -2.9457873307022395, "scale": 0.019770384769813687, "original_dtype": "float32"}}, {"name": "StatefulPartitionedCall/vae_img2spctr/spec_decoder/conv1d_transpose_1/conv1d_transpose/ExpandDims/dim", "shape": [], "dtype": "int32"}, {"name": "StatefulPartitionedCall/vae_img2spctr/spec_decoder/conv1d_transpose_1/BiasAdd/ReadVariableOp", "shape": [128], "dtype": "float32", "quantization": {"dtype": "uint8", "min": -1.472515261197901e-05, "scale": 1.3634400566647232e-07, "original_dtype": "float32"}}, {"name": "StatefulPartitionedCall/vae_img2spctr/spec_decoder/batch_normalization_1/batchnorm/mul", "shape": [128], "dtype": "float32", "quantization": {"dtype": "uint8", "min": 0.18129953742027283, "scale": 0.0017281570855308982, "original_dtype": "float32"}}, {"name": "StatefulPartitionedCall/vae_img2spctr/spec_decoder/batch_normalization_1/batchnorm/sub", "shape": [128], "dtype": "float32", "quantization": {"dtype": "uint8", "min": -0.2390396242048226, "scale": 0.003230265191957062, "original_dtype": "float32"}}, {"name": "StatefulPartitionedCall/vae_img2spctr/spec_decoder/conv1d_transpose_2/conv1d_transpose/concat", "shape": [4], "dtype": "int32"}, {"name": "StatefulPartitionedCall/vae_img2spctr/spec_decoder/conv1d_transpose_2/conv1d_transpose/ExpandDims_1", "shape": [1, 1, 128, 1024], "dtype": "float32", "quantization": {"dtype": "uint8", "min": -0.17058238720192628, "scale": 0.001386848676438425, "original_dtype": "float32"}}, {"name": "StatefulPartitionedCall/vae_img2spctr/mu/MatMul/ReadVariableOp", "shape": [2048, 128], "dtype": "float32", "quantization": {"dtype": "uint8", "min": -0.25373534595265107, "scale": 0.0021144612162720925, "original_dtype": "float32"}}, {"name": "StatefulPartitionedCall/vae_img2spctr/mu/BiasAdd/ReadVariableOp", "shape": [128], "dtype": "float32", "quantization": {"dtype": "uint8", "min": -0.07640690926243278, "scale": 0.0006112552740994622, "original_dtype": "float32"}}, {"name": "StatefulPartitionedCall/vae_img2spctr/sampling_tf_lite/mul/x", "shape": [], "dtype": "float32", "quantization": {"dtype": "uint8", "min": 0.5, "scale": 1.0, "original_dtype": "float32"}}, {"name": "StatefulPartitionedCall/vae_img2spctr/xception/block13_sepconv1/separable_conv2d/ReadVariableOp", "shape": [3, 3, 728, 1], "dtype": "float32", "quantization": {"dtype": "uint8", "min": -1.0451839437671735, "scale": 0.007799880177366967, "original_dtype": "float32"}}, {"name": "StatefulPartitionedCall/vae_img2spctr/xception/block13_sepconv2/separable_conv2d/ReadVariableOp", "shape": [3, 3, 728, 1], "dtype": "float32", "quantization": {"dtype": "uint8", "min": -0.7969621396532246, "scale": 0.004981013372832654, "original_dtype": "float32"}}, {"name": "StatefulPartitionedCall/vae_img2spctr/xception/block12_sepconv1/separable_conv2d/ReadVariableOp", "shape": [3, 3, 728, 1], "dtype": "float32", "quantization": {"dtype": "uint8", "min": -0.7153825451346005, "scale": 0.005863791353562299, "original_dtype": "float32"}}, {"name": "StatefulPartitionedCall/vae_img2spctr/xception/block12_sepconv2/separable_conv2d/ReadVariableOp", "shape": [3, 3, 728, 1], "dtype": "float32", "quantization": {"dtype": "uint8", "min": -0.9108179139155967, "scale": 0.007851878568237903, "original_dtype": "float32"}}, {"name": "StatefulPartitionedCall/vae_img2spctr/xception/block12_sepconv3/separable_conv2d/ReadVariableOp", "shape": [3, 3, 728, 1], "dtype": "float32", "quantization": {"dtype": "uint8", "min": -0.9387831033444872, "scale": 0.006705593595317766, "original_dtype": "float32"}}, {"name": "StatefulPartitionedCall/vae_img2spctr/xception/block11_sepconv1/separable_conv2d/ReadVariableOp", "shape": [3, 3, 728, 1], "dtype": "float32", "quantization": {"dtype": "uint8", "min": -0.6792952357553969, "scale": 0.005107482975604488, "original_dtype": "float32"}}, {"name": "StatefulPartitionedCall/vae_img2spctr/xception/block11_sepconv2/separable_conv2d/ReadVariableOp", "shape": [3, 3, 728, 1], "dtype": "float32", "quantization": {"dtype": "uint8", "min": -0.7226759055081536, "scale": 0.005559045426985797, "original_dtype": "float32"}}, {"name": "StatefulPartitionedCall/vae_img2spctr/xception/block11_sepconv3/separable_conv2d/ReadVariableOp", "shape": [3, 3, 728, 1], "dtype": "float32", "quantization": {"dtype": "uint8", "min": -0.7028161348081102, "scale": 0.005667872054904115, "original_dtype": "float32"}}, {"name": "StatefulPartitionedCall/vae_img2spctr/xception/block10_sepconv1/separable_conv2d/ReadVariableOp", "shape": [3, 3, 728, 1], "dtype": "float32", "quantization": {"dtype": "uint8", "min": -0.8425227894502527, "scale": 0.005850852704515644, "original_dtype": "float32"}}, {"name": "StatefulPartitionedCall/vae_img2spctr/xception/block10_sepconv2/separable_conv2d/ReadVariableOp", "shape": [3, 3, 728, 1], "dtype": "float32", "quantization": {"dtype": "uint8", "min": -0.7445678809109856, "scale": 0.006363828041974236, "original_dtype": "float32"}}, {"name": "StatefulPartitionedCall/vae_img2spctr/xception/block10_sepconv3/separable_conv2d/ReadVariableOp", "shape": [3, 3, 728, 1], "dtype": "float32", "quantization": {"dtype": "uint8", "min": -1.12125865501516, "scale": 0.007627609898062313, "original_dtype": "float32"}}, {"name": "StatefulPartitionedCall/vae_img2spctr/xception/block9_sepconv1/separable_conv2d/ReadVariableOp", "shape": [3, 3, 728, 1], "dtype": "float32", "quantization": {"dtype": "uint8", "min": -0.47286750078201295, "scale": 0.004635955890019735, "original_dtype": "float32"}}, {"name": "StatefulPartitionedCall/vae_img2spctr/xception/block9_sepconv2/separable_conv2d/ReadVariableOp", "shape": [3, 3, 728, 1], "dtype": "float32", "quantization": {"dtype": "uint8", "min": -0.9920601914910709, "scale": 0.006278861971462474, "original_dtype": "float32"}}, {"name": "StatefulPartitionedCall/vae_img2spctr/xception/block9_sepconv3/separable_conv2d/ReadVariableOp", "shape": [3, 3, 728, 1], "dtype": "float32", "quantization": {"dtype": "uint8", "min": -1.4641390795801201, "scale": 0.009266703035317216, "original_dtype": "float32"}}, {"name": "StatefulPartitionedCall/vae_img2spctr/xception/block8_sepconv1/separable_conv2d/ReadVariableOp", "shape": [3, 3, 728, 1], "dtype": "float32", "quantization": {"dtype": "uint8", "min": -0.8889438171012729, "scale": 0.0072864247303383025, "original_dtype": "float32"}}, {"name": "StatefulPartitionedCall/vae_img2spctr/xception/block8_sepconv2/separable_conv2d/ReadVariableOp", "shape": [3, 3, 728, 1], "dtype": "float32", "quantization": {"dtype": "uint8", "min": -0.7570630106271482, "scale": 0.005649723959904091, "original_dtype": "float32"}}, {"name": "StatefulPartitionedCall/vae_img2spctr/xception/block8_sepconv3/separable_conv2d/ReadVariableOp", "shape": [3, 3, 728, 1], "dtype": "float32", "quantization": {"dtype": "uint8", "min": -0.7109813690185547, "scale": 0.005227804183959961, "original_dtype": "float32"}}, {"name": "StatefulPartitionedCall/vae_img2spctr/xception/block7_sepconv1/separable_conv2d/ReadVariableOp", "shape": [3, 3, 728, 1], "dtype": "float32", "quantization": {"dtype": "uint8", "min": -0.6276366177727194, "scale": 0.0051445624407599954, "original_dtype": "float32"}}, {"name": "StatefulPartitionedCall/vae_img2spctr/xception/block7_sepconv2/separable_conv2d/ReadVariableOp", "shape": [3, 3, 728, 1], "dtype": "float32", "quantization": {"dtype": "uint8", "min": -0.9279638538173601, "scale": 0.006489257719002518, "original_dtype": "float32"}}, {"name": "StatefulPartitionedCall/vae_img2spctr/xception/block7_sepconv3/separable_conv2d/ReadVariableOp", "shape": [3, 3, 728, 1], "dtype": "float32", "quantization": {"dtype": "uint8", "min": -1.2028742350784003, "scale": 0.007760478935989679, "original_dtype": "float32"}}, {"name": "StatefulPartitionedCall/vae_img2spctr/xception/block6_sepconv1/separable_conv2d/ReadVariableOp", "shape": [3, 3, 728, 1], "dtype": "float32", "quantization": {"dtype": "uint8", "min": -0.7530191458907782, "scale": 0.00537870818493413, "original_dtype": "float32"}}, {"name": "StatefulPartitionedCall/vae_img2spctr/xception/block6_sepconv2/separable_conv2d/ReadVariableOp", "shape": [3, 3, 728, 1], "dtype": "float32", "quantization": {"dtype": "uint8", "min": -1.2501626049771029, "scale": 0.008065565193400664, "original_dtype": "float32"}}, {"name": "StatefulPartitionedCall/vae_img2spctr/xception/block6_sepconv3/separable_conv2d/ReadVariableOp", "shape": [3, 3, 728, 1], "dtype": "float32", "quantization": {"dtype": "uint8", "min": -1.364592890178456, "scale": 0.008220439097460579, "original_dtype": "float32"}}, {"name": "StatefulPartitionedCall/vae_img2spctr/xception/block5_sepconv1/separable_conv2d/ReadVariableOp", "shape": [3, 3, 728, 1], "dtype": "float32", "quantization": {"dtype": "uint8", "min": -0.6687841836143943, "scale": 0.005716104133456361, "original_dtype": "float32"}}, {"name": "StatefulPartitionedCall/vae_img2spctr/xception/block5_sepconv2/separable_conv2d/ReadVariableOp", "shape": [3, 3, 728, 1], "dtype": "float32", "quantization": {"dtype": "uint8", "min": -0.874441523177951, "scale": 0.0076038393319821825, "original_dtype": "float32"}}, {"name": "StatefulPartitionedCall/vae_img2spctr/xception/block5_sepconv3/separable_conv2d/ReadVariableOp", "shape": [3, 3, 728, 1], "dtype": "float32", "quantization": {"dtype": "uint8", "min": -1.4416055595173554, "scale": 0.010446417097951851, "original_dtype": "float32"}}, {"name": "StatefulPartitionedCall/vae_img2spctr/xception/block4_sepconv1/separable_conv2d/ReadVariableOp", "shape": [3, 3, 256, 1], "dtype": "float32", "quantization": {"dtype": "uint8", "min": -1.2298190949009913, "scale": 0.009177754439559637, "original_dtype": "float32"}}, {"name": "StatefulPartitionedCall/vae_img2spctr/xception/block4_sepconv2/separable_conv2d/ReadVariableOp", "shape": [3, 3, 728, 1], "dtype": "float32", "quantization": {"dtype": "uint8", "min": -0.8098014967114318, "scale": 0.00826328057868808, "original_dtype": "float32"}}, {"name": "StatefulPartitionedCall/vae_img2spctr/xception/block3_sepconv1/separable_conv2d/ReadVariableOp", "shape": [3, 3, 128, 1], "dtype": "float32", "quantization": {"dtype": "uint8", "min": -1.9064804077148438, "scale": 0.013239447275797527, "original_dtype": "float32"}}, {"name": "StatefulPartitionedCall/vae_img2spctr/xception/block3_sepconv2/separable_conv2d/ReadVariableOp", "shape": [3, 3, 256, 1], "dtype": "float32", "quantization": {"dtype": "uint8", "min": -1.1964547746321734, "scale": 0.00866996213501575, "original_dtype": "float32"}}, {"name": "StatefulPartitionedCall/vae_img2spctr/xception/block2_sepconv1/separable_conv2d/ReadVariableOp", "shape": [3, 3, 64, 1], "dtype": "float32", "quantization": {"dtype": "uint8", "min": -2.2604585339041314, "scale": 0.017522934371349858, "original_dtype": "float32"}}, {"name": "StatefulPartitionedCall/vae_img2spctr/xception/block2_sepconv2/separable_conv2d/ReadVariableOp", "shape": [3, 3, 128, 1], "dtype": "float32", "quantization": {"dtype": "uint8", "min": -1.5445847226124183, "scale": 0.011274341040966557, "original_dtype": "float32"}}, {"name": "StatefulPartitionedCall/vae_img2spctr/xception/block14_sepconv1/separable_conv2d/ReadVariableOp", "shape": [3, 3, 1024, 1], "dtype": "float32", "quantization": {"dtype": "uint8", "min": -1.1740884514415963, "scale": 0.0083268684499404, "original_dtype": "float32"}}, {"name": "StatefulPartitionedCall/vae_img2spctr/xception/block14_sepconv2/separable_conv2d/ReadVariableOp", "shape": [3, 3, 1536, 1], "dtype": "float32", "quantization": {"dtype": "uint8", "min": -0.5871895925671446, "scale": 0.004516843019747267, "original_dtype": "float32"}}, {"name": "StatefulPartitionedCall/vae_img2spctr/global_average_pooling2d/Mean/reduction_indices", "shape": [2], "dtype": "int32"}, {"name": "StatefulPartitionedCall/vae_img2spctr/log_var/MatMul/ReadVariableOp", "shape": [2048, 128], "dtype": "float32", "quantization": {"dtype": "uint8", "min": -0.2063257099658835, "scale": 0.0011152741079236946, "original_dtype": "float32"}}, {"name": "StatefulPartitionedCall/vae_img2spctr/log_var/BiasAdd/ReadVariableOp", "shape": [128], "dtype": "float32", "quantization": {"dtype": "uint8", "min": -0.20701725780963898, "scale": 0.0005898865852870193, "original_dtype": "float32"}}, {"name": "StatefulPartitionedCall/vae_img2spctr/sampling_tf_lite/random_normal/shape", "shape": [2], "dtype": "int32"}, {"name": "StatefulPartitionedCall/vae_img2spctr/spec_decoder/dense/MatMul/ReadVariableOp", "shape": [128, 8192], "dtype": "float32", "quantization": {"dtype": "uint8", "min": -0.2136838863877689, "scale": 0.0019785545035904527, "original_dtype": "float32"}}, {"name": "StatefulPartitionedCall/vae_img2spctr/spec_decoder/dense/BiasAdd/ReadVariableOp", "shape": [8192], "dtype": "float32", "quantization": {"dtype": "uint8", "min": -0.18276770699257944, "scale": 0.0012780958530949611, "original_dtype": "float32"}}, {"name": "StatefulPartitionedCall/vae_img2spctr/spec_decoder/reshape_tf_lite/Reshape/shape", "shape": [3], "dtype": "int32"}, {"name": "StatefulPartitionedCall/vae_img2spctr/spec_decoder/conv1d_transpose_2/conv1d_transpose/ExpandDims/dim", "shape": [], "dtype": "int32"}, {"name": "StatefulPartitionedCall/vae_img2spctr/spec_decoder/conv1d_transpose_2/BiasAdd/ReadVariableOp", "shape": [128], "dtype": "float32", "quantization": {"dtype": "uint8", "min": -0.0918590106508311, "scale": 0.000723299296463237, "original_dtype": "float32"}}, {"name": "StatefulPartitionedCall/vae_img2spctr/spec_decoder/conv1d_transpose_5/conv1d_transpose/ExpandDims/dim", "shape": [], "dtype": "int32"}, {"name": "StatefulPartitionedCall/vae_img2spctr/spec_decoder/conv1d_transpose_5/BiasAdd/ReadVariableOp", "shape": [64], "dtype": "float32", "quantization": {"dtype": "uint8", "min": -0.0711780587832133, "scale": 0.0005981349477580949, "original_dtype": "float32"}}, {"name": "StatefulPartitionedCall/vae_img2spctr/spec_decoder/conv1d_transpose_8/conv1d_transpose/ExpandDims/dim", "shape": [], "dtype": "int32"}, {"name": "StatefulPartitionedCall/vae_img2spctr/spec_decoder/conv1d_transpose_8/BiasAdd/ReadVariableOp", "shape": [32], "dtype": "float32", "quantization": {"dtype": "uint8", "min": -0.10822423918574464, "scale": 0.0007263371757432526, "original_dtype": "float32"}}, {"name": "StatefulPartitionedCall/vae_img2spctr/spec_decoder/conv1d_transpose_9/conv1d_transpose/ExpandDims/dim", "shape": [], "dtype": "int32"}, {"name": "StatefulPartitionedCall/vae_img2spctr/spec_decoder/conv1d_transpose_9/BiasAdd/ReadVariableOp", "shape": [1], "dtype": "float32", "quantization": {"dtype": "uint8", "min": -0.04876873269677162, "scale": 1.0, "original_dtype": "float32"}}, {"name": "StatefulPartitionedCall/vae_img2spctr/spec_decoder/my_up_sampling1d/ExpandDims/dim", "shape": [], "dtype": "int32"}, {"name": "StatefulPartitionedCall/vae_img2spctr/spec_decoder/my_up_sampling1d/resize/size", "shape": [2], "dtype": "int32"}, {"name": "StatefulPartitionedCall/vae_img2spctr/xception/block1_conv1/Conv2D_weights", "shape": [3, 3, 3, 32], "dtype": "float32", "quantization": {"dtype": "uint8", "min": -5.53834166433297, "scale": 0.037933847015979245, "original_dtype": "float32"}}, {"name": "StatefulPartitionedCall/vae_img2spctr/xception/block1_conv1/Conv2D_bn_offset", "shape": [32], "dtype": "float32", "quantization": {"dtype": "uint8", "min": -3.3717284455018883, "scale": 0.03405786308587766, "original_dtype": "float32"}}, {"name": "StatefulPartitionedCall/vae_img2spctr/xception/block1_conv2/Conv2D_weights", "shape": [3, 3, 32, 64], "dtype": "float32", "quantization": {"dtype": "uint8", "min": -1.163193998149797, "scale": 0.009380596759272556, "original_dtype": "float32"}}, {"name": "StatefulPartitionedCall/vae_img2spctr/xception/block1_conv2/Conv2D_bn_offset", "shape": [64], "dtype": "float32", "quantization": {"dtype": "uint8", "min": -4.026221331428079, "scale": 0.05032776664285099, "original_dtype": "float32"}}, {"name": "StatefulPartitionedCall/vae_img2spctr/xception/conv2d/Conv2D_weights", "shape": [1, 1, 64, 128], "dtype": "float32", "quantization": {"dtype": "uint8", "min": -0.9465498606363932, "scale": 0.006959925445855833, "original_dtype": "float32"}}, {"name": "StatefulPartitionedCall/vae_img2spctr/xception/conv2d/Conv2D_bn_offset", "shape": [128], "dtype": "float32", "quantization": {"dtype": "uint8", "min": -2.680332078185736, "scale": 0.02215150477839451, "original_dtype": "float32"}}, {"name": "StatefulPartitionedCall/vae_img2spctr/xception/block2_sepconv1/separable_conv2d_weights", "shape": [1, 1, 64, 128], "dtype": "float32", "quantization": {"dtype": "uint8", "min": -0.9839299241701762, "scale": 0.008268318690505682, "original_dtype": "float32"}}, {"name": "StatefulPartitionedCall/vae_img2spctr/xception/block2_sepconv1/separable_conv2d_bn_offset", "shape": [128], "dtype": "float32", "quantization": {"dtype": "uint8", "min": -2.370016299977022, "scale": 0.02468766979142731, "original_dtype": "float32"}}, {"name": "StatefulPartitionedCall/vae_img2spctr/xception/block2_sepconv2/separable_conv2d_weights", "shape": [1, 1, 128, 128], "dtype": "float32", "quantization": {"dtype": "uint8", "min": -1.3167590459187826, "scale": 0.009682051808226342, "original_dtype": "float32"}}, {"name": "StatefulPartitionedCall/vae_img2spctr/xception/block2_sepconv2/separable_conv2d_bn_offset", "shape": [128], "dtype": "float32", "quantization": {"dtype": "uint8", "min": -2.3074009390438306, "scale": 0.02848643134622013, "original_dtype": "float32"}}, {"name": "StatefulPartitionedCall/vae_img2spctr/xception/conv2d_1/Conv2D_weights", "shape": [1, 1, 128, 256], "dtype": "float32", "quantization": {"dtype": "uint8", "min": -0.5908524849835565, "scale": 0.004689305436377432, "original_dtype": "float32"}}, {"name": "StatefulPartitionedCall/vae_img2spctr/xception/conv2d_1/Conv2D_bn_offset", "shape": [256], "dtype": "float32", "quantization": {"dtype": "uint8", "min": -5.900108225205365, "scale": 0.047968359554515165, "original_dtype": "float32"}}, {"name": "StatefulPartitionedCall/vae_img2spctr/xception/block3_sepconv1/separable_conv2d_weights", "shape": [1, 1, 128, 256], "dtype": "float32", "quantization": {"dtype": "uint8", "min": -0.5866520005113938, "scale": 0.005014119662490545, "original_dtype": "float32"}}, {"name": "StatefulPartitionedCall/vae_img2spctr/xception/block3_sepconv1/separable_conv2d_bn_offset", "shape": [256], "dtype": "float32", "quantization": {"dtype": "uint8", "min": -5.3452051274916705, "scale": 0.044175248987534464, "original_dtype": "float32"}}, {"name": "StatefulPartitionedCall/vae_img2spctr/xception/block3_sepconv2/separable_conv2d_weights", "shape": [1, 1, 256, 256], "dtype": "float32", "quantization": {"dtype": "uint8", "min": -1.569678106027491, "scale": 0.01067808235392851, "original_dtype": "float32"}}, {"name": "StatefulPartitionedCall/vae_img2spctr/xception/block3_sepconv2/separable_conv2d_bn_offset", "shape": [256], "dtype": "float32", "quantization": {"dtype": "uint8", "min": -3.156205687803381, "scale": 0.026084344527300667, "original_dtype": "float32"}}, {"name": "StatefulPartitionedCall/vae_img2spctr/xception/conv2d_2/Conv2D_weights", "shape": [1, 1, 256, 728], "dtype": "float32", "quantization": {"dtype": "uint8", "min": -0.3163862466812134, "scale": 0.002658707955304314, "original_dtype": "float32"}}, {"name": "StatefulPartitionedCall/vae_img2spctr/xception/conv2d_2/Conv2D_bn_offset", "shape": [728], "dtype": "float32", "quantization": {"dtype": "uint8", "min": -6.280242379506429, "scale": 0.045841185251871745, "original_dtype": "float32"}}, {"name": "StatefulPartitionedCall/vae_img2spctr/xception/block4_sepconv1/separable_conv2d_weights", "shape": [1, 1, 256, 728], "dtype": "float32", "quantization": {"dtype": "uint8", "min": -0.7129310046925265, "scale": 0.006601213006412282, "original_dtype": "float32"}}, {"name": "StatefulPartitionedCall/vae_img2spctr/xception/block4_sepconv1/separable_conv2d_bn_offset", "shape": [728], "dtype": "float32", "quantization": {"dtype": "uint8", "min": -5.3776864612803745, "scale": 0.04844762577730067, "original_dtype": "float32"}}, {"name": "StatefulPartitionedCall/vae_img2spctr/xception/block4_sepconv2/separable_conv2d_weights", "shape": [1, 1, 728, 728], "dtype": "float32", "quantization": {"dtype": "uint8", "min": -0.8607151031494141, "scale": 0.008438383364209942, "original_dtype": "float32"}}, {"name": "StatefulPartitionedCall/vae_img2spctr/xception/block4_sepconv2/separable_conv2d_bn_offset", "shape": [728], "dtype": "float32", "quantization": {"dtype": "uint8", "min": -3.77886191629896, "scale": 0.028846274170221068, "original_dtype": "float32"}}, {"name": "StatefulPartitionedCall/vae_img2spctr/xception/block5_sepconv1/separable_conv2d_weights", "shape": [1, 1, 728, 728], "dtype": "float32", "quantization": {"dtype": "uint8", "min": -0.7926338805871852, "scale": 0.005871362078423594, "original_dtype": "float32"}}, {"name": "StatefulPartitionedCall/vae_img2spctr/xception/block5_sepconv1/separable_conv2d_bn_offset", "shape": [728], "dtype": "float32", "quantization": {"dtype": "uint8", "min": -4.578273833031748, "scale": 0.03224136502135034, "original_dtype": "float32"}}, {"name": "StatefulPartitionedCall/vae_img2spctr/xception/block5_sepconv2/separable_conv2d_weights", "shape": [1, 1, 728, 728], "dtype": "float32", "quantization": {"dtype": "uint8", "min": -2.013915454640108, "scale": 0.044753676769780176, "original_dtype": "float32"}}, {"name": "StatefulPartitionedCall/vae_img2spctr/xception/block5_sepconv2/separable_conv2d_bn_offset", "shape": [728], "dtype": "float32", "quantization": {"dtype": "uint8", "min": -3.1729380495408, "scale": 0.02367864216075224, "original_dtype": "float32"}}, {"name": "StatefulPartitionedCall/vae_img2spctr/xception/block5_sepconv3/separable_conv2d_weights", "shape": [1, 1, 728, 728], "dtype": "float32", "quantization": {"dtype": "uint8", "min": -2.4774893592385685, "scale": 0.01588134204640108, "original_dtype": "float32"}}, {"name": "StatefulPartitionedCall/vae_img2spctr/xception/block5_sepconv3/separable_conv2d_bn_offset", "shape": [728], "dtype": "float32", "quantization": {"dtype": "uint8", "min": -1.9453183693044327, "scale": 0.014199404155506808, "original_dtype": "float32"}}, {"name": "StatefulPartitionedCall/vae_img2spctr/xception/block6_sepconv1/separable_conv2d_weights", "shape": [1, 1, 728, 728], "dtype": "float32", "quantization": {"dtype": "uint8", "min": -0.8706000271965476, "scale": 0.006308695849250345, "original_dtype": "float32"}}, {"name": "StatefulPartitionedCall/vae_img2spctr/xception/block6_sepconv1/separable_conv2d_bn_offset", "shape": [728], "dtype": "float32", "quantization": {"dtype": "uint8", "min": -4.865545220468558, "scale": 0.0287902084051394, "original_dtype": "float32"}}, {"name": "StatefulPartitionedCall/vae_img2spctr/xception/block6_sepconv2/separable_conv2d_weights", "shape": [1, 1, 728, 728], "dtype": "float32", "quantization": {"dtype": "uint8", "min": -1.68746517125298, "scale": 0.01188355754403507, "original_dtype": "float32"}}, {"name": "StatefulPartitionedCall/vae_img2spctr/xception/block6_sepconv2/separable_conv2d_bn_offset", "shape": [728], "dtype": "float32", "quantization": {"dtype": "uint8", "min": -2.056881824194216, "scale": 0.021881721533981022, "original_dtype": "float32"}}, {"name": "StatefulPartitionedCall/vae_img2spctr/xception/block6_sepconv3/separable_conv2d_weights", "shape": [1, 1, 728, 728], "dtype": "float32", "quantization": {"dtype": "uint8", "min": -1.7030397723702824, "scale": 0.012615109424965054, "original_dtype": "float32"}}, {"name": "StatefulPartitionedCall/vae_img2spctr/xception/block6_sepconv3/separable_conv2d_bn_offset", "shape": [728], "dtype": "float32", "quantization": {"dtype": "uint8", "min": -1.5137966922685213, "scale": 0.013888043048335057, "original_dtype": "float32"}}, {"name": "StatefulPartitionedCall/vae_img2spctr/xception/block7_sepconv1/separable_conv2d_weights", "shape": [1, 1, 728, 728], "dtype": "float32", "quantization": {"dtype": "uint8", "min": -0.4870606922635845, "scale": 0.0039279088085772944, "original_dtype": "float32"}}, {"name": "StatefulPartitionedCall/vae_img2spctr/xception/block7_sepconv1/separable_conv2d_bn_offset", "shape": [728], "dtype": "float32", "quantization": {"dtype": "uint8", "min": -3.641590112798354, "scale": 0.025645000794354608, "original_dtype": "float32"}}, {"name": "StatefulPartitionedCall/vae_img2spctr/xception/block7_sepconv2/separable_conv2d_weights", "shape": [1, 1, 728, 728], "dtype": "float32", "quantization": {"dtype": "uint8", "min": -0.9203260613422767, "scale": 0.008682321333417705, "original_dtype": "float32"}}, {"name": "StatefulPartitionedCall/vae_img2spctr/xception/block7_sepconv2/separable_conv2d_bn_offset", "shape": [728], "dtype": "float32", "quantization": {"dtype": "uint8", "min": -1.8743414808722103, "scale": 0.01388401096942378, "original_dtype": "float32"}}, {"name": "StatefulPartitionedCall/vae_img2spctr/xception/block7_sepconv3/separable_conv2d_weights", "shape": [1, 1, 728, 728], "dtype": "float32", "quantization": {"dtype": "uint8", "min": -0.9938102011587105, "scale": 0.008873305367488487, "original_dtype": "float32"}}, {"name": "StatefulPartitionedCall/vae_img2spctr/xception/block7_sepconv3/separable_conv2d_bn_offset", "shape": [728], "dtype": "float32", "quantization": {"dtype": "uint8", "min": -1.5088737338196998, "scale": 0.011788076045466405, "original_dtype": "float32"}}, {"name": "StatefulPartitionedCall/vae_img2spctr/xception/block8_sepconv1/separable_conv2d_weights", "shape": [1, 1, 728, 728], "dtype": "float32", "quantization": {"dtype": "uint8", "min": -0.4301897304899552, "scale": 0.004020464770934161, "original_dtype": "float32"}}, {"name": "StatefulPartitionedCall/vae_img2spctr/xception/block8_sepconv1/separable_conv2d_bn_offset", "shape": [728], "dtype": "float32", "quantization": {"dtype": "uint8", "min": -1.6040439708560121, "scale": 0.015881623473821903, "original_dtype": "float32"}}, {"name": "StatefulPartitionedCall/vae_img2spctr/xception/block8_sepconv2/separable_conv2d_weights", "shape": [1, 1, 728, 728], "dtype": "float32", "quantization": {"dtype": "uint8", "min": -2.021760388916614, "scale": 0.014441145635118672, "original_dtype": "float32"}}, {"name": "StatefulPartitionedCall/vae_img2spctr/xception/block8_sepconv2/separable_conv2d_bn_offset", "shape": [728], "dtype": "float32", "quantization": {"dtype": "uint8", "min": -2.49103203941794, "scale": 0.01779308599584243, "original_dtype": "float32"}}, {"name": "StatefulPartitionedCall/vae_img2spctr/xception/block8_sepconv3/separable_conv2d_weights", "shape": [1, 1, 728, 728], "dtype": "float32", "quantization": {"dtype": "uint8", "min": -1.737833009046667, "scale": 0.01379232546862434, "original_dtype": "float32"}}, {"name": "StatefulPartitionedCall/vae_img2spctr/xception/block8_sepconv3/separable_conv2d_bn_offset", "shape": [728], "dtype": "float32", "quantization": {"dtype": "uint8", "min": -2.4383465430315803, "scale": 0.01425933650895661, "original_dtype": "float32"}}, {"name": "StatefulPartitionedCall/vae_img2spctr/xception/block9_sepconv1/separable_conv2d_weights", "shape": [1, 1, 728, 728], "dtype": "float32", "quantization": {"dtype": "uint8", "min": -0.66708771387736, "scale": 0.004905056719686471, "original_dtype": "float32"}}, {"name": "StatefulPartitionedCall/vae_img2spctr/xception/block9_sepconv1/separable_conv2d_bn_offset", "shape": [728], "dtype": "float32", "quantization": {"dtype": "uint8", "min": -4.251533164230048, "scale": 0.025611645567650887, "original_dtype": "float32"}}, {"name": "StatefulPartitionedCall/vae_img2spctr/xception/block9_sepconv2/separable_conv2d_weights", "shape": [1, 1, 728, 728], "dtype": "float32", "quantization": {"dtype": "uint8", "min": -1.4817473995919321, "scale": 0.010660053234474332, "original_dtype": "float32"}}, {"name": "StatefulPartitionedCall/vae_img2spctr/xception/block9_sepconv2/separable_conv2d_bn_offset", "shape": [728], "dtype": "float32", "quantization": {"dtype": "uint8", "min": -2.4480322089849733, "scale": 0.02074603566936418, "original_dtype": "float32"}}, {"name": "StatefulPartitionedCall/vae_img2spctr/xception/block9_sepconv3/separable_conv2d_weights", "shape": [1, 1, 728, 728], "dtype": "float32", "quantization": {"dtype": "uint8", "min": -1.389963241184459, "scale": 0.013237745154137705, "original_dtype": "float32"}}, {"name": "StatefulPartitionedCall/vae_img2spctr/xception/block9_sepconv3/separable_conv2d_bn_offset", "shape": [728], "dtype": "float32", "quantization": {"dtype": "uint8", "min": -1.327164893056832, "scale": 0.0103684757270065, "original_dtype": "float32"}}, {"name": "StatefulPartitionedCall/vae_img2spctr/xception/block10_sepconv1/separable_conv2d_weights", "shape": [1, 1, 728, 728], "dtype": "float32", "quantization": {"dtype": "uint8", "min": -0.49759052547754024, "scale": 0.005408592668234133, "original_dtype": "float32"}}, {"name": "StatefulPartitionedCall/vae_img2spctr/xception/block10_sepconv1/separable_conv2d_bn_offset", "shape": [728], "dtype": "float32", "quantization": {"dtype": "uint8", "min": -3.1914000361573462, "scale": 0.023816418180278704, "original_dtype": "float32"}}, {"name": "StatefulPartitionedCall/vae_img2spctr/xception/block10_sepconv2/separable_conv2d_weights", "shape": [1, 1, 728, 728], "dtype": "float32", "quantization": {"dtype": "uint8", "min": -1.4092221652760224, "scale": 0.013048353382185393, "original_dtype": "float32"}}, {"name": "StatefulPartitionedCall/vae_img2spctr/xception/block10_sepconv2/separable_conv2d_bn_offset", "shape": [728], "dtype": "float32", "quantization": {"dtype": "uint8", "min": -1.81886124049916, "scale": 0.01289972510992312, "original_dtype": "float32"}}, {"name": "StatefulPartitionedCall/vae_img2spctr/xception/block10_sepconv3/separable_conv2d_weights", "shape": [1, 1, 728, 728], "dtype": "float32", "quantization": {"dtype": "uint8", "min": -1.3171683760250317, "scale": 0.010210607566085517, "original_dtype": "float32"}}, {"name": "StatefulPartitionedCall/vae_img2spctr/xception/block10_sepconv3/separable_conv2d_bn_offset", "shape": [728], "dtype": "float32", "quantization": {"dtype": "uint8", "min": -1.2680588245391846, "scale": 0.008929991722106933, "original_dtype": "float32"}}, {"name": "StatefulPartitionedCall/vae_img2spctr/xception/block11_sepconv1/separable_conv2d_weights", "shape": [1, 1, 728, 728], "dtype": "float32", "quantization": {"dtype": "uint8", "min": -0.5086827605378393, "scale": 0.004102280326918059, "original_dtype": "float32"}}, {"name": "StatefulPartitionedCall/vae_img2spctr/xception/block11_sepconv1/separable_conv2d_bn_offset", "shape": [728], "dtype": "float32", "quantization": {"dtype": "uint8", "min": -3.4244685453527115, "scale": 0.022678599638097426, "original_dtype": "float32"}}, {"name": "StatefulPartitionedCall/vae_img2spctr/xception/block11_sepconv2/separable_conv2d_weights", "shape": [1, 1, 728, 728], "dtype": "float32", "quantization": {"dtype": "uint8", "min": -1.22521554442013, "scale": 0.009497794917985504, "original_dtype": "float32"}}, {"name": "StatefulPartitionedCall/vae_img2spctr/xception/block11_sepconv2/separable_conv2d_bn_offset", "shape": [728], "dtype": "float32", "quantization": {"dtype": "uint8", "min": -2.884150687386008, "scale": 0.017479701135672775, "original_dtype": "float32"}}, {"name": "StatefulPartitionedCall/vae_img2spctr/xception/block11_sepconv3/separable_conv2d_weights", "shape": [1, 1, 728, 728], "dtype": "float32", "quantization": {"dtype": "uint8", "min": -1.4948630164651309, "scale": 0.011324719821705537, "original_dtype": "float32"}}, {"name": "StatefulPartitionedCall/vae_img2spctr/xception/block11_sepconv3/separable_conv2d_bn_offset", "shape": [728], "dtype": "float32", "quantization": {"dtype": "uint8", "min": -1.282692886801327, "scale": 0.008907589491675881, "original_dtype": "float32"}}, {"name": "StatefulPartitionedCall/vae_img2spctr/xception/block12_sepconv1/separable_conv2d_weights", "shape": [1, 1, 728, 728], "dtype": "float32", "quantization": {"dtype": "uint8", "min": -0.506917064330157, "scale": 0.004737542657291188, "original_dtype": "float32"}}, {"name": "StatefulPartitionedCall/vae_img2spctr/xception/block12_sepconv1/separable_conv2d_bn_offset", "shape": [728], "dtype": "float32", "quantization": {"dtype": "uint8", "min": -3.9985346560384714, "scale": 0.025796997780893362, "original_dtype": "float32"}}, {"name": "StatefulPartitionedCall/vae_img2spctr/xception/block12_sepconv2/separable_conv2d_weights", "shape": [1, 1, 728, 728], "dtype": "float32", "quantization": {"dtype": "uint8", "min": -1.671834585245918, "scale": 0.013592151099560308, "original_dtype": "float32"}}, {"name": "StatefulPartitionedCall/vae_img2spctr/xception/block12_sepconv2/separable_conv2d_bn_offset", "shape": [728], "dtype": "float32", "quantization": {"dtype": "uint8", "min": -3.2529559602924425, "scale": 0.017302957235598097, "original_dtype": "float32"}}, {"name": "StatefulPartitionedCall/vae_img2spctr/xception/block12_sepconv3/separable_conv2d_weights", "shape": [1, 1, 728, 728], "dtype": "float32", "quantization": {"dtype": "uint8", "min": -1.4623584130231073, "scale": 0.011606019150977042, "original_dtype": "float32"}}, {"name": "StatefulPartitionedCall/vae_img2spctr/xception/block12_sepconv3/separable_conv2d_bn_offset", "shape": [728], "dtype": "float32", "quantization": {"dtype": "uint8", "min": -1.3476347334244672, "scale": 0.010956379946540383, "original_dtype": "float32"}}, {"name": "StatefulPartitionedCall/vae_img2spctr/xception/conv2d_3/Conv2D_weights", "shape": [1, 1, 728, 1024], "dtype": "float32", "quantization": {"dtype": "uint8", "min": -0.09826684147119522, "scale": 0.0008257717770688674, "original_dtype": "float32"}}, {"name": "StatefulPartitionedCall/vae_img2spctr/xception/conv2d_3/Conv2D_bn_offset", "shape": [1024], "dtype": "float32", "quantization": {"dtype": "uint8", "min": -2.0333951164694395, "scale": 0.014120799419926663, "original_dtype": "float32"}}, {"name": "StatefulPartitionedCall/vae_img2spctr/xception/block13_sepconv1/separable_conv2d_weights", "shape": [1, 1, 728, 728], "dtype": "float32", "quantization": {"dtype": "uint8", "min": -0.31873125223552484, "scale": 0.002260505335003722, "original_dtype": "float32"}}, {"name": "StatefulPartitionedCall/vae_img2spctr/xception/block13_sepconv1/separable_conv2d_bn_offset", "shape": [728], "dtype": "float32", "quantization": {"dtype": "uint8", "min": -3.674483004738303, "scale": 0.018557994973425772, "original_dtype": "float32"}}, {"name": "StatefulPartitionedCall/vae_img2spctr/xception/block13_sepconv2/separable_conv2d_weights", "shape": [1, 1, 728, 1024], "dtype": "float32", "quantization": {"dtype": "uint8", "min": -1.9705378794202617, "scale": 0.01858997999453077, "original_dtype": "float32"}}, {"name": "StatefulPartitionedCall/vae_img2spctr/xception/block13_sepconv2/separable_conv2d_bn_offset", "shape": [1024], "dtype": "float32", "quantization": {"dtype": "uint8", "min": -2.031262790455538, "scale": 0.016649695003733915, "original_dtype": "float32"}}, {"name": "StatefulPartitionedCall/vae_img2spctr/xception/block14_sepconv1/separable_conv2d_weights", "shape": [1, 1, 1024, 1536], "dtype": "float32", "quantization": {"dtype": "uint8", "min": -0.18935755421133602, "scale": 0.0016465874279246611, "original_dtype": "float32"}}, {"name": "StatefulPartitionedCall/vae_img2spctr/xception/block14_sepconv1/separable_conv2d_bn_offset", "shape": [1536], "dtype": "float32", "quantization": {"dtype": "uint8", "min": -2.2917484975328635, "scale": 0.013805713840559418, "original_dtype": "float32"}}, {"name": "StatefulPartitionedCall/vae_img2spctr/xception/block14_sepconv2/separable_conv2d_weights", "shape": [1, 1, 1536, 2048], "dtype": "float32", "quantization": {"dtype": "uint8", "min": -0.4728631781596763, "scale": 0.003813412727094164, "original_dtype": "float32"}}, {"name": "StatefulPartitionedCall/vae_img2spctr/xception/block14_sepconv2/separable_conv2d_bn_offset", "shape": [2048], "dtype": "float32", "quantization": {"dtype": "uint8", "min": -0.4828579848887874, "scale": 0.005136787073284972, "original_dtype": "float32"}}]}]}